fork/NJODE-master/data/saved_models/id-13/best_checkpoint/checkpt.tar (torch, 141453 bytes, 51 tensors)

ode_f.f.0.weight f4 [50, 13]
0	0x3d85c2b6	0.06531279
1	0x3d9dd2ee	0.07706247
2	0x3d7d246e	0.06180232
3	0x3d20a98f	0.039224204
4	0x3d1cd62d	0.03829019
5	0x3d99f5c8	0.07517582
6	0x3d2885e1	0.041143302
7	0x3dbee1fc	0.09320447
8	0x3d10cf02	0.035353668
9	0x3d51c637	0.051214423
10	0x3d4073cd	0.046985436
11	0xbd1fdbfb	-0.03902815
12	0xbc8c4369	-0.017121987
13	0xbd42a168	-0.04751721
14	0xbd44df5a	-0.048064567
15	0xbd59ac46	-0.05314281
16	0xbd427e50	-0.047483742
17	0xbd5962c9	-0.053072724
18	0xbd5f7780	-0.054557323
19	0xbd0202a9	-0.03174082
20	0xbd3ab269	-0.0455803
21	0xbd39fb68	-0.045405775
22	0xbd4eb3e9	-0.050464544
23	0xbd56813a	-0.052369334
24	0x3d0aa489	0.03384832
25	0x3c84f77d	0.016231293
26	0xbcf104f1	-0.029421302
27	0xbd03a6bd	-0.032141436
28	0xbd09cc11	-0.03364188
29	0xbcef1710	-0.029185802
30	0xbd1382c8	-0.036013395
31	0xbd14da5a	-0.03634105
32	0xbc8c6609	-0.017138498
33	0xbcf06836	-0.029346567
34	0xbce3a164	-0.027786918
35	0xbd041219	-0.03224382
36	0xbcd8a909	-0.02644779
37	0x3cd2436c	0.025666915
38	0x3c1812b6	0.009281805
39	0xbd183e66	-0.037168883
40	0xbd81edaa	-0.06344159
41	0xbd8963d7	-0.06708496
42	0xbd81a1cf	-0.06329691
43	0xbde2313e	-0.110445485
44	0xbd2caf05	-0.0421591
45	0xbd71087d	-0.058845986
46	0xbd3a438e	-0.04547458
47	0xbd48abe0	-0.048992038
48	0xbd19ecee	-0.03757947
49	0xbda111c2	-0.07864715
50	0x3d219694	0.039450243
51	0x3cbf7304	0.023370273
52	0xbd5a80c4	-0.053345457
53	0x3c87cf66	0.016578387
54	0xbe059f08	-0.13048947
55	0x3c308f99	0.010776424
56	0x3b88046d	0.004150918
57	0xbe08244a	-0.13295093
58	0xbd9ed4ed	-0.07755456
59	0x3b53758a	0.0032266104
60	0x3d0cfab5	0.03441878
61	0xbe08ad3c	-0.13347334
62	0x3d352e31	0.044233505
63	0x3d0e7a95	0.034784872
64	0x3c70f640	0.014707148
65	0xbc444483	-0.011979225
66	0xbdbad161	-0.09121967
67	0xbc898f63	-0.016792005
68	0xbd18fafc	-0.037348732
69	0xbcb141e3	-0.021637863
70	0xbcb5135f	-0.022103963
71	0xbcff9e22	-0.031203333
72	0x3c04508a	0.008075843
73	0xbd6fddf4	-0.05856128
74	0xbd63461a	-0.055486776
75	0x3b798871	0.003807571
76	0x3cd442cc	0.025910757
77	0x3c44b4d5	0.012006004
78	0x3bda40fa	0.006660578
79	0xbc2005b2	-0.009766983
80	0x3b35ff3d	0.0027770542
81	0xbb0a013d	-0.0021057867
82	0xbc57b900	-0.013166666
83	0xbbb78a14	-0.005601177
84	0xbb9a8259	-0.0047152457
85	0x3c6c7ed5	0.014434536
86	0x3b9e594d	0.004832423
87	0xbaa7a827	-0.0012791202
88	0x3b7ec317	0.0038873607
89	0x3a48fef7	0.0007667387
90	0xb8be1871	-9.0644586e-05
91	0x3b1f98c9	0.0024352542
92	0x3df6b6f5	0.12046615
93	0x3d754ed0	0.059889615
94	0x3d8989c3	0.06715729
95	0x3df76c9b	0.12081262
96	0x3bb3ed15	0.005490909
97	0x3dabd4bc	0.08390185
98	0xbcc295d7	-0.02375309
99	0x3b9e7d1d	0.004836692
100	0x3d552768	0.052039534
101	0x3d384861	0.0449909
102	0xbd119bd6	-0.035549007
103	0xbc88ee85	-0.016715297
104	0x3d24e83a	0.04026053
105	0x3d41f2f9	0.047350857
106	0x3d3fa79c	0.046790704
107	0x3d2f8a6b	0.042856615
108	0x3d3dcce8	0.046337992
109	0x3d45002f	0.04809588
110	0x3cd5b5f1	0.026087733
111	0x3d1d77fb	0.0384445
112	0x3d25015b	0.040284496
113	0x3d367243	0.044542562
114	0x3d3cc480	0.046085835
115	0xbcff826e	-0.031190123
116	0xbc6cdeac	-0.014457386
117	0xbe25ed96	-0.16203913
118	0xbd4e2fca	-0.050338544
119	0xbe261784	-0.16219908
120	0xbb8caeac	-0.0042932834
121	0x3cd59a30	0.026074499
122	0xbca5c70e	-0.020236518
123	0xbd0d97d6	-0.03456863
124	0xbcb6e2f3	-0.022325015
125	0x3c0c5668	0.008565523
126	0xbe1337df	-0.14376782
127	0x3c11c643	0.008897367
128	0x3d330c2d	0.043712784
129	0x3c8eaae4	0.017415471
130	0xbd96ad69	-0.07357294
131	0xbd626b6f	-0.055278238
132	0xbda16144	-0.0787988
133	0xbba4b114	-0.005025992
134	0xbd011e8e	-0.03152328
135	0xbc1b3cc8	-0.009474941
136	0xbc1cacf7	-0.009562722
137	0xbce1baba	-0.027554858
138	0xbd855166	-0.06509666
139	0xbc6932ad	-0.014233273
140	0xbdaf7502	-0.08567239
141	0x3d09c89b	0.033638578
142	0x3c9dee81	0.019278767
143	0xbcad3974	-0.02114556
144	0xbca66b6a	-0.02031489
145	0xbcac5f17	-0.021041436
146	0xbc95d328	-0.018289164
147	0xbc9049b8	-0.017613277
148	0xbc9ee333	-0.019395446
149	0xbc567133	-0.013088512
150	0xbcc11f6f	-0.023574559
151	0xbcb37df9	-0.021910654
152	0xbc8cc861	-0.017185392
153	0xbc9a99de	-0.018872198
154	0x3c6e7a97	0.014555595
155	0x3bd7f1f0	0.0065901205
156	0x3d348e02	0.04408074
157	0x3d2cb646	0.042166017
158	0x3d4fe42e	0.05075472
159	0x3d1c87fb	0.03821562
160	0x3d59da52	0.053186722
161	0x3d56d899	0.052452657
162	0x3cf3de74	0.02976916
163	0x3d45318f	0.048142966
164	0x3d2dd9f5	0.04244419
165	0x3d23f35b	0.040027004
166	0x3d5715e2	0.052511103
167	0xbd077533	-0.033070754
168	0xbc87f269	-0.016595082
169	0xbc2c4464	-0.0105143525
170	0xbd216b11	-0.039408747
171	0xbd7b3505	-0.06132986
172	0xbd297611	-0.041372363
173	0xbd0f520e	-0.034990363
174	0xbd47f563	-0.048818003
175	0xbcecdd24	-0.028914042
176	0xbd591185	-0.052995224
177	0xbd600b81	-0.05469847
178	0xbd8655dd	-0.06559346
179	0xbd70587c	-0.058678135
180	0x3d0f75e1	0.035024527
181	0x3c983b8c	0.018583082
182	0x3c623903	0.013807538
183	0x3d20515a	0.039140083
184	0x3cb95fce	0.022628691
185	0x3cb12c3f	0.021627543
186	0x3d150854	0.036384895
187	0x3ce6d4b3	0.028177595
188	0x3c8f904a	0.017524857
189	0x3d1828e6	0.03714838
190	0x3cec6267	0.028855516
191	0x3d1c195d	0.038110126
192	0x3d5d49b8	0.05402538
193	0xbca615fd	-0.020274157
194	0xbc62e19a	-0.013847733
195	0x3d8c56d4	0.06852499
196	0x3db86717	0.09004038
197	0x3d68c0eb	0.056824606
198	0x3d5005a8	0.050786644
199	0xbc218008	-0.009857185
200	0x3d937e16	0.07201783
201	0x3cc8a437	0.024492366
202	0x3d04a72c	0.03238599
203	0x3cce7114	0.025200404
204	0x3b2ca167	0.002634132
205	0x3c11ca5f	0.008898347
206	0xbd01b1a4	-0.031663552
207	0xbc628310	-0.013825193
208	0x3d93c363	0.072150014
209	0x3dd27f6e	0.102782115
210	0x3d9a4e96	0.0753452
211	0x3c803cc3	0.015653973
212	0x3da53038	0.080658376
213	0x3d5936d3	0.0530308
214	0xbc028424	-0.007966075
215	0x3db50792	0.088393345
216	0x3d8c2967	0.06843834
217	0x3dc02aa0	0.0938313
218	0x3d8545a4	0.065074235
219	0xbd31f04c	-0.043442056
220	0xbca6b170	-0.02034828
221	0xbd31e0d3	-0.0434273
222	0xbd4885b1	-0.048955623
223	0xbd4cee18	-0.05003175
224	0xbd343845	-0.043998975
225	0xbd4dc821	-0.050239686
226	0xbd51d056	-0.051224075
227	0xbcdfe923	-0.027332848
228	0xbd29a725	-0.041419167
229	0xbd2881e8	-0.041139513
230	0xbd424674	-0.04743047
231	0xbd25eee7	-0.04051104
232	0x3d047940	0.032342196
233	0x3c4fa0e8	0.01267264
234	0xbd235a5d	-0.0398811
235	0xbd308fff	-0.043106075
236	0xbd30d021	-0.043167237
237	0xbd250a11	-0.040292803
238	0xbd1285e5	-0.035772223
239	0xbd25166a	-0.04030458
240	0xbcce3359	-0.025170969
241	0xbd2a6b8c	-0.04160647
242	0xbd11b58c	-0.035573527
243	0xbd3a6ddf	-0.045514937
244	0xbd1b9664	-0.03798522
245	0x3ce65e3c	0.028121106
246	0x3c456d7a	0.012050027
247	0x3db3130a	0.08743866
248	0x3cb2dcd3	0.021833813
249	0x3e1527c5	0.14565952
250	0xbd2bb362	-0.04191912
251	0x3d385414	0.04500206
252	0x3d5f2ecf	0.054488
253	0x3de428d3	0.11140599
254	0x3d7657e9	0.06014243
255	0x3d17d8d0	0.037072003

ode_f.f.0.bias f4 [50]
0	0x3d654e59	0.05598292
1	0xbd6f4b8e	-0.058421664
2	0xbd16dc89	-0.036831412
3	0xbd5b840c	-0.053592727
4	0xbd350d24	-0.044201985
5	0xbd1bfe37	-0.038084235
6	0x3af5ccd6	0.0018753062
7	0x3d4cb0a2	0.049973138
8	0x3d50cb77	0.05097529
9	0xbd48795d	-0.048943866
10	0xbd414f6c	-0.047194883
11	0xbcae62ae	-0.021287289
12	0x3d5a73df	0.05333316
13	0xbd566c89	-0.0523496
14	0x3ce15be0	0.02750963
15	0x3d3b3fb9	0.045715068
16	0x3d626676	0.055273496
17	0xbd622054	-0.05520661
18	0xbd3b93ff	-0.045795437
19	0x3d59cbb5	0.053172786
20	0xbd67e8bd	-0.05661844
21	0x3d573d34	0.052548602
22	0xbd20a4c9	-0.03921965
23	0xbd6e623f	-0.058199164
24	0xbd844a4e	-0.06459485
25	0xbd49bb1b	-0.049250703
26	0x3d46c9fe	0.04853248
27	0x3cc28abf	0.0237478
28	0x3d2b1467	0.041767504
29	0x3b280842	0.0025639688
30	0x3d4b3bb9	0.049617503
31	0x3d5a3e6e	0.053282194
32	0xbd3c06d3	-0.045904946
33	0xbd253a16	-0.0403386
34	0xbceb4899	-0.02872114
35	0x3d2c1080	0.042007923
36	0x3c033a91	0.008009569
37	0x3d400204	0.046876922
38	0x3d55b985	0.05217888
39	0x3d66c2d2	0.05633814
40	0xbd71e819	-0.059059236
41	0xbd6f113f	-0.058366057
42	0xbd6f64ef	-0.058445867
43	0x3d6fb23d	0.05851959
44	0x3d59c5f2	0.05316729
45	0xbd67ef3b	-0.056624632
46	0xbd47eba1	-0.048808698
47	0x3d55bc8b	0.05218176
48	0x3d680e7f	0.05665445
49	0x3d59e016	0.05319222

ode_f.f.3.weight f4 [50, 50]
0	0xbcd0222f	-0.025406925
1	0x3ca9465e	0.020663437
2	0x3c3e15f8	0.011601917
3	0x3cd258e8	0.02567716
4	0x3c9fb7e8	0.019496873
5	0x3c78b7db	0.015180553
6	0x398c0a76	0.00026710675
7	0xbcba975e	-0.022777256
8	0xbca4cd15	-0.020117322
9	0x3cc617cf	0.024181275
10	0x3c9fa010	0.019485503
11	0x3c144b22	0.009051116
12	0xbca7a5a5	-0.020464728
13	0x3ca93a14	0.020657577
14	0xbc77fdd2	-0.015136199
15	0xbc9c7b07	-0.019101633
16	0xbce04bd3	-0.027379906
17	0x3ca76751	0.020435007
18	0x3c9272cf	0.01787701
19	0xbcd42722	-0.025897566
20	0x3cd160ec	0.025558911
21	0xbcbba698	-0.022906587
22	0x3c83073b	0.015994659
23	0x3cba4878	0.022739634
24	0x3cc67ad0	0.024228483
25	0x3ca3bd7f	0.01998782
26	0xbc9a43e0	-0.018831193
27	0xbc303c57	-0.010756574
28	0xbc876878	-0.016529307
29	0x3b09b375	0.0021011506
30	0xbc9776c4	-0.018489249
31	0xbcaa1a2b	-0.020764431
32	0x3cbb61cb	0.02287378
33	0x3c3608a8	0.011110462
34	0x3c59fc4b	0.01330478
35	0xbc9622e6	-0.018327188
36	0xbc02d487	-0.007985241
37	0xbcccbae8	-0.024991468
38	0xbcadda42	-0.021222237
39	0xbcb4d3f4	-0.022073723
40	0x3cc03174	0.023461081
41	0x3cc732c2	0.024316195
42	0x3cbc0384	0.022950895
43	0xbcae0b2a	-0.021245558
44	0xbcae1e86	-0.02125479
45	0x3cd15d26	0.025557112
46	0x3c97b8af	0.018520681
47	0xbcaefb15	-0.02135996
48	0xbcb192db	-0.021676471
49	0xbcb73883	-0.022365814
50	0x3cf173c2	0.029474143
51	0xbcd2a17e	-0.025711771
52	0xbc8872cd	-0.016656304
53	0xbd12ca44	-0.035837427
54	0xbca4d22f	-0.020119755
55	0xbc8e134d	-0.017343188
56	0xb86c879c	-5.639308e-05
57	0x3cf1f513	0.029535806
58	0x3cd3692e	0.02580699
59	0xbce2d892	-0.02769116
60	0xbce88221	-0.028382363
61	0xbc3e17d2	-0.011602359
62	0x3cf07b67	0.029355718
63	0xbcec55b0	-0.028849453
64	0x3cb64e9c	0.02225428
65	0x3caff9d2	0.021481428
66	0x3d2e6562	0.042577155
67	0xbcf3a4bb	-0.029741636
68	0xbcbce6a5	-0.023059199
69	0x3cce648a	0.025194425
70	0xbd097d4e	-0.033566765
71	0x3cd3fdea	0.025877912
72	0xbcb0c3b9	-0.021577703
73	0xbcfc16c2	-0.03077257
74	0xbd1da685	-0.038488884
75	0xbccfa080	-0.025345087
76	0x3cc4336a	0.023950297
77	0x3c655512	0.013997333
78	0x3cb3005b	0.021850755
79	0xbb80a393	-0.0039257496
80	0x3cd3a7b0	0.025836796
81	0x3cdf017e	0.027222391
82	0xbccc073c	-0.024905793
83	0xbc98bd3f	-0.018644927
84	0xbc9036f8	-0.017604336
85	0x3ccb5399	0.024820136
86	0x3c265e0a	0.010154257
87	0x3ccc709b	0.024956038
88	0x3cf78536	0.030214887
89	0x3cdae13e	0.026718732
90	0xbd090373	-0.033450555
91	0xbcc2a4db	-0.02376025
92	0xbcfca84d	-0.03084197
93	0x3d03557f	0.032063957
94	0x3cec7a72	0.02886698
95	0xbcdee39a	-0.027208138
96	0xbcdc981c	-0.026928
97	0x3d07b049	0.033127103
98	0x3ced6953	0.028980887
99	0x3d09629e	0.033541314
100	0x3b9c50bf	0.004770368
101	0x3d1f5a28	0.03890434
102	0x3c1db771	0.009626255
103	0x3d7b0ffb	0.061294537
104	0x3c75b215	0.014996071
105	0x3c61a736	0.013772776
106	0xba6793a5	-0.00088339514
107	0xbd17fdbc	-0.037107214
108	0xbcbab82c	-0.022792898
109	0x3ce03454	0.027368702
110	0x3cdfbd33	0.027311897
111	0x3c010497	0.007874629
112	0xbce60334	-0.0280777
113	0x3cfab58f	0.030604152
114	0x3b8872ee	0.0041640913
115	0xbc8cfb49	-0.017209666
116	0xbd097f71	-0.033568803
117	0x3c7abbc8	0.01530356
118	0x3c3ee88f	0.011652126
119	0xbca0237b	-0.019548168
120	0x3b5fc2d3	0.0034143224
121	0xbd8aa54a	-0.06769808
122	0x3ca0557f	0.019572018
123	0x3cba14ba	0.022714961
124	0x3b7cd4b7	0.0038578936
125	0x3c80c44a	0.015718598
126	0xbcaf45fe	-0.02139568
127	0xbc4f0d7e	-0.012637494
128	0xbca8374d	-0.020534182
129	0x3b40a850	0.0029397197
130	0xbbe1f4a4	-0.0068956185
131	0xbca5ad69	-0.02022429
132	0x3cd01fd7	0.025405807
133	0x3c97c566	0.018526744
134	0x3bd899f4	0.0066101495
135	0xbca8233f	-0.02052462
136	0x3b5ecff6	0.0033998466
137	0xbd00e5f9	-0.03146932
138	0xbc701eee	-0.014655812
139	0xbbba8894	-0.005692551
140	0x3d11d8c0	0.0356071
141	0x3d3f4191	0.04669339
142	0x3c783896	0.01515021
143	0xbd6bdc4c	-0.05758314
144	0xbce01f54	-0.027358688
145	0x3cb0fef1	0.02160594
146	0x3ccd346c	0.02504941
147	0xbce3fc08	-0.027830139
148	0xbcfa98dc	-0.030590467
149	0xbce3f98d	-0.027828956
150	0xbd2a9b01	-0.04165173
151	0x3c9937cf	0.01870337
152	0x3ce3ad4b	0.027792593
153	0x3d23555d	0.03987633
154	0x3cc6ccae	0.02426752
155	0x3ca2d6ff	0.019877909
156	0xba97edc0	-0.0011591241
157	0xbd153a60	-0.036432624
158	0xbce60076	-0.028076392
159	0x3cf8a13c	0.03035032
160	0x3cfa0c17	0.030523343
161	0x3c54a1ad	0.012978
162	0xbcff3a58	-0.03115575
163	0x3cf11872	0.029430602
164	0xbc6820cd	-0.014167977
165	0xbcce33b4	-0.025171138
166	0xbd33376d	-0.04375403
167	0x3d3c7805	0.046012897
168	0x3ca2bd3a	0.01986562
169	0xbce25d6e	-0.027632441
170	0x3d204552	0.03912861
171	0xbd18a7bf	-0.03726935
172	0x3ca9607f	0.020675896
173	0x3d12467f	0.03571176
174	0x3cd4dd44	0.025984414
175	0x3ce89b3e	0.028394338
176	0xbcba985c	-0.022777729
177	0xbc7b121d	-0.015324143
178	0xbcc522f5	-0.02406452
179	0x3b8ec2c0	0.004356712
180	0xbcf54be5	-0.029943416
181	0xbcf53aa7	-0.029935194
182	0x3d071357	0.03297743
183	0x3c9be656	0.019030731
184	0x3c70a0dd	0.01468679
185	0xbce4715d	-0.027886087
186	0xbbf4bb7a	-0.007468638
187	0xbd056efe	-0.032576554
188	0xbd24c191	-0.04022366
189	0xbd35a6b7	-0.044348445
190	0x3d1c0350	0.038089097
191	0x3d39fe74	0.04540868
192	0x3d15e296	0.036593042
193	0xbd4e466a	-0.05036012
194	0xbcfd18af	-0.03089556
195	0x3d235887	0.039879348
196	0x3ceabc6b	0.028654298
197	0xbc5c354f	-0.013440444
198	0xbcd826d6	-0.026385706
199	0xbd1877b7	-0.037223544
200	0x3d1691d3	0.036760163
201	0xbd0a9410	-0.03383261
202	0x3c8d62f7	0.017259104
203	0xbd51fac8	-0.051264554
204	0xbd023010	-0.031784117
205	0xbcc5858a	-0.024111528
206	0xbb18c30c	-0.0023309616
207	0x3d2c528a	0.042070903
208	0x3cf86f11	0.030326398
209	0xbd239814	-0.039939955
210	0xbcf0e332	-0.02940521
211	0xbc79b698	-0.015241288
212	0x3d0907d7	0.033454742
213	0xbce8c766	-0.028415393
214	0x3cf86184	0.030319937
215	0x3cf745d7	0.03018467
216	0x3d6d24ba	0.057896353
217	0x3ca94def	0.020667044
218	0xbd017c12	-0.031612463
219	0x3d2864c8	0.041111737
220	0xbd230ba4	-0.039806023
221	0xbc5e4b1f	-0.013567715
222	0xbcd24fcd	-0.025672818
223	0xbd156a64	-0.036478415
224	0xbdac166e	-0.084027156
225	0xbcf67101	-0.030083181
226	0x3cf7b196	0.030236047
227	0x3c6b15e1	0.014348478
228	0x3cc82809	0.024433153
229	0xbbcd2103	-0.006260039
230	0x3ca1747b	0.019708863
231	0x3d01e688	0.031713992
232	0xbd1cae77	-0.03825232
233	0xbca71d1d	-0.020399624
234	0xbc9dc43c	-0.01925861
235	0x3c9fa0a2	0.019485775
236	0x3cc6139d	0.024179274
237	0x3d4b6403	0.049655925
238	0x3bcdd82d	0.0062818737
239	0x3d892283	0.06696036
240	0xbd1317b8	-0.03591129
241	0xbd80a572	-0.06281556
242	0xbd1166fa	-0.035498597
243	0x39512b18	0.00019947847
244	0x3d020c66	0.031750105
245	0xbd1e054f	-0.03857928
246	0xbcdd0417	-0.02697949
247	0xbad9e14e	-0.0016622932
248	0x3d6f2318	0.058383077
249	0x3d153f82	0.03643752
250	0x3c9a0f3c	0.018806092
251	0xbc89b25a	-0.016808677
252	0xbc2b7769	-0.010465481
253	0xbc9e0142	-0.01928771
254	0xbc602f96	-0.01368322
255	0xbc3142e1	-0.010819168

ode_f.f.3.bias f4 [50]
0	0xbd3dd67d	-0.04634713
1	0x3d6a7cc7	0.057247903
2	0xbd28f1e2	-0.041246302
3	0xbd759c00	-0.059963226
4	0x3d76ee84	0.06028606
5	0x3d0f575b	0.034995418
6	0xbd812b48	-0.06307083
7	0x3d1911c6	0.037370466
8	0xbd671083	-0.05641223
9	0x3d75caf6	0.06000801
10	0xbd3b8a39	-0.045786116
11	0xbd3f0248	-0.046633035
12	0xbd762553	-0.06009419
13	0xbd54b04a	-0.051925935
14	0xbd584fc3	-0.05281044
15	0x3d382a26	0.04496207
16	0xbd6fa0a8	-0.058502823
17	0xbd7126c0	-0.058874846
18	0x3d4f9d90	0.050687373
19	0x3d2e2dbb	0.04252408
20	0x3d753fd6	0.05987533
21	0xbd71e079	-0.059051964
22	0x3c56156f	0.013066634
23	0x3d87003d	0.06591842
24	0x3d60e869	0.054909144
25	0xbd321941	-0.043481115
26	0xbd84b383	-0.06479552
27	0xbd8e6f60	-0.06954837
28	0xbd87df83	-0.06634428
29	0xbd2e58b1	-0.04256505
30	0x3d6c93d9	0.057758186
31	0xbcc38bbc	-0.023870341
32	0xbd4118e5	-0.047142882
33	0x3d909dbd	0.07061336
34	0x3cd14c4f	0.025549082
35	0x3d6a7a6e	0.057245664
36	0xbd395447	-0.04524639
37	0x3d6250b8	0.05525276
38	0xbd735568	-0.05940762
39	0x3d7eb704	0.062186256
40	0x3d26ba39	0.04070494
41	0x3d60ea9f	0.054911252
42	0xbd227241	-0.039659742
43	0x3d1b60e9	0.037934218
44	0x3d4f1580	0.050557613
45	0xbd60eb93	-0.05491216
46	0xbcc81185	-0.024422416
47	0x3bda09c1	0.006653995
48	0x3d11957e	0.035542957
49	0x3d6f10bf	0.05836558

ode_f.f.6.weight f4 [10, 50]
0	0xbcc4f5db	-0.024043014
1	0x3d434055	0.047668774
2	0xbd296a46	-0.041361116
3	0xbdb2df1f	-0.08733963
4	0x3e0237e4	0.12716633
5	0x3d0add40	0.033902407
6	0x3c252994	0.010080714
7	0x3d200d50	0.039075196
8	0xbd94c742	-0.07264568
9	0x3dfba427	0.12287169
10	0x3d041b5d	0.03225266
11	0xbd351e90	-0.0442186
12	0xbdf7af02	-0.12093927
13	0xbc80cdc9	-0.015723126
14	0x3c0b1c1e	0.00849059
15	0x3d864967	0.06556969
16	0xbcc98f9f	-0.024604617
17	0x3d2cb637	0.04216596
18	0x3d957226	0.07297163
19	0xbd85aab3	-0.06526699
20	0x3d808588	0.06275469
21	0x3bb38364	0.0054783095
22	0x3d7d2adf	0.061808463
23	0xbc179f31	-0.009254263
24	0x3e282260	0.16419363
25	0x3c78a32c	0.015175622
26	0xbccbda12	-0.024884257
27	0x3cde19e2	0.027111951
28	0x3c81c4b5	0.015840868
29	0xbd81bd7f	-0.06334972
30	0x3de35b38	0.11101383
31	0xbda037a1	-0.0782311
32	0xbe2830b1	-0.16424824
33	0xbbe576b7	-0.0070026773
34	0x3d87808c	0.06616315
35	0x3e0e31e4	0.1388622
36	0x3d5a1d21	0.053250436
37	0x3d0a294d	0.033730794
38	0xbd3d2bbf	-0.046184298
39	0x3cc5b77d	0.024135346
40	0xbd359da7	-0.044339802
41	0x3cce2162	0.025162403
42	0x3d021bf1	0.03176493
43	0x3d93a147	0.072084956
44	0x3d8eeb5d	0.06978486
45	0xbda7e1e7	-0.08197384
46	0x3e123ad4	0.14280254
47	0x3d7941ee	0.06085389
48	0x3d40d273	0.0470757
49	0x3b73b97d	0.0037189417
50	0xbcc21f14	-0.02369646
51	0x3d351cb7	0.044216838
52	0xbd1a233c	-0.03763126
53	0xbd89abdf	-0.06722235
54	0x3d8b5bc8	0.06804615
55	0x3c5953de	0.013264624
56	0xbd5cf45f	-0.053943988
57	0x3cc7fec4	0.024413474
58	0xbd392712	-0.045203276
59	0x3da25ee2	0.07928254
60	0xbd09ff04	-0.033690467
61	0xbcbca045	-0.023025641
62	0x3c808692	0.015689168
63	0xbd688a8e	-0.05677276
64	0xbd203ca0	-0.039120317
65	0x3d48e376	0.04904505
66	0xbd1c081d	-0.038093675
67	0xbcd93d61	-0.026518526
68	0x3ceaf045	0.028679023
69	0x3c977a7f	0.018491028
70	0x3d2d01d1	0.04223806
71	0xbd23109a	-0.039810754
72	0x39834205	0.00025035455
73	0x3d4aa7c9	0.04947642
74	0x3d81e698	0.063428104
75	0xbd84fb07	-0.06493192
76	0xbd27bd5d	-0.040952075
77	0xbcf993b7	-0.030465944
78	0xbd5a3fd8	-0.053283542
79	0xbcab0f30	-0.020881265
80	0x3d54fe6a	0.05200044
81	0xbb80caf6	-0.003930445
82	0xbcae53d9	-0.021280216
83	0x3d0f7c18	0.035030454
84	0x3d11b553	0.035573315
85	0x3c9a9f13	0.01887468
86	0x3b6242bc	0.003452464
87	0x3d10b1fc	0.03532599
88	0xbd44223c	-0.04788421
89	0x3d90371c	0.07041761
90	0x3d18756e	0.037221365
91	0x3d38dcb4	0.045132354
92	0xbd071df5	-0.032987554
93	0x3ca65d1f	0.020308075
94	0x3d179c84	0.0370145
95	0xbd90d207	-0.070713095
96	0x3c8aa1b1	0.016922804
97	0x3c1b8307	0.009491689
98	0x3d46f085	0.04856922
99	0x3d03e886	0.032204174
100	0xbd82fe90	-0.0639621
101	0x3d862e7c	0.06551835
102	0xbd831122	-0.06399752
103	0xbdd5fc98	-0.10448569
104	0x3dda5d46	0.10662322
105	0x3d6e7b8f	0.058223303
106	0xbdbdd0bb	-0.09268328
107	0x3d96e873	0.07368555
108	0xbc87e4a7	-0.016588522
109	0x3e0cf271	0.13764359
110	0xbd8d6b41	-0.06905223
111	0xbd338563	-0.04382838
112	0xbddc0a08	-0.10744101
113	0xbd84bd6f	-0.06481444
114	0xbd2ad2ba	-0.04170487
115	0x3d6bc742	0.057563074
116	0xbd9be0a8	-0.07611209
117	0xbe110db8	-0.1416539
118	0x3d9585b2	0.07300891
119	0x3da1c08f	0.07898056
120	0x3d580019	0.052734468
121	0xbd5f8b23	-0.05457605
122	0xb9931633	-0.00028054565
123	0x3d5c1348	0.053729326
124	0x3d8de315	0.06928078
125	0xbe0c3be4	-0.13694721
126	0xbdc20053	-0.09472718
127	0xbd4633ce	-0.04838925
128	0xbd7a0659	-0.06104121
129	0xbe052aa2	-0.13004544
130	0x3d044b85	0.032298584
131	0xbce29698	-0.0276597
132	0xbe0fa8a7	-0.1402918
133	0x3ddab056	0.10678165
134	0x3cf6dffd	0.030136103
135	0x3e03a653	0.12856416
136	0xbc2fdc46	-0.01073367
137	0x3dc00cdd	0.093774535
138	0xbdb8cdef	-0.09023654
139	0x3dd66828	0.10469085
140	0x3d3b0bae	0.045665435
141	0x3dc353c5	0.09537462
142	0xbd91532a	-0.070959404
143	0x3ce9a6ef	0.028521983
144	0x3da57bf3	0.08080282
145	0xbddc1b3c	-0.10747382
146	0xbdc94f72	-0.09829606
147	0xbd15959e	-0.03651964
148	0x3b3a5324	0.0028430903
149	0x3da5bb0d	0.08092318
150	0xbd075ba7	-0.03304639
151	0x3d100ddf	0.03516948
152	0xbd141ba6	-0.03615918
153	0xbcccab2e	-0.024983969
154	0x3cd7b633	0.026331997
155	0x3c5149ec	0.012773972
156	0xbce2db0b	-0.027692338
157	0x3d1c4852	0.038154908
158	0xbc81d8b7	-0.015850408
159	0xbcaeff8f	-0.021362094
160	0xbd06aa4a	-0.032877244
161	0xbd560a1b	-0.05225573
162	0xbdd6ae51	-0.10482467
163	0xbd36412d	-0.04449575
164	0xbcfa37d8	-0.030544207
165	0x3d118e24	0.035535946
166	0xbcf9dc02	-0.030500416
167	0xbca8ed4c	-0.020620964
168	0x3cdb3385	0.026757965
169	0x3d02911a	0.03187666
170	0x3d60cb65	0.054881472
171	0xbd799b73	-0.060939264
172	0x3b336379	0.0027372523
173	0x3dd7d1a4	0.10538033
174	0x3ae8f0ef	0.0017771999
175	0xbda98b4e	-0.082785234
176	0xbd25a801	-0.040443424
177	0xbdde1ec7	-0.10845714
178	0xbd3b987c	-0.045799717
179	0x3c877202	0.016533855
180	0x3d508eb7	0.050917353
181	0xbd04ec72	-0.032452054
182	0xbdbab0e1	-0.09115768
183	0xbc1134ac	-0.008862656
184	0x3c37e453	0.01122387
185	0x3d086af9	0.033305142
186	0x3bd00738	0.006348517
187	0x3c569a35	0.013098289
188	0xbd88457d	-0.06653879
189	0x3d1699b7	0.036767688
190	0xbd50b0ed	-0.05094998
191	0x3ceeb2b3	0.029137945
192	0xbdf99007	-0.12185674
193	0x3d379edd	0.04482924
194	0x3d0f92ee	0.035052232
195	0xbdba2ed4	-0.09090963
196	0x3d70c915	0.058785517
197	0xbd080cbb	-0.033215266
198	0x3d24b152	0.04020817
199	0x3d2c8472	0.042118497
200	0xbd2319b8	-0.03981945
201	0x3d12d373	0.035846185
202	0xbd0ec250	-0.03485328
203	0xbda1ff2b	-0.079099976
204	0x3d1de14a	0.03854493
205	0xbcf008fe	-0.029301163
206	0xbd8fff67	-0.07031136
207	0x3d85a055	0.065247215
208	0x3c25a4b5	0.01011007
209	0x3e38a29e	0.18030784
210	0xbb9e7869	-0.0048361314
211	0x3ba6f61c	0.0050952565
212	0xbd60363b	-0.05473922
213	0xbd7afbc5	-0.061275262
214	0xbd29054f	-0.04126483
215	0x3d61ddf6	0.05514332
216	0xbd3b2aff	-0.0456953
217	0xbe0bf7bb	-0.1366872
218	0x3d811fce	0.063048944
219	0xbc26bdc2	-0.010177078
220	0x3d59eec4	0.05320622
221	0xbd9106aa	-0.07081349
222	0xbc25fb64	-0.010130737
223	0x3dbfe27d	0.09369371
224	0x3ddf37b5	0.10899297
225	0xbd903590	-0.07041466
226	0xbd82c810	-0.06385815
227	0xbcf0398f	-0.029324321
228	0xbcb13beb	-0.021635016
229	0xbdc0b36d	-0.09409223
230	0x3d2ece54	0.04267724
231	0x3c8837e7	0.016628219
232	0xbe17e33e	-0.1483278
233	0xbd04048e	-0.032230906
234	0x3d3e3886	0.046440624
235	0xbd0cd423	-0.034381997
236	0xbdc63560	-0.09678149
237	0x3d9a54e2	0.07535721
238	0xbd035a37	-0.032068457
239	0x3d787f15	0.06066807
240	0x3c8c3c7a	0.017118681
241	0x3cdd49cc	0.027012728
242	0xbdf3046f	-0.1186608
243	0x3ce2e2a4	0.027695961
244	0x3d4b68d0	0.049660504
245	0xbcf4f768	-0.029903129
246	0xbc3e2c0e	-0.011607183
247	0x3d63a052	0.055572815
248	0x3d029d8b	0.031888526
249	0x3c4236a0	0.011853844
250	0xbdfd91fb	-0.12381359
251	0x3e2ac8a7	0.16678105
252	0xbde18f0a	-0.11013611
253	0xbe46ae60	-0.19402456
254	0x3e4268d0	0.18985295
255	0x3dc2228e	0.09479247

ode_f.f.6.bias f4 [10]
0	0x3d3b7ae3	0.04577149
1	0x3d8316e1	0.06400848
2	0x3dbabfe4	0.091186315
3	0x3d3b34b1	0.045704547
4	0x3d409cbc	0.047024474
5	0x3e2ff859	0.17184581
6	0x3da1ccd9	0.079004
7	0x3c63f4c1	0.013913334
8	0x3d4f0ce9	0.05054942
9	0xbd3d2d9f	-0.046186086

encoder_map.ffnn.0.weight f4 [50, 1]
0	0xbbb09be2	-0.0053896764
1	0xbd4736e6	-0.04863634
2	0x3e4fc876	0.20291314
3	0xbdfaca72	-0.12245645
4	0x3d87c1f8	0.066287935
5	0xbb467dac	-0.0030287309
6	0x3e7bf669	0.24605717
7	0xbe062be5	-0.13102682
8	0xbe69d28d	-0.22834225
9	0xbe092f21	-0.13396885
10	0x3c87badd	0.016568596
11	0x3e6571f7	0.22406755
12	0x3d67c99d	0.056588758
13	0x3d5381fe	0.051637642
14	0x3e8b77d8	0.2723987
15	0x3e4c5135	0.19952853
16	0xbc8707da	-0.016483236
17	0xbc7b4b73	-0.015337813
18	0xbe449f08	-0.1920129
19	0x3e4d7caf	0.20067094
20	0xbe838826	-0.2568981
21	0xbce462b5	-0.027879098
22	0xbe014018	-0.12622106
23	0x3e23d975	0.16000922
24	0xbe465ec6	-0.1937209
25	0xbe82531f	-0.2545404
26	0x3df827ff	0.12117004
27	0x3e543c48	0.2072612
28	0x3e3b0728	0.18264449
29	0x3e61ff22	0.22069982
30	0xbe5daaf2	-0.21647242
31	0x3e6bac4e	0.23014948
32	0x3c22e203	0.009941581
33	0x3e90380c	0.2816776
34	0xbdc1c754	-0.09461847
35	0xbd2df1ba	-0.042466857
36	0xbdb78c2c	-0.089622825
37	0xbe42d30e	-0.19025823
38	0xbc41e9b2	-0.011835502
39	0x3e26f582	0.16304591
40	0x3e8c44c5	0.27396217
41	0xbdf7b615	-0.12095276
42	0x3e5a3a75	0.21311362
43	0x3e3c70ef	0.18402456
44	0xbb98a2a7	-0.0046580615
45	0xbe0300da	-0.12793294
46	0x3dc0e757	0.094191246
47	0xbe5d7974	-0.21628362
48	0xbd70c250	-0.05877906
49	0x3c0886db	0.008332933

encoder_map.ffnn.0.bias f4 [50]
0	0xbc8731f9	-0.016503321
1	0x3cc365ee	0.023852315
2	0x3cd30f21	0.02576405
3	0x3ccd985a	0.025097061
4	0xbc8b1fb9	-0.0169829
5	0xba939644	-0.0011259993
6	0x3cb738b3	0.022365903
7	0xbc9b3eca	-0.018950839
8	0xbbcbb5ff	-0.006216764
9	0xbc5309b4	-0.012880731
10	0x3c30b7b5	0.010785987
11	0xbb89ccec	-0.004205337
12	0x3bf28ffd	0.0074024186
13	0xbc59f34e	-0.013302637
14	0xbc6563a5	-0.014000808
15	0x3d248768	0.040168196
16	0xbc95205a	-0.018203903
17	0x3c5c11a6	0.013431942
18	0xbd2e7ac6	-0.042597555
19	0xba74dbcb	-0.0009340613
20	0x3cec6614	0.028857268
21	0xbce11c08	-0.027479187
22	0xbd97a6ea	-0.07404883
23	0x3d8c0a3e	0.06837891
24	0xbd2bde52	-0.041960068
25	0xbc44a461	-0.012002082
26	0x3c896185	0.016770134
27	0xbd36ac73	-0.044598054
28	0xbd4ac7cc	-0.049506947
29	0xbd1e7e4f	-0.038694676
30	0x3c7c4c56	0.015399059
31	0xbc7d45ae	-0.015458507
32	0x3d12b262	0.03581465
33	0xbcd504a1	-0.026003184
34	0x3cc09049	0.0235063
35	0x3c8a8853	0.016910708
36	0xbd57f8cb	-0.0527275
37	0x3aad6558	0.0013229055
38	0xbcbf9782	-0.023387674
39	0xbce1a83e	-0.027546044
40	0xbcf3e946	-0.02977432
41	0xbcd1099a	-0.025517274
42	0x3b9ca90f	0.0047808955
43	0x3c4b2861	0.012399764
44	0xbaa824b3	-0.001282832
45	0xbd2691f6	-0.040666543
46	0x3c98f4db	0.018671444
47	0xbcb45a43	-0.022015696
48	0x3c8d3fba	0.017242301
49	0xbc9dbb7f	-0.019254444

encoder_map.ffnn.3.weight f4 [50, 50]
0	0xbb91649b	-0.004437042
1	0xbbbb3e82	-0.0057142386
2	0x3d16c3d2	0.036807843
3	0xbc995352	-0.018716488
4	0x3c28cff3	0.010303485
5	0xba2c4768	-0.00065719197
6	0x3d3ef164	0.046616927
7	0xbcc3c386	-0.023896944
8	0xbd33fe76	-0.043943845
9	0xbcd4bfaa	-0.025970299
10	0x3b92055a	0.0044562044
11	0x3d1c9dfb	0.0382366
12	0x3c410a9a	0.011782313
13	0x3c04e9aa	0.0081123505
14	0x3d35e1ba	0.044404723
15	0x3d23b0a4	0.03996338
16	0xbbbfb858	-0.005850833
17	0xba5e3740	-0.0008476861
18	0xbd1ac1e6	-0.037782572
19	0x3d1ae9db	0.03782068
20	0xbd29c530	-0.04144782
21	0xbc0aba35	-0.008467247
22	0xbd05e803	-0.032691967
23	0x3d0e36ac	0.034720108
24	0xbd31a724	-0.04337229
25	0xbd3466d9	-0.044043396
26	0x3ce05a9c	0.027386956
27	0x3d1523cf	0.036411103
28	0x3cdcfade	0.026975092
29	0x3d1a4f3f	0.03767323
30	0xbd0a3acd	-0.033747483
31	0x3d1dcfb1	0.038528148
32	0x3c0a0624	0.008424316
33	0x3d25a2f4	0.040438607
34	0xbc789414	-0.015172023
35	0xbb8a4b2f	-0.0042203884
36	0xbcbc4bab	-0.0229853
37	0xbcf9e5ac	-0.030505024
38	0xbbb31db5	-0.005466188
39	0x3cc561c7	0.024094475
40	0x3d22d183	0.039750587
41	0xbcd456d7	-0.025920315
42	0x3d31cbd0	0.04340726
43	0x3d074c47	0.033031728
44	0xba94c536	-0.0011350277
45	0xbcdcdea1	-0.026961626
46	0x3ca23947	0.019802703
47	0xbd12a82f	-0.035804924
48	0xbc07e56b	-0.008294444
49	0xbaefad03	-0.0018285814
50	0x3b991903	0.004672171
51	0x3bfb5215	0.007669697
52	0xbd584944	-0.052804247
53	0x3cdb0ab4	0.026738502
54	0xbc83513c	-0.016029947
55	0x3a2f80eb	0.00066949305
56	0xbd247c2f	-0.040157493
57	0x3cf999cd	0.030468846
58	0x3d723404	0.059131637
59	0x3ce95e66	0.028487395
60	0xbb9790ef	-0.0046254317
61	0xbd1592dd	-0.036517013
62	0xbc8208c7	-0.015873326
63	0xbc2aeb21	-0.010432036
64	0xbd451442	-0.048115022
65	0xbd4472fe	-0.047961228
66	0x3bfb5f8e	0.007671303
67	0x3a8048e3	0.0009787347
68	0x3d436852	0.04770691
69	0xbd41b6dd	-0.047293533
70	0x3cfe6ab8	0.031056747
71	0x3c28f920	0.010313302
72	0x3d226465	0.039646525
73	0xbd33b290	-0.043871462
74	0x3d579e9e	0.052641504
75	0x3d947b25	0.072500505
76	0xbd07bd6a	-0.033139624
77	0xbd326cd0	-0.043560803
78	0xbd02fc4d	-0.031978894
79	0xbd1587e4	-0.03650655
80	0x3d59936e	0.053119116
81	0xbd2d17e2	-0.042259105
82	0xbc1941e1	-0.009354086
83	0xbd17bc7c	-0.037044987
84	0x3c9c50e2	0.019081537
85	0x3bd6ecce	0.006558991
86	0x3ced437e	0.028962847
87	0x3d392577	0.045201745
88	0x3bb6c0c8	0.0055771805
89	0xbd01b2d5	-0.03166469
90	0xbd503444	-0.050831094
91	0x3d08a926	0.033364438
92	0xbd5746ef	-0.052557882
93	0xbd22bd06	-0.039731048
94	0x3ac4fb28	0.0015028464
95	0x3d16ac8b	0.036785644
96	0xbcd7b352	-0.026330624
97	0x3d4c39f2	0.04985995
98	0x3c349efc	0.011024233
99	0x3af68368	0.0018807473
100	0x3b91332b	0.0044311485
101	0x3c1c646b	0.009545426
102	0xbd87b7c4	-0.066268474
103	0x3d1a9546	0.037740014
104	0xbc70adce	-0.014689876
105	0x3a84c68c	0.0010129972
106	0xbda6d6cd	-0.08146439
107	0x3cf32d73	0.029684758
108	0x3d9ea6bc	0.07746646
109	0x3d350e9c	0.044203386
110	0xbbacdb46	-0.005275163
111	0xbd649562	-0.055806525
112	0xbc8c1ee8	-0.017104581
113	0xbc466e7e	-0.012111304
114	0xbc1cb83f	-0.009565412
115	0xbda571de	-0.08078359
116	0x3be0e205	0.006862881
117	0x3adcfcf4	0.0016860054
118	0x3ca3cfd8	0.019996569
119	0xbd455951	-0.048180882
120	0x3d153301	0.036425594
121	0x3c0fceb1	0.008777306
122	0x3d111b15	0.035426218
123	0xbccc7871	-0.024959775
124	0x3d852a43	0.065022014
125	0x3d235c5c	0.039883003
126	0xbcf80de4	-0.030280061
127	0xbd1d74d7	-0.038441505
128	0xbc42385c	-0.011854257
129	0xbc3450c7	-0.011005587
130	0x3d3361fe	0.043794625
131	0xbd8db806	-0.06919865
132	0xbc009b56	-0.007849535
133	0x3ba8188b	0.005129879
134	0x3c726efa	0.014796967
135	0x3bca50ac	0.0061741676
136	0x3cd26b26	0.025685858
137	0x3ce8b71b	0.028407624
138	0x3bbbdc0a	0.005733018
139	0xbd3f9752	-0.04677517
140	0xbdc911db	-0.09817859
141	0x3d01c1e4	0.03167905
142	0xbda79a79	-0.0818376
143	0xbd69b372	-0.057055898
144	0x3aec38ed	0.0018022336
145	0x3c5e9c68	0.013587095
146	0xbcb166d2	-0.021655474
147	0x3d8231c3	0.063571475
148	0x3c5279f6	0.012846461
149	0x3ab412e1	0.0013738537
150	0xba01fa25	-0.0004958234
151	0x3cc92b43	0.024556762
152	0xbd9deb7c	-0.07710931
153	0x3dbb59b1	0.09147967
154	0x3d78f139	0.060776923
155	0xb8e9bb88	-0.00011145236
156	0x3c0056af	0.007833167
157	0x3cd154d7	0.02555315
158	0x3cc2f6a6	0.023799252
159	0xbd261932	-0.040551372
160	0x3aac3bc6	0.0013140372
161	0x3da5d92e	0.08098064
162	0x3c44410b	0.011978398
163	0x3c26904f	0.010166242
164	0xbd87fe2b	-0.066402756
165	0x3dcdfb4c	0.10057697
166	0xba819dbf	-0.0009888931
167	0xba07a8c8	-0.00051749917
168	0xbd5e6c0f	-0.05430227
169	0xbdbde3d9	-0.09271974
170	0x3c08e980	0.008356452
171	0xbb0d1ce0	-0.0021532103
172	0x3caf4236	0.021393877
173	0xbd2a4c46	-0.041576646
174	0xbd12f6f6	-0.03588005
175	0x3cfea29e	0.031083401
176	0xbcb074e4	-0.021540113
177	0xbdc60051	-0.09668029
178	0xbd98e439	-0.07465405
179	0x3de9a908	0.11409193
180	0xbba8ddb5	-0.0051533827
181	0x3e13752d	0.14400168
182	0xbc04d8cb	-0.008108328
183	0x3db81af0	0.08989513
184	0xbcf72163	-0.030167287
185	0x3c6bbbaa	0.014388004
186	0xbc2763e1	-0.010216684
187	0x3db66080	0.08905125
188	0xba745e03	-0.000932187
189	0xbdb13277	-0.086522035
190	0x3d3ccbcb	0.04609279
191	0xbd1ef782	-0.03881026
192	0x3df84cfb	0.12124058
193	0xbd79ef2c	-0.061019108
194	0xb96323f5	-0.00021661802
195	0xbd35b566	-0.04436245
196	0xbcaafa16	-0.020871203
197	0x3dce7e93	0.10082736
198	0xbc81f906	-0.015865814
199	0x38838919	6.272103e-05
200	0xbaef36fa	-0.0018250637
201	0x3c616f94	0.013759512
202	0x3da6d1a2	0.08145453
203	0x3d95648e	0.0729457
204	0x3ccf7f39	0.02532922
205	0xb9959249	-0.00028528486
206	0x3d10c5b6	0.0353448
207	0xbc7a5fd7	-0.015281639
208	0x3d7ef8fc	0.06224917
209	0xbdb31ff1	-0.08746327
210	0x3ad2072a	0.0016023864
211	0xbd8fa5a5	-0.07014016
212	0x3c1f5370	0.009724483
213	0xbc78fb2f	-0.015196606
214	0x3d31c7a2	0.043403275
215	0xbd21185d	-0.039329875
216	0xbb2a0b1f	-0.002594657
217	0x38430a7e	4.6501395e-05
218	0x3d66a84f	0.056312855
219	0x3d9c920c	0.07645044
220	0xbdd34b99	-0.103171535
221	0xbb5e5075	-0.0033922468
222	0xbc20265d	-0.0097747715
223	0xbc5b3b75	-0.013380875
224	0xbc640560	-0.013917297
225	0x3d8a906c	0.067658275
226	0x3cc235ff	0.023707388
227	0x3d7b7ac3	0.06139637
228	0xbd82ab98	-0.06380385
229	0xbcc70e9f	-0.024298964
230	0x3d735e38	0.059416026
231	0x3dc7d442	0.09757282
232	0x3af2ce2f	0.0018524582
233	0x3cf052d1	0.029336365
234	0xbd4f4d9a	-0.050611116
235	0x3b9de748	0.0048188306
236	0xbc429599	-0.011876487
237	0xbc5dccda	-0.01353761
238	0xbb27695e	-0.0025544981
239	0xbb967a6c	-0.0045922305
240	0xbdb6f5b9	-0.089335866
241	0xbb7e26d5	-0.003878047
242	0xbd86fde0	-0.065913916
243	0x3cc9bd14	0.024626292
244	0xb9f36516	-0.00046423887
245	0xbd5163e3	-0.05112065
246	0x3c859acf	0.01630917
247	0xbc643802	-0.013929369
248	0x3b75a53d	0.0037482523
249	0xba8385bf	-0.0010034366
250	0x3b1dfe0d	0.0024107725
251	0xbcac8668	-0.021060184
252	0xbda95655	-0.0826842
253	0x3d43f4b8	0.047840804
254	0xbd8a6061	-0.06756664
255	0x39fcf2ae	0.00048245996

encoder_map.ffnn.3.bias f4 [50]
0	0x3e59ea10	0.21280694
1	0xbe0e979b	-0.1392502
2	0xbdba97b6	-0.09110968
3	0x3b8a2e09	0.0042169136
4	0x3d09685b	0.033546787
5	0x3bd7af4e	0.0065821772
6	0x3d2d9e3d	0.042387236
7	0x3dcc4ddd	0.09975789
8	0x3d4dfc0b	0.050289195
9	0xbe22b7e9	-0.15890469
10	0x3ba756d7	0.0051067877
11	0x3c075f1e	0.008262424
12	0xbdb6105a	-0.088898376
13	0xbd463ab0	-0.048395813
14	0x3b8e64bf	0.004345506
15	0x3cb315a5	0.021860907
16	0x3d1b2e3c	0.03788589
17	0xbc05aede	-0.008159367
18	0xbcb78d7b	-0.02240633
19	0xbd258f7d	-0.040420044
20	0xbc8133a0	-0.015771687
21	0x3d8d679a	0.06904526
22	0x3e1942d2	0.14966896
23	0xbb517a3e	-0.003196373
24	0x3c4c262e	0.012460275
25	0x3d0ecc38	0.034862727
26	0xbb62a63f	-0.0034583954
27	0xbdb5dc06	-0.08879857
28	0xbcfabe25	-0.030608246
29	0x3b21427b	0.0024606276
30	0xbb135b71	-0.0022484923
31	0xbb90bda6	-0.004417139
32	0xba1bc878	-0.0005942653
33	0xbd04a678	-0.03238532
34	0xbc936bed	-0.017995799
35	0xbd902f3e	-0.07040261
36	0xbcdf5b03	-0.027265077
37	0x3dc00ed4	0.09377828
38	0x3e224cb8	0.15849578
39	0x3c4a94a6	0.012364542
40	0xbb925851	-0.0044660945
41	0x3ba80cf7	0.0051284987
42	0xbce64990	-0.02811125
43	0x3ca1b978	0.019741759
44	0xbaeb06e7	-0.0017931134
45	0x3aaee8f8	0.0013344577
46	0xbd7bf0e2	-0.06150902
47	0x3d158944	0.03650786
48	0xbca4fe1d	-0.020140702
49	0xbe065549	-0.13118471

encoder_map.ffnn.6.weight f4 [10, 50]
0	0x3ce12b8d	0.027486587
1	0xbe3e0b71	-0.18559052
2	0xbe418015	-0.18896516
3	0xbc812012	-0.015762363
4	0x3cf6e1f4	0.03013704
5	0xbe9487d8	-0.2900989
6	0x3cb567db	0.022144249
7	0x3d88398f	0.066516034
8	0x3c76b5a0	0.015057951
9	0x3d230edd	0.039809097
10	0x3db8c9da	0.09022875
11	0x3dd0b37f	0.10190486
12	0xbda6e1bb	-0.081485234
13	0xbb6ca4d3	-0.0036108985
14	0xbd970661	-0.073742636
15	0x3bb037bd	0.0053777383
16	0x3cad4b4a	0.021154065
17	0xbd6181d3	-0.05505545
18	0xbcb42053	-0.02198807
19	0xbd261154	-0.04054387
20	0x3db0198c	0.08598623
21	0x3ddbb7c7	0.10728412
22	0x3e2f1cbc	0.17100805
23	0xbd50b955	-0.050957996
24	0xbd729a52	-0.059229203
25	0xbe1027d6	-0.14077696
26	0x3dccc721	0.09998918
27	0xbe014717	-0.12624775
28	0xbe06f1e6	-0.13178214
29	0xbc0fe853	-0.008783418
30	0xbcc7b981	-0.024380447
31	0x3cfcd242	0.030861977
32	0xbc761ff7	-0.015022269
33	0xbba57647	-0.0050495
34	0x3e0b026a	0.1357514
35	0xbcd10e87	-0.025519622
36	0x3cd49784	0.025951155
37	0xbddd65c0	-0.10810423
38	0x3e1d7f86	0.15380678
39	0x3ca22547	0.019793166
40	0xbd8ee3bd	-0.069770314
41	0xbc9ffbed	-0.019529307
42	0x3e248e2a	0.16069856
43	0xbd4cb9c7	-0.04998186
44	0x3d8430b7	0.06454604
45	0xbc1e7723	-0.009671959
46	0xbdf47257	-0.11935871
47	0x3d7bfbd3	0.061519455
48	0xbe008b9a	-0.12553254
49	0x3d8c4ff6	0.06851189
50	0x3b251ad7	0.0025193
51	0xbd505832	-0.05086536
52	0xbe7b0ddf	-0.2451701
53	0x3cc43561	0.023951234
54	0x3d884dda	0.06655474
55	0x3d671907	0.056420352
56	0x3d3ed104	0.04658605
57	0x3dc6ec1c	0.09713003
58	0x3d1a84a1	0.03772414
59	0xbe353723	-0.17696814
60	0xbd5e6c4e	-0.054302506
61	0x3ded293c	0.115801305
62	0x3c01e19f	0.007927327
63	0x3bb6f7fa	0.0055837603
64	0x3abddcbb	0.0014485338
65	0x3cc53c5e	0.024076637
66	0x3d1e98c8	0.038719922
67	0x3cc26dbc	0.023733966
68	0x3db51f60	0.08843875
69	0xbd7ea551	-0.062169377
70	0x3d004c64	0.03132285
71	0xbcfc1831	-0.030773254
72	0x3dff4189	0.12463672
73	0x3d185086	0.037186168
74	0x3c9a8002	0.018859867
75	0x3e031c9d	0.12803884
76	0xbde457e4	-0.11149576
77	0xbdf2f2e5	-0.11862735
78	0x3c2d2b4b	0.010569404
79	0xbdbeab8d	-0.093100645
80	0xbc41358a	-0.01179255
81	0xbc1d3ef9	-0.009597533
82	0x3d523bd6	0.051326595
83	0xbe0ca639	-0.13735284
84	0xbd416f8a	-0.047225513
85	0xbd0ecfea	-0.03486625
86	0x3c2b28d1	0.010446743
87	0x3e0ff200	0.1405716
88	0x3e5ed761	0.21761848
89	0xba2209ad	-0.00061812514
90	0x3cc3f684	0.023921259
91	0xb9c23ac5	-0.0003704635
92	0xbcd3c8d5	-0.0258526
93	0x3b9aec2a	0.00472786
94	0xbe1ab0d1	-0.15106513
95	0x3c210b69	0.009829381
96	0xbce65eac	-0.028121315
97	0x3d38d7cb	0.04512767
98	0x3dafef03	0.0859051
99	0xbd54236c	-0.051791593
100	0xbd26bad2	-0.04070551
101	0x3cbb5ce8	0.02287145
102	0x3e2ed773	0.17074375
103	0xbc9d3d96	-0.019194406
104	0x3bec77bc	0.007216422
105	0x3c5aa328	0.013344564
106	0x3d8fb477	0.07016843
107	0xbc822b17	-0.015889687
108	0x3c6191a0	0.01376763
109	0x3cd2a651	0.025714071
110	0x3d953c53	0.072868966
111	0x3bdb3e32	0.006690764
112	0xbd82ae62	-0.06380917
113	0xbbee3410	-0.00726939
114	0x3df46eb9	0.11935181
115	0xbc18ed6d	-0.0093339505
116	0x3c4ac33c	0.012375649
117	0x3d81e21a	0.063419536
118	0x3c338f9d	0.010959533
119	0xbd523ab1	-0.051325504
120	0xbe1a9fa5	-0.15099962
121	0x3d50dfc2	0.050994642
122	0xbd2de16a	-0.0424513
123	0x3d714f5e	0.05891358
124	0xbce43cbb	-0.02786099
125	0x3e3ee0b5	0.18640406
126	0xbdf4ecf9	-0.119592614
127	0xbd4f14bd	-0.050556887
128	0xbe25c420	-0.16188097
129	0x3dfacf46	0.122465655
130	0xbc5fdc53	-0.013663369
131	0xbbaf258d	-0.0053450526
132	0xbbed9ebc	-0.0072515886
133	0xbd03a7e1	-0.032142524
134	0xbda63239	-0.08115048
135	0xbd76ee85	-0.060286064
136	0x3c9456e9	0.018107848
137	0xbca31b71	-0.019910546
138	0xbe19bbe3	-0.1501308
139	0x3c74f15b	0.014950122
140	0xbd06fc3a	-0.032955386
141	0xbabb2d74	-0.0014280514
142	0xbd7f5ebb	-0.0623462
143	0x3c4f0dce	0.012637569
144	0x3be4b2e6	0.006979334
145	0x3b712068	0.0036792997
146	0x3c79405c	0.015213098
147	0xbd5fe9b9	-0.054666255
148	0xbd69a35e	-0.057040565
149	0xbdc18db0	-0.09450853
150	0x3e814c21	0.25253394
151	0x3d835670	0.06412971
152	0x3d34be94	0.044127062
153	0xbcd3a18e	-0.025833871
154	0xbdaee4c3	-0.085397266
155	0x3d4cb7f6	0.049980126
156	0x3d51b662	0.051199324
157	0x3d780a9d	0.060556997
158	0x3d2f77d4	0.042838886
159	0xbdd7159a	-0.10502167
160	0xbdd9d689	-0.106366225
161	0x3e046faa	0.12933221
162	0xbdf841f2	-0.12121953
163	0x3d31d6af	0.04341763
164	0x3de17525	0.11008672
165	0x3babbc80	0.005240977
166	0x3ccf8877	0.025333626
167	0xbda074b6	-0.07834761
168	0xbe38fdf6	-0.18065628
169	0xbd5c2fc3	-0.053756487
170	0xbd852d8b	-0.06502827
171	0x3e147a10	0.14499688
172	0x3e08cb49	0.13358797
173	0xbdb6f431	-0.089332946
174	0x3cca8cdb	0.024725368
175	0xbe072521	-0.13197757
176	0xbc85f8af	-0.016353933
177	0xbd451f12	-0.048125334
178	0xbd720565	-0.059087176
179	0xbe878288	-0.26466775
180	0xbc9f2eba	-0.01943146
181	0x3d54fefc	0.052000985
182	0x3d74df46	0.059783243
183	0xbdd97be5	-0.10619334
184	0xbd4d1595	-0.05006941
185	0x3c425395	0.011860748
186	0xbcd62f33	-0.026145553
187	0x3e86803d	0.26269713
188	0x3e892945	0.267893
189	0x3d0790d9	0.033097122
190	0x3d64bc46	0.055843614
191	0xbb9610e5	-0.0045796507
192	0xbdd381fa	-0.103275254
193	0xbd4e28eb	-0.05033199
194	0x3d912e03	0.07088854
195	0x3a2991a3	0.000646854
196	0x3ce27429	0.02764328
197	0xbc5adc05	-0.013358121
198	0x3d2373b5	0.03990527
199	0xbd1bdb40	-0.03805089
200	0x3e8b63da	0.27224618
201	0xbe3c79c5	-0.18405826
202	0xbcde7b30	-0.02715835
203	0x3a0aeb4d	0.0005299345
204	0x3da494a6	0.08036165
205	0xbc625e9f	-0.013816505
206	0x3cbc2dd3	0.02297107
207	0x3d5d155d	0.05397545
208	0x3c86a2e6	0.016435098
209	0xbe40fe31	-0.18846966
210	0xbd8fc6a7	-0.07020312
211	0x3df8f31c	0.121557444
212	0xbde39833	-0.11113014
213	0xbc073c0f	-0.008254065
214	0x3da7ae1e	0.08187507
215	0x3d2bf5d4	0.041982487
216	0x3c446493	0.011986869
217	0x3d3ed1da	0.04658685
218	0x3d7ef30d	0.06224351
219	0xbd9f421a	-0.0777628
220	0xbe250d1d	-0.16118284
221	0x3d72b269	0.059252176
222	0x3dcc62ed	0.09979806
223	0x3cf67885	0.030086765
224	0xbd6174d1	-0.055043045
225	0xbe293399	-0.16523589
226	0xbe0aa2e8	-0.13538706
227	0xbc75c917	-0.015001557
228	0x3e17a5f8	0.14809406
229	0x3dba7123	0.0910361
230	0xbc89dcdf	-0.016828952
231	0xbd27d05b	-0.040970188
232	0xbc32cd5a	-0.010913217
233	0x3dbe8cfe	0.09304236
234	0xbdcbb773	-0.099470995
235	0xbe8089e8	-0.25105214
236	0x3d1064bb	0.035252314
237	0x3da2d8cc	0.07951507
238	0xbdb50db0	-0.08840501
239	0x3ce5bbc8	0.028043643
240	0xbd4e7f70	-0.050414503
241	0xbcb89062	-0.022529785
242	0xbd5f08a5	-0.054451603
243	0x3d2ed0bd	0.042679537
244	0x3d7d1732	0.0617897
245	0x3c0ce466	0.008599376
246	0xbdc49ae5	-0.09599856
247	0x3e50b6c2	0.20382217
248	0xbd3baafb	-0.045817357
249	0xbe3dd4af	-0.18538164
250	0xbe321ce8	-0.1739384
251	0x3e40787d	0.18795963
252	0x3e7d83a1	0.24757244
253	0xbd1981f2	-0.03747744
254	0xbd5931f0	-0.05302614
255	0x3e3aea6b	0.18253486

encoder_map.ffnn.6.bias f4 [10]
0	0x3c84b36c	0.016198836
1	0x3d009f46	0.031401895
2	0xbc037bb3	-0.008025098
3	0x3ccd5165	0.025063226
4	0x3d0a34ea	0.03374187
5	0xbdb53b89	-0.08849246
6	0xbcae651f	-0.021288453
7	0xbd08ae52	-0.03336937
8	0x3bfdb7ba	0.007742849
9	0xbe1390d6	-0.1441072

readout_map.ffnn.0.weight f4 [50, 10]
0	0x3d71192f	0.058861908
1	0xbd93b542	-0.072123066
2	0xbe18f7d1	-0.14938284
3	0x3e0155e6	0.12630424
4	0xbe3b1735	-0.18270572
5	0xbdb125a8	-0.086497605
6	0xbc4ae95d	-0.01238474
7	0x3e07a5ef	0.13246892
8	0x3d3c163d	0.045919646
9	0x3dc9db34	0.09856263
10	0xbe0b89d7	-0.136268
11	0x3e20650b	0.15663545
12	0xbd1e8efa	-0.03871057
13	0xbdc19612	-0.09452452
14	0x3d85901f	0.065216295
15	0xbe1fc254	-0.15601474
16	0xbe3f65cc	-0.18691176
17	0x3e9fb677	0.31193897
18	0xbc08418d	-0.00831641
19	0x3d70dc20	0.058803678
20	0x3e10ae37	0.14128958
21	0x3dab0cf3	0.08352079
22	0xbe385ca4	-0.1800409
23	0x3e26e01c	0.16296428
24	0xbdae5e6a	-0.08514102
25	0x3e0bc6b6	0.13650021
26	0xbd8e70c0	-0.06955099
27	0xbe0bb12e	-0.13641807
28	0xbdfd9a7b	-0.123829804
29	0x3e099a77	0.1343783
30	0x3dfc1dfe	0.12310408
31	0x3c7d3dbb	0.015456612
32	0xbe3c4110	-0.18384194
33	0x3cb0d96b	0.021588048
34	0x3c7ce630	0.01543574
35	0x3e4ed9ba	0.20200244
36	0xbd816690	-0.0631839
37	0x3d8d99ca	0.069140986
38	0xbe16d9c3	-0.14731507
39	0xbdb05752	-0.08610405
40	0xbca8e5b9	-0.020617353
41	0x3d692496	0.056919657
42	0xbd94d665	-0.07267455
43	0x3cd3a326	0.025834631
44	0x3d9f31f6	0.07773201
45	0x3e1a618b	0.15076272
46	0x3e156d23	0.14592414
47	0xbe78c8d6	-0.24295363
48	0x3bfc8525	0.0077063018
49	0xbd908d22	-0.07058169
50	0xbd41e986	-0.047341846
51	0x3dfe0815	0.12403885
52	0x3d7e05c7	0.06201723
53	0x3e2281e0	0.15869856
54	0xbd1771d2	-0.036973782
55	0xbda756a7	-0.081708245
56	0xbdd28a0e	-0.10280238
57	0x3cf82373	0.030290341
58	0xbc3d8181	-0.011566521
59	0xbdbd87ce	-0.09254418
60	0x3e381027	0.17974912
61	0x3d2c0924	0.042000905
62	0xbe0c5c5a	-0.13707104
63	0xbe5bd13c	-0.21466535
64	0xbe1f7b8d	-0.15574475
65	0xbe4b193b	-0.19833843
66	0x3e903611	0.2816625
67	0x3e9715b9	0.2950876
68	0xbdb508e8	-0.08839589
69	0xbd81d51d	-0.06339476
70	0x3d36608b	0.044525664
71	0x3e683210	0.22675347
72	0x3e55b305	0.20869072
73	0xbe50514f	-0.20343517
74	0x3bceb963	0.006308721
75	0xbd1d7dce	-0.038450055
76	0xbc7ebca0	-0.015547901
77	0x3cffe475	0.031236866
78	0xbe9eddb0	-0.3102851
79	0x3dde6cad	0.10860572
80	0xbe832c06	-0.25619525
81	0x3e1b2e5e	0.15154406
82	0x3e1404c5	0.14454944
83	0xbe68a4eb	-0.22719161
84	0xbd6b8224	-0.05749716
85	0x3e983e0e	0.29734844
86	0x3e9522c4	0.29128087
87	0xbe40ed7d	-0.18840595
88	0x3ccd1bc3	0.025037652
89	0xbe4ef5bf	-0.20210932
90	0xbe463c45	-0.19358929
91	0x3e544ae9	0.20731701
92	0xbe99533a	-0.2994631
93	0xbca18ca2	-0.01972038
94	0xbe189ecb	-0.14904325
95	0x3d231f38	0.039824694
96	0x3d1c2cf8	0.038128823
97	0x3e300047	0.17187606
98	0x3da4ec98	0.08052939
99	0x3e4353e2	0.19074968
100	0xbdbbdfbc	-0.09173533
101	0xbe85d2ee	-0.2613749
102	0x3e0e61d7	0.1390451
103	0x3df6da7a	0.1205339
104	0xbdce8e4f	-0.10085737
105	0x3d68510d	0.05671792
106	0x3d084b62	0.033275016
107	0x3d8eea58	0.06978291
108	0x3e72812a	0.23682085
109	0xbe3fa2af	-0.18714403
110	0x3affa0bc	0.0019502859
111	0x3cd01da2	0.025404755
112	0x3d9a53c2	0.07535507
113	0xbd8a3391	-0.06748117
114	0x3e1a3852	0.15060547
115	0x3da94420	0.08264947
116	0xbdf7f102	-0.121065155
117	0x3d5b2195	0.053498823
118	0xbe035775	-0.12826331
119	0xbdae7b81	-0.0851965
120	0xbe1275d4	-0.1430276
121	0x3e17d241	0.14826299
122	0x3d9d8d56	0.07692973
123	0xbe22b48e	-0.15889189
124	0xbd2314af	-0.039814647
125	0x3e387094	0.18011695
126	0xbb1b88e0	-0.0023732707
127	0xbe0112a0	-0.12604761
128	0x3e7a2812	0.24429348
129	0xbe4c118b	-0.19928567
130	0xbd0f2a0c	-0.03495221
131	0x3d90f9d1	0.07078899
132	0xbe487c24	-0.19578606
133	0xbd55e6b8	-0.052221984
134	0xbe135113	-0.14386396
135	0xbe001ba6	-0.12510547
136	0xbdd5c951	-0.10438789
137	0x3eabdf41	0.33568767
138	0x3d02de66	0.031950377
139	0x3e13fe34	0.1445244
140	0xbc82c325	-0.015962193
141	0xbe760ac6	-0.24027547
142	0xbdf09b64	-0.117483884
143	0x3e590110	0.21191812
144	0x3e23db13	0.16001539
145	0xbe1bf400	-0.15229797
146	0x3caf9f58	0.021438286
147	0x3c30863a	0.01077419
148	0x3e0a8695	0.13527901
149	0xbd845102	-0.064607635
150	0x3d3d6d0f	0.046246585
151	0xbe8859bd	-0.26630965
152	0x3e46d271	0.19416215
153	0xbe7aaf6c	-0.2448098
154	0x3e371972	0.178808
155	0x3e8912ad	0.2677206
156	0xbdf83fbd	-0.12121532
157	0x3d71bc62	0.059017546
158	0x3e214be1	0.15751602
159	0xbe7ae02e	-0.2449958
160	0xbe7fd721	-0.24984409
161	0x3e3d7a98	0.18503797
162	0x3e8c33ab	0.2738317
163	0xbd89dfdb	-0.0673215
164	0xbe2b6cfc	-0.16740793
165	0x3a1854fb	0.0005811003
166	0x3dc47778	0.09593099
167	0xbe82f2e5	-0.2557594
168	0x3d088b13	0.033335757
169	0x3e130d46	0.14360532
170	0x3d40866a	0.047003187
171	0xbdd053ec	-0.10172257
172	0x3e86e2ca	0.263449
173	0x3d341295	0.043963034
174	0xbdf84c3c	-0.121239156
175	0xbe36da79	-0.17856778
176	0xbd931ad0	-0.071828485
177	0x3e2d1822	0.16903737
178	0xbe4f832f	-0.20264886
179	0x3e15c776	0.1462687
180	0x3e383be7	0.17991601
181	0xbe3bf126	-0.1835371
182	0xbe9873ed	-0.29775944
183	0xbdea5503	-0.11441996
184	0x3e19889e	0.14993522
185	0x3cefffb8	0.02929674
186	0xbe387aab	-0.18015544
187	0x3e95b705	0.29241195
188	0x3e0bc7ec	0.13650483
189	0x3bc0dd8b	0.005885785
190	0xbded551d	-0.115885
191	0xbd75effe	-0.060043328
192	0x3e59001b	0.21191446
193	0xbe1a5c92	-0.15074375
194	0xbe47bd99	-0.1950592
195	0xbe3a5dfa	-0.18199912
196	0x3d721613	0.059103083
197	0x3e3834af	0.17988847
198	0x3e7f1447	0.24910079
199	0xbd263a0c	-0.0405827
200	0x3b1cb2ae	0.0023910212
201	0xbe3d3901	-0.18478777
202	0x3e17a797	0.14810024
203	0x3c49f100	0.012325525
204	0xbc32771d	-0.010892657
205	0x3dd5f24b	0.10446604
206	0xbe3468d4	-0.17618114
207	0x3e0fea3e	0.140542
208	0xbe41b7d9	-0.18917789
209	0x3e1bf36d	0.15229578
210	0x3e1ed11c	0.15509456
211	0xbe8e9157	-0.2784526
212	0x3dccf8d3	0.10008397
213	0xbe63f0f1	-0.2225988
214	0x3d253f93	0.040343832
215	0x3e03f58c	0.12886637
216	0x3e82bd9b	0.25535282
217	0xbd65a744	-0.05606772
218	0x3e3405cc	0.17580336
219	0xbe898bcc	-0.2686447
220	0xbe323d94	-0.17406303
221	0x3e464e4a	0.19365802
222	0x3dddd1be	0.10831021
223	0xbe4640d8	-0.19360673
224	0x3d9115e2	0.07084252
225	0x3e6716a8	0.22567236
226	0x3e99b756	0.30022687
227	0xbe77a2bb	-0.2418317
228	0xbd8f9f41	-0.07012797
229	0xbe5bd75b	-0.2146887
230	0xbe2a0c36	-0.1660622
231	0xbd84fe39	-0.064938016
232	0xbd86b9e8	-0.065784276
233	0xbd8f2838	-0.06990093
234	0x3d01eda2	0.031720765
235	0x3e30ec16	0.1727756
236	0x3ea59110	0.32337236
237	0xbe86ec6d	-0.26352254
238	0x3e93c717	0.2886283
239	0xbe684798	-0.22683561
240	0x3e12e5ec	0.1434552
241	0x3d390cd6	0.045178257
242	0xbdf12352	-0.11774315
243	0x3c8c41cb	0.017121216
244	0xbdbd644c	-0.09247646
245	0xbda48631	-0.080334075
246	0x3e5325f0	0.20619941
247	0x3d9ae573	0.07563295
248	0x3db4a16e	0.08819853
249	0xbe70e2e4	-0.23524052
250	0xbd4599cd	-0.04824238
251	0xbdfa5ecc	-0.12225112
252	0x3d6a5a9e	0.057215326
253	0xbd60ef48	-0.054915696
254	0x3e0ed476	0.13948235
255	0xbe8a60b3	-0.270269

readout_map.ffnn.0.bias f4 [50]
0	0x3d371b8f	0.044704016
1	0x3ca90039	0.020629989
2	0xbd17fdf8	-0.037107438
3	0x3d32b322	0.043627866
4	0xbd65a30a	-0.05606369
5	0xbcae9208	-0.021309868
6	0x3d166905	0.03672125
7	0xbd37a2f0	-0.044833124
8	0x3d0d1871	0.034447137
9	0xbd24cb79	-0.04023311
10	0xbcd4d99b	-0.025982669
11	0x3c444c1e	0.011981038
12	0x3c784053	0.015152055
13	0x3d9cf5fa	0.07664104
14	0x3cfbf685	0.030757198
15	0xbcd10e80	-0.02551961
16	0x3cdf466f	0.027255265
17	0x3c3ef6cc	0.011655521
18	0xbc6724a7	-0.01410786
19	0x3ce8391c	0.028347544
20	0x3cacc441	0.021089675
21	0xbd1acac1	-0.037791017
22	0xbb207db4	-0.0024488987
23	0x3d0804c0	0.033207655
24	0xbd81d0aa	-0.06338628
25	0xbd337488	-0.043812305
26	0xbceac22a	-0.028657038
27	0x3d72e6c5	0.05930211
28	0x3d130fa6	0.035903595
29	0x3db52994	0.08845821
30	0xbb88c556	-0.004173915
31	0xbd804135	-0.06262437
32	0xbc9931d6	-0.018700521
33	0xbd39849d	-0.045292486
34	0x3c1507e4	0.00909612
35	0xbd585af4	-0.052821115
36	0x3c219c61	0.009863944
37	0x3c48c4e3	0.012253973
38	0xbcc59887	-0.024120582
39	0x3cfeaf92	0.031089578
40	0x3daaf7fb	0.0834808
41	0x3d83909f	0.06424069
42	0x3d6c5783	0.057700645
43	0x3d4033de	0.046924464
44	0xbaf101a1	-0.0018387326
45	0x3a865c2c	0.0010250858
46	0xbbbf5121	-0.0058385287
47	0x3c62aed8	0.013835631
48	0xbbe3783b	-0.006941823
49	0xbd4073de	-0.0469855
