fork/NJODE-master/data/saved_models/id-12/best_checkpoint/checkpt.tar (torch, 141453 bytes, 51 tensors)

ode_f.f.0.weight f4 [50, 13]
0	0x3e08fbac	0.13377255
1	0xbe4a6b3d	-0.1976747
2	0xbe051cf2	-0.12999323
3	0xbe6d6bd8	-0.2318567
4	0x3e5352bf	0.20637034
5	0xbe8eedbd	-0.27915755
6	0x3f0142dd	0.5049265
7	0x3e99785c	0.2997464
8	0xbe6df959	-0.2323965
9	0x3e771356	0.2412847
10	0x3e431bc0	0.19053555
11	0xbd2b0996	-0.04175719
12	0x3e93e2b7	0.28883907
13	0xbda5d39a	-0.080970004
14	0x3e6497ce	0.22323534
15	0xbc97d214	-0.01853279
16	0xbe0b5028	-0.13604796
17	0xbe952630	-0.29130697
18	0xbdf2ca68	-0.11855012
19	0x3e6099ea	0.21933714
20	0xbd9fb96b	-0.077990375
21	0xbeae1086	-0.3399698
22	0xbdf3fd32	-0.119135275
23	0xbdd328e2	-0.10310532
24	0xbe4510c6	-0.1924468
25	0xbe45cb84	-0.19315916
26	0xbe545c8b	-0.20738427
27	0xbddb83ee	-0.10718523
28	0xbdf8e21b	-0.12152501
29	0xbde74014	-0.11291519
30	0x3e650b03	0.22367482
31	0x3b8fd7e6	0.004389751
32	0xbeb307aa	-0.34966785
33	0xbe0521fa	-0.13001242
34	0xbdf9fa9a	-0.122060016
35	0xbc906826	-0.017627787
36	0x3e707abc	0.2348432
37	0x3e269829	0.16268982
38	0x3d1f65e3	0.038915526
39	0xbdb47986	-0.08812241
40	0xbde9b6c4	-0.11411813
41	0xbe9b08ce	-0.30280155
42	0xbe145de0	-0.14488935
43	0x3dd885d0	0.10572398
44	0x3e71c285	0.2360936
45	0xbeee4ae2	-0.46541506
46	0x3df4a980	0.11946392
47	0xbe5fd9f5	-0.21860488
48	0xbe494ec3	-0.19658951
49	0x3eb8eebd	0.36119643
50	0x3e617a7f	0.22019385
51	0x3e577ccf	0.21043704
52	0xbdbc8d64	-0.092066556
53	0xbe3127fb	-0.17300408
54	0x3eb818fe	0.35956568
55	0xbd93532e	-0.071936
56	0xbe77d638	-0.24202812
57	0x3d70b498	0.058765978
58	0x3e08ac88	0.13347065
59	0xbeb5be0c	-0.35496557
60	0xbe96c48c	-0.29446828
61	0xbe26ec12	-0.16300991
62	0xbe821ff5	-0.25415006
63	0xbed897b2	-0.42303234
64	0xbde6c42d	-0.11267886
65	0xbeab8822	-0.335023
66	0xbe43dceb	-0.19127242
67	0xbd9db027	-0.07699614
68	0xbd718d2a	-0.058972515
69	0xbe6f7ce0	-0.2338748
70	0x3cc33ce4	0.023832746
71	0x3dc51f9f	0.09625172
72	0xbe83eb8f	-0.25765654
73	0x3cb376bb	0.021907201
74	0x3e4ae378	0.19813335
75	0xbe179a91	-0.14805056
76	0x3c96130e	0.018319633
77	0xbe8d181e	-0.27557462
78	0x3c8559ad	0.016278112
79	0x3c50e672	0.012750255
80	0x3caaa01a	0.020828295
81	0xbd7f00d2	-0.06225664
82	0xbd67df40	-0.056609392
83	0xbe22551f	-0.15852784
84	0x3e5d374f	0.2160313
85	0x3e9573ef	0.29190013
86	0xbcdb99f0	-0.026806802
87	0x3e9d2b8b	0.30697283
88	0xbca1ad73	-0.019736027
89	0x3d188df9	0.03724477
90	0x3ddcb5da	0.10776873
91	0xbe617e84	-0.22020918
92	0x3e237bd0	0.159652
93	0x3e95bbec	0.29244936
94	0x3e81a255	0.25319162
95	0xbe80d20e	-0.2516026
96	0x3e82363d	0.25432006
97	0x3ea76434	0.32693636
98	0x3c96f634	0.018427946
99	0x3e036234	0.1283043
100	0xbdddc234	-0.10828057
101	0xbe7c6a63	-0.24649958
102	0xbdcb8179	-0.09936804
103	0x3d713c2e	0.058895282
104	0xbdb919ee	-0.09038149
105	0x3e8fc21f	0.2807779
106	0xbe8b91bb	-0.2725962
107	0x3d794e28	0.06086555
108	0x3e4def6e	0.20110866
109	0xbe255a3e	-0.16147706
110	0xbe32c710	-0.17458749
111	0x3e95f10c	0.29285467
112	0xbe2378f2	-0.15964106
113	0xbe243a9f	-0.16037987
114	0xbe42bc56	-0.19017157
115	0xbde3a82c	-0.111160606
116	0x3ba27e64	0.0049589146
117	0xbd1dd68a	-0.03853468
118	0xbd235e7f	-0.03988504
119	0xbea7ce70	-0.32774687
120	0xbe989e70	-0.29808378
121	0x3e583e4c	0.21117514
122	0x3e82a04c	0.25512922
123	0xbe90f3f1	-0.28311113
124	0xbe23edcd	-0.16008683
125	0x3e70ad9c	0.23503727
126	0x3e71ea70	0.23624587
127	0xbe117c68	-0.14207613
128	0xbe45a5bf	-0.19301508
129	0x3e26bbb9	0.16282548
130	0x3d5087df	0.050910827
131	0x3e0fde9e	0.14049765
132	0xbd804891	-0.06263841
133	0xbe93db9e	-0.28878492
134	0x3ddf38e0	0.1089952
135	0xbe6a4428	-0.22877562
136	0xbdcb234e	-0.09918843
137	0xbd7f2125	-0.06228747
138	0xbe1ab027	-0.1510626
139	0xbcbcabb1	-0.023031088
140	0xbde3ae7a	-0.11117263
141	0xbcbe5257	-0.023232622
142	0x3d2531b1	0.040330593
143	0x3e95f504	0.29288495
144	0x3dee70a2	0.11642577
145	0x3cd6dd16	0.026228469
146	0x3b60274c	0.003420311
147	0x3c092cb8	0.008372478
148	0x3e0728b1	0.13199116
149	0x3e85289f	0.26007554
150	0x3d9432cb	0.072362505
151	0xbe341ba0	-0.17588663
152	0xbe2b09e6	-0.16702995
153	0x3e41e5e4	0.18935353
154	0xbdb36a52	-0.08760513
155	0x3e518c4d	0.20463677
156	0x3dbaa17d	0.09112833
157	0xbdc81b1d	-0.097707964
158	0xbe268820	-0.16262865
159	0xbbb8d477	-0.005640562
160	0x3ccca178	0.024979338
161	0x3d6b8732	0.05750198
162	0xbeeb55f9	-0.4596403
163	0xbe33d7ff	-0.17562865
164	0x3e933a3c	0.28755367
165	0xbe7fd872	-0.24984911
166	0x3e072412	0.13197353
167	0x3e11aa73	0.14225177
168	0x3e200585	0.15627106
169	0x3dde4d6b	0.1085461
170	0x3aca9cef	0.0015458147
171	0xbe195fc1	-0.14977933
172	0x3e839b0e	0.25704235
173	0x3e6e4218	0.232674
174	0xbe947cfa	-0.290016
175	0x3eb16d08	0.34653497
176	0xbe040f4e	-0.12896463
177	0xbe7a8b38	-0.2446717
178	0x3e4b1e2f	0.19835733
179	0x3b951474	0.0045495573
180	0x3e2976f2	0.1654928
181	0xbbc29be0	-0.005938992
182	0x3ee9cece	0.45665592
183	0x3e451f4b	0.19250219
184	0x3dc8cdb0	0.09804857
185	0x3db85459	0.09000463
186	0x3d8aae39	0.067715116
187	0xbddbf120	-0.1073935
188	0xbe3ad2c9	-0.1824447
189	0xbd05b1d0	-0.03264028
190	0xbaccb529	-0.0015617955
191	0xbd3865f9	-0.045019124
192	0x3e6a2e56	0.22869238
193	0x3c451db8	0.012031011
194	0x3eafdad1	0.3434663
195	0x3bb8d115	0.005640159
196	0x3cb085a7	0.021548105
197	0xbd905266	-0.07046966
198	0x3daf62b1	0.08563746
199	0xbd859cc3	-0.065240405
200	0xbded8bd9	-0.115989394
201	0xbe6397fd	-0.22225948
202	0xbe0880ca	-0.13330379
203	0x3d421fa8	0.04739347
204	0xbccf6442	-0.025316361
205	0x3ddaedd8	0.10689896
206	0xbe3e88f9	-0.18606938
207	0x3bc0a1e9	0.005878676
208	0xbe2f1d51	-0.17101027
209	0x3e3fd830	0.18734813
210	0x3d22c09c	0.039734468
211	0x3d49006a	0.04907266
212	0xbe7df474	-0.24800283
213	0xbe848ebe	-0.25890154
214	0xbeb483a6	-0.3525669
215	0x3e265093	0.16241674
216	0x3e3a0679	0.18166532
217	0xbda1aad2	-0.078939095
218	0x3e15c716	0.14626727
219	0xbe45b974	-0.19309026
220	0x3dd32fd4	0.10311857
221	0x3d8027b0	0.0625757
222	0xbe433e7c	-0.19066805
223	0xbea11eff	-0.3146896
224	0x3e054cfc	0.13017648
225	0x3e7e4fea	0.24835172
226	0xbe316d2c	-0.17326802
227	0xbf00021c	-0.5000322
228	0x3dea31b9	0.11435265
229	0xbe4971dd	-0.19672342
230	0x3dab682a	0.08369477
231	0x3e18c793	0.14919882
232	0x3e286bf9	0.16447438
233	0xbe75c6a0	-0.2400155
234	0x3ead706f	0.33874843
235	0x3e8c852a	0.27445346
236	0xbe310642	-0.17287543
237	0xbe73b13c	-0.23798078
238	0xbe375398	-0.17902982
239	0xbe63c007	-0.22241221
240	0x3ecd9115	0.4014975
241	0xbdf1910b	-0.11795243
242	0x3e2dec60	0.16984701
243	0x3e3f2fa6	0.1867052
244	0xbde6f221	-0.11276651
245	0x3e7309a0	0.2373414
246	0x3e8259ec	0.2545923
247	0xbe680653	-0.22658662
248	0x3e7db06c	0.24774331
249	0xbda0c1a2	-0.078494325
250	0x3ddfbcae	0.1092466
251	0xbe6dc6b7	-0.23220335
252	0xbe41ba61	-0.18918754
253	0xbd634153	-0.05548222
254	0xbbb008e8	-0.0053721555
255	0xbdf7a94c	-0.12092838

ode_f.f.0.bias f4 [50]
0	0x3c4ed908	0.0126249865
1	0xbe603f1a	-0.21899071
2	0x3df217ed	0.1182097
3	0x3dd164c0	0.10224295
4	0xbe72e3d2	-0.23719719
5	0xbe22fcca	-0.15916744
6	0x3d7b205f	0.06131017
7	0xbc23ce65	-0.009997939
8	0x3baf2b23	0.0053457185
9	0xbd12db56	-0.035853706
10	0xbd5e3df3	-0.054258298
11	0x3ac00da9	0.0014652509
12	0x3d8c9162	0.06863667
13	0xbd0eeaa7	-0.03489175
14	0x3e433438	0.19062889
15	0xbd7c0b8a	-0.061534442
16	0xbd4b1f21	-0.049590234
17	0x3cd5dc17	0.026105924
18	0x3d59a522	0.053136
19	0xbe0121a7	-0.12610494
20	0x3e0ae611	0.13564326
21	0x3e2bd22f	0.16779397
22	0xbd2bf73b	-0.041983824
23	0xbd22ebea	-0.039775766
24	0x3d6ffc00	0.058589935
25	0xbb454e7d	-0.0030106597
26	0xbcb47465	-0.022028157
27	0xbd5e6537	-0.054295745
28	0xbe63b2a3	-0.22236113
29	0xbe232ce5	-0.15935095
30	0x3dc6df13	0.09710517
31	0x3d673d60	0.056455016
32	0xbd535cdf	-0.05160224
33	0xbd9d9bdf	-0.07695746
34	0x3da34786	0.079726264
35	0xbd31d07e	-0.043411724
36	0x3d30b3f7	0.043140378
37	0xbca16136	-0.019699674
38	0xbd1ad86d	-0.037804056
39	0x3d7a0a53	0.061045002
40	0xbdbe9aaa	-0.093068436
41	0xbde771cd	-0.11301003
42	0x3ca5baf7	0.020230753
43	0xbda55077	-0.08071988
44	0x3d7dad6a	0.06193296
45	0x3acecefd	0.001577824
46	0x3d033f2c	0.032042667
47	0x3deca1d5	0.115543045
48	0x3e17e13e	0.14832017
49	0x3d9ca798	0.076491535

ode_f.f.3.weight f4 [50, 50]
0	0xbdeb8bda	-0.11501284
1	0x3e20285d	0.15640397
2	0x3db6f752	0.08933891
3	0xbdd698e4	-0.1047838
4	0x3e96bfd4	0.29443228
5	0x3e62877c	0.22121996
6	0x3da684cf	0.081308
7	0x3e30831c	0.17237514
8	0xbe031a0c	-0.12802905
9	0x3da5da15	0.080982365
10	0x3e438fc3	0.1909781
11	0xbe202d78	-0.15642345
12	0x3c9d9520	0.019236147
13	0x3d3ae320	0.04562676
14	0xbe149286	-0.1450902
15	0xbbb56d20	-0.0055366904
16	0x3e4785d6	0.19484648
17	0x3da330fc	0.079683274
18	0xbe7ee407	-0.24891673
19	0x3d9a899f	0.075457804
20	0x3c8d73d4	0.017267145
21	0xbdca82fd	-0.09888265
22	0x3dcad4c0	0.0990386
23	0xbe001041	-0.125062
24	0xbe3e43e4	-0.18580586
25	0xbddc9366	-0.107703015
26	0x3ec12313	0.37722072
27	0xbe2aeb64	-0.16691357
28	0xbd35f1ec	-0.044420168
29	0x3e77872f	0.24172662
30	0xbe2c6776	-0.16836342
31	0x3dab5291	0.08365358
32	0x3e7e20c8	0.24817193
33	0xbc99b9fe	-0.018765446
34	0xbe828905	-0.25495163
35	0x3e6e30c6	0.23260793
36	0x3e6b5276	0.22980675
37	0x3e8ba4eb	0.2727426
38	0x3dcf818c	0.10132131
39	0x3d8e6651	0.06953109
40	0x3e30e62e	0.17275307
41	0x3d354eae	0.044264488
42	0xbd912536	-0.070871755
43	0x3d98f3ee	0.07468401
44	0x3d1e7961	0.038689975
45	0x3df72d83	0.120692275
46	0xbdd8947c	-0.10575196
47	0xbc57ab22	-0.01316336
48	0x3cc58f01	0.024116041
49	0x3e11bf1a	0.14233056
50	0xbeb5a98c	-0.35480917
51	0x3de26018	0.11053485
52	0xbd87abb1	-0.066245444
53	0x3e1628db	0.14664023
54	0x3e13e3e5	0.14442404
55	0xbd0faadb	-0.03507505
56	0xbd4bb417	-0.049732294
57	0xbe318470	-0.17335677
58	0x3e01ecac	0.1268794
59	0x3e5d0b38	0.21586311
60	0x3d40a198	0.047029108
61	0xbe804eee	-0.2506022
62	0x3dc0674c	0.09394702
63	0x3d01b5ad	0.0316674
64	0xbe37f5ab	-0.17964809
65	0x3dcf8d83	0.10134413
66	0x3e0260d2	0.12732247
67	0x3e59c65b	0.21267073
68	0xbe3a2a84	-0.18180281
69	0xbda7b9d8	-0.08189744
70	0xbd7a6bd2	-0.06113798
71	0xbe33e6d4	-0.17568523
72	0x3cbe6483	0.023241287
73	0x3ca8d9a8	0.0206116
74	0xbd9c926c	-0.07645115
75	0xbd01f28f	-0.031725463
76	0x3ebf32eb	0.37343535
77	0x3e19c8d1	0.15018012
78	0xbdadebb1	-0.0849222
79	0x3e0d0cab	0.13774364
80	0x3dba2e5b	0.09090873
81	0xbd561968	-0.052270323
82	0x3daac051	0.08337463
83	0xbdbb8831	-0.09156836
84	0xbddcf106	-0.10788159
85	0x3e97d197	0.29652092
86	0x3ea7d8d1	0.32782605
87	0x3d165768	0.03670445
88	0x3d24d0dd	0.04023825
89	0x3df61b8e	0.120169744
90	0x3e67737c	0.22602648
91	0xbbdef57b	-0.006804166
92	0x3df38e35	0.11892358
93	0x3c33be14	0.010970611
94	0xbd8c1f72	-0.06841935
95	0xbdde981f	-0.108688585
96	0x3d1d9e86	0.038481258
97	0xbd0f26f2	-0.03494925
98	0xbd652d8f	-0.05595165
99	0x3d324aa8	0.04352823
100	0x3e1f2343	0.15540795
101	0xbc5ab399	-0.0133484835
102	0xbcbaa4df	-0.022783695
103	0x3e4cd9e5	0.20004995
104	0xbda03810	-0.07823193
105	0x3d98f397	0.07468336
106	0x3a5e231d	0.000847386
107	0xbde2b242	-0.11069156
108	0xbdc70f34	-0.09719697
109	0xbd1201e6	-0.03564634
110	0xbccfc7d3	-0.025363838
111	0x3e942598	0.28934932
112	0x3d48362a	0.04887978
113	0x3e00acb6	0.12565884
114	0x3e23347d	0.15937991
115	0xbcfdab8a	-0.030965585
116	0xbe63a07b	-0.22229187
117	0x3c4c5c4e	0.012473179
118	0xbb2a361c	-0.0025972193
119	0xbe588204	-0.21143347
120	0x3e964fed	0.29357854
121	0xbc822f99	-0.015891837
122	0x3c651903	0.013983014
123	0xbd9af419	-0.07566089
124	0x3e6dcd04	0.23222739
125	0xbe8fe082	-0.28100973
126	0xbea4bf79	-0.32177332
127	0xbe0ac7a3	-0.13552718
128	0x3d45dc0c	0.048305556
129	0xbe788d3c	-0.24272627
130	0xbde42d5d	-0.11141465
131	0xbd47276c	-0.04862158
132	0xbe73213f	-0.23743151
133	0x3bb3e4ef	0.0054899375
134	0x3e4e84fe	0.2016792
135	0xbc09d2ab	-0.008412044
136	0xbe0ea1fb	-0.13928978
137	0xbdfe7c6f	-0.124260776
138	0xbd522fae	-0.051315002
139	0xbe0c286d	-0.13687296
140	0x3d26c70a	0.040717162
141	0xbb841154	-0.004030386
142	0xbda92384	-0.08258727
143	0xbe1acebf	-0.1511793
144	0x3e8979f7	0.26850864
145	0xbd3dc0f2	-0.046326585
146	0x3e87c07a	0.26514035
147	0xbd71dc58	-0.059048027
148	0x3e10bbf8	0.14134204
149	0x3e64a2a7	0.22327672
150	0x3cb97c30	0.022642225
151	0xbe74feb6	-0.2392529
152	0x3dbb55b4	0.09147206
153	0xbd32a9c0	-0.043618917
154	0xbe0a1525	-0.13484628
155	0xbe6e85e4	-0.23293263
156	0x3d986d5d	0.074427344
157	0xbdb4fe35	-0.08837549
158	0x3bf439f2	0.0074531967
159	0xbcbcab9e	-0.023031052
160	0x3bf32956	0.007420699
161	0x3e18aa7c	0.14908785
162	0xbcbe0ee8	-0.023200467
163	0x3deaabd7	0.11458557
164	0x3dc8217a	0.0977201
165	0x3a11c1eb	0.0005560207
166	0x3c85e267	0.016343309
167	0x3e52d2f8	0.2058829
168	0x39f871d1	0.00047387046
169	0xbe42b57e	-0.19014546
170	0x3d747ffa	0.05969236
171	0x3e908fed	0.28234807
172	0xbe4ff264	-0.20307308
173	0x3d57dbf6	0.052700005
174	0x3e694c96	0.22783121
175	0xbe808d0c	-0.2510761
176	0xbd4f6593	-0.050633978
177	0x3b037cc3	0.0020063377
178	0xbe803709	-0.25041988
179	0xbe9dc61f	-0.30815217
180	0x3db3297d	0.08748148
181	0xbdf2113e	-0.11819695
182	0xbdd22470	-0.10260856
183	0xbe802cbe	-0.25034136
184	0x3e26194b	0.16220586
185	0xbe1d9d17	-0.15391956
186	0x3e0b39e9	0.1359631
187	0x3c2ab367	0.010418749
188	0x3e34a8ce	0.17642519
189	0xbd0e0c67	-0.034679797
190	0xbd40fcf7	-0.047116246
191	0xbd923b18	-0.071401775
192	0x3d4d3c7a	0.050106503
193	0x3cdcc173	0.026947713
194	0x3e92395a	0.2855938
195	0xbbf7f38b	-0.0075668744
196	0x3e6c98d7	0.23105179
197	0x3c903ba3	0.017606562
198	0x3c6d20ad	0.014473123
199	0x3e8199e7	0.2531273
200	0xbed6977b	-0.41912445
201	0xbe2ffb2e	-0.17185661
202	0x3cfef77d	0.031123871
203	0x3cd52f07	0.026023401
204	0x3e427f3a	0.18993846
205	0xbde8a004	-0.113586456
206	0xbe321969	-0.17392506
207	0xbdc176bf	-0.09446477
208	0x3dcfd4ee	0.10148035
209	0x3e1980ba	0.14990512
210	0xbd9cacbb	-0.07650133
211	0x3e0101e3	0.12598376
212	0x3d40562e	0.046957187
213	0xbe801085	-0.25012603
214	0xbd405748	-0.046958238
215	0x3d942319	0.07233257
216	0x3e159945	0.14609249
217	0x3e7b0ded	0.24517031
218	0xbeb906e5	-0.36138073
219	0x3d57396d	0.052545
220	0x3ba874a5	0.0051408582
221	0xbe202155	-0.15637715
222	0x3e73cae8	0.23807871
223	0x3e6582ee	0.22413227
224	0x3d661bb1	0.056178752
225	0x3b0170bf	0.001975104
226	0x3ece1654	0.4025141
227	0x3d0f8b55	0.035044987
228	0xbd9a73c7	-0.07541614
229	0xbe390a29	-0.18070282
230	0xbc902ceb	-0.017599544
231	0x3e230eab	0.15923564
232	0x3e441b10	0.19150949
233	0xbdae1b13	-0.08501258
234	0xbe29367a	-0.16524687
235	0x3e441901	0.19150163
236	0x3de99414	0.11405197
237	0x3eb9f7d7	0.363219
238	0xbde7816d	-0.11303983
239	0x3e1b46ed	0.15163775
240	0x3e6ba74b	0.23013036
241	0x3d281056	0.041031204
242	0x3e426d08	0.18986905
243	0x3dffe9cd	0.12495766
244	0x3c011a44	0.007879797
245	0xbd2246e2	-0.03961838
246	0x3d35ef2d	0.04441755
247	0x3c60a099	0.013710164
248	0x3d769b48	0.06020668
249	0x3da19e31	0.07891501
250	0xbaa1d6bf	-0.0012347325
251	0xbd733d15	-0.059384424
252	0x3dea3517	0.11435907
253	0x3dd852ad	0.10562644
254	0xbe97e722	-0.29668528
255	0xbe2b0938	-0.16702735

ode_f.f.3.bias f4 [50]
0	0xbdf1d465	-0.11808089
1	0xbd5a7362	-0.053332694
2	0x3e0c2586	0.13686189
3	0x3e43f269	0.19135441
4	0xbce5035e	-0.027955707
5	0x3e3af4cb	0.18257444
6	0xbc8ca47a	-0.017168272
7	0xbe2b3ff6	-0.16723618
8	0x3e42284b	0.18960683
9	0x3e0e30c0	0.13885784
10	0x3dd6dad6	0.104909584
11	0xbe2c8d87	-0.16850863
12	0xbdb20c18	-0.08693713
13	0xbe3a31d8	-0.18183076
14	0x3e007371	0.12544037
15	0xbe3a1c6f	-0.18174909
16	0x3da03960	0.078234434
17	0x3d1fa0f5	0.03897186
18	0xbe7a88b5	-0.24466212
19	0xbc888c72	-0.016668532
20	0x3e17b7f1	0.14816262
21	0x3d08132c	0.03322141
22	0xbd85f875	-0.0654153
23	0x3d3b2415	0.045688707
24	0x3cbf9ee2	0.02339119
25	0xbe177c39	-0.14793481
26	0xbd6615b7	-0.056173053
27	0x3e6c3376	0.23066506
28	0x3d06b632	0.0328886
29	0xbe54f4f4	-0.20796567
30	0x3e405e97	0.18786083
31	0x3e461af6	0.19346222
32	0xbcca5465	-0.024698446
33	0x3b9dc58a	0.0048148083
34	0xbc9b6b01	-0.018971922
35	0x3c7ee6ca	0.015557954
36	0x3e41c66f	0.18923353
37	0xbe613e6b	-0.21996467
38	0xbe0be83a	-0.13662806
39	0xbe402753	-0.18765001
40	0xbe4ca9d8	-0.19986665
41	0x3d0f8328	0.03503719
42	0x3da6b0a1	0.08139158
43	0x3b95b043	0.004568131
44	0x3d9657b9	0.073409505
45	0xbde7c081	-0.11316014
46	0xbda3ad67	-0.07992058
47	0x3ceb3d0f	0.028715638
48	0x3e3ddbad	0.18540831
49	0xbd8ba2a7	-0.06818133

ode_f.f.6.weight f4 [10, 50]
0	0xbe827ddc	-0.25486648
1	0xbeaed572	-0.3414722
2	0x3f31e4ea	0.6948992
3	0x3e9ec9fd	0.3101348
4	0xbf2ab227	-0.6667809
5	0x3f29710a	0.6618811
6	0xbf0e63c5	-0.55620986
7	0xbeaf1845	-0.34198204
8	0x3eb74b8e	0.3579983
9	0x3f400c87	0.75019115
10	0x3f160610	0.58603
11	0xbf0752bd	-0.52860624
12	0xbf05bbc5	-0.5223964
13	0xbf2f5464	-0.68488145
14	0x3f38b173	0.72145766
15	0xbf32cebc	-0.698467
16	0x3f13dc95	0.57758456
17	0xbf482d7c	-0.78194404
18	0xbf228430	-0.6348295
19	0x3f4b395c	0.793844
20	0x3f37dfb5	0.71825725
21	0x3f01a6c0	0.50645065
22	0xbf24a3e9	-0.6431261
23	0x3f430bc7	0.76189846
24	0x3f293366	0.6609405
25	0xbf27261a	-0.65292513
26	0xbe8034ea	-0.2504037
27	0x3ee6b629	0.45060852
28	0x3f3ce8cb	0.73792714
29	0xbf3832de	-0.7195262
30	0x3f0c31ad	0.547633
31	0x3ef261ed	0.47340336
32	0x3ef1e6f0	0.47246504
33	0x3f118dbf	0.5685691
34	0xbec47998	-0.3837402
35	0x3f3f3c49	0.7470136
36	0x3eb6ce18	0.35704112
37	0xbf0d07c4	-0.55089974
38	0xbf197bf8	-0.59954786
39	0xbefeb8a4	-0.49750245
40	0xbf0f0a59	-0.55875164
41	0xbee0e560	-0.43925
42	0x3f0c52be	0.54813755
43	0x3f15a72c	0.5845821
44	0x3f3fed97	0.7497191
45	0xbe9e8fd9	-0.30969122
46	0xbeafc298	-0.3432815
47	0xbe567d60	-0.20946264
48	0x3effea08	0.4998324
49	0xbf442e53	-0.76633185
50	0xbf2c3ddb	-0.67281884
51	0xbf2b54f5	-0.6692651
52	0x3f251bd6	0.644956
53	0x3f32b82e	0.69812286
54	0xbf3c058c	-0.73445964
55	0x3ead4910	0.33844805
56	0xbf365d88	-0.7123647
57	0xbe95674d	-0.29180375
58	0x3f076f7e	0.529045
59	0x3e22fd66	0.15916976
60	0x3f1dd42d	0.6165188
61	0xbf263649	-0.6492658
62	0xbee70257	-0.45118973
63	0xbf1b4d57	-0.60664886
64	0x3f2a3879	0.6649242
65	0xbec9329d	-0.39296427
66	0x3f34d6aa	0.7064005
67	0xbe8413d6	-0.25796384
68	0xbee6e7c3	-0.45098695
69	0x3f41f4c5	0.75764114
70	0x3f13e8e2	0.57777226
71	0x3f031f25	0.512194
72	0xbf0e2181	-0.5551987
73	0x3ef64d5f	0.48105904
74	0x3e8536cd	0.26018372
75	0xbee53934	-0.44770205
76	0xbf3332b2	-0.6999923
77	0x3f2652f3	0.6497032
78	0x3f24b0e7	0.6433243
79	0xbe590620	-0.21193743
80	0x3e8a6ee4	0.27037728
81	0x3f021965	0.5082
82	0x3f0e31b6	0.555446
83	0x3f3e7fc5	0.7441371
84	0xbeb3258d	-0.34989586
85	0x3f21b3f8	0.63165236
86	0x3ee9a9a3	0.45637235
87	0xbe09c374	-0.13453466
88	0xbef065fd	-0.4695281
89	0xbe88964b	-0.26677164
90	0xbe8af5ae	-0.27140564
91	0xbf2235a1	-0.6336308
92	0x3e9db403	0.308014
93	0x3e7649f3	0.24051647
94	0x3eea9b5e	0.4582166
95	0xbed78791	-0.42095616
96	0xbef45d84	-0.47727597
97	0xbf12873d	-0.5723761
98	0x3eb2fb3b	0.349573
99	0xbf3fb842	-0.7489053
100	0xbe8683bd	-0.26272383
101	0xbee0becc	-0.43895566
102	0x3f35f62a	0.7107874
103	0x3e8e6d8b	0.2781795
104	0xbf19be10	-0.6005564
105	0x3e996907	0.29962942
106	0xbe81c5d4	-0.25346243
107	0xbeb9c69b	-0.36284336
108	0x3f3fb143	0.74879855
109	0x3f01dc19	0.5072647
110	0x3eb23ed0	0.34813547
111	0xbebad9ee	-0.36494392
112	0xbf2c4704	-0.6729586
113	0xbf04aa07	-0.5182194
114	0x3f44f1c6	0.76931417
115	0xbf402f2b	-0.7507197
116	0x3ee4a625	0.44658008
117	0xbec309dc	-0.3809346
118	0xbf25f0ce	-0.64820564
119	0x3ed8b1b5	0.4232308
120	0x3f31c519	0.6944137
121	0x3e873fbc	0.26415813
122	0xbf2dc488	-0.6787801
123	0x3f107a90	0.56437016
124	0x3f127ce7	0.57221836
125	0xbecbabe2	-0.39779574
126	0xbf187b9d	-0.5956362
127	0x3e99c6b0	0.300344
128	0x3f135580	0.5755234
129	0xbeb032f1	-0.34413865
130	0x3f4841a4	0.7822516
131	0x3f045736	0.51695573
132	0x3e7f507c	0.24933046
133	0x3ec4021e	0.38282865
134	0xbee9ff53	-0.4570261
135	0x3eea1137	0.4571626
136	0x3f0669bf	0.52505106
137	0xbe56c945	-0.20975216
138	0xbede0fb5	-0.4337136
139	0xbef478e4	-0.47748482
140	0xbf23e4db	-0.6402108
141	0xbf231cad	-0.6371563
142	0x3f083511	0.5320597
143	0x3ee29865	0.44256893
144	0x3ed9209d	0.42407694
145	0xbe969c06	-0.2941591
146	0xbf469b8b	-0.7758109
147	0xbf335751	-0.7005511
148	0x3ee5fba9	0.44918564
149	0xbec2a27f	-0.380146
150	0xbf35ed43	-0.7106516
151	0xbf227d5e	-0.63472545
152	0x3ec76e2a	0.38951236
153	0x3eab3d0f	0.33445022
154	0xbf0caf5a	-0.54955065
155	0x3ea69a8c	0.32539785
156	0xbf4bacd1	-0.7956057
157	0xbf27adda	-0.6549965
158	0x3eef46e8	0.46733785
159	0x3f05f596	0.5232786
160	0x3ea5fdea	0.32420284
161	0xbea165cf	-0.31522986
162	0xbf0fba1e	-0.5614337
163	0xbf0decac	-0.5543926
164	0x3f3502bf	0.70707315
165	0xbef060c6	-0.46948832
166	0x3f3de6a4	0.74180055
167	0xbe61346a	-0.2199265
168	0xbf16584e	-0.5872849
169	0x3e9b0f4b	0.30285105
170	0x3f1de79b	0.61681527
171	0x3e9e1930	0.30878592
172	0xbf40c779	-0.7530437
173	0x3ec93b33	0.39302978
174	0x3f2527d8	0.6451392
175	0xbf41ee5b	-0.75754327
176	0xbf3d177d	-0.73863965
177	0x3f0a98ff	0.54139704
178	0x3f3b3b73	0.7313759
179	0xbf3b78be	-0.7323111
180	0x3e71f912	0.23630169
181	0x3e9c1b5f	0.30489632
182	0x3f0fe154	0.562032
183	0x3efdd3cb	0.49575648
184	0xbf315156	-0.69264734
185	0x3f2365e5	0.63827354
186	0x3f248181	0.6426011
187	0xbf28dfda	-0.6596657
188	0xbef507c0	-0.47857475
189	0xbf1e7e86	-0.6191181
190	0xbe6213ae	-0.2207782
191	0xbefef5c1	-0.4979687
192	0x3ed9cc81	0.42538837
193	0x3f07f67c	0.5311048
194	0x3f0afdd5	0.54293567
195	0xbf2a0ddb	-0.6642739
196	0xbf1afd74	-0.6054299
197	0xbeb0d12f	-0.34534594
198	0x3f1e2cad	0.6178692
199	0xbf2c6720	-0.67344856
200	0xbf39d8a2	-0.7259618
201	0xbf22bc35	-0.6356843
202	0x3e667666	0.22506103
203	0x3f1eebeb	0.6207873
204	0xbf1ddf87	-0.616692
205	0x3e62cacb	0.22147672
206	0xbf2dfcdc	-0.6796396
207	0xbf259b8f	-0.6469049
208	0x3f41d6c4	0.7571833
209	0x3ebf273d	0.37334624
210	0x3f42a8c3	0.7603876
211	0xbf4465b7	-0.76717705
212	0xbe8a0b4c	-0.26961744
213	0xbe7f8388	-0.24952519
214	0x3efdbcd2	0.4955812
215	0xbec7048b	-0.38870654
216	0x3e48539a	0.19563141
217	0xbf4003d3	-0.75005835
218	0xbedfd15a	-0.4371441
219	0x3ef95ad9	0.48702124
220	0x3e545681	0.20736124
221	0x3f19543c	0.59894156
222	0xbee94bb8	-0.4556558
223	0x3f085a5a	0.53262866
224	0x3e7d4e76	0.24736962
225	0xbeb18202	-0.346695
226	0xbea2f16c	-0.31824815
227	0x3e8a2420	0.26980686
228	0x3f11dc41	0.56976706
229	0xbe77e495	-0.24208291
230	0x3eeb7c35	0.459932
231	0x3eb39a54	0.3507868
232	0x3f1b8b59	0.607595
233	0x3f1d9d60	0.6156826
234	0xbf17d4d6	-0.59309137
235	0x3ee113e0	0.43960476
236	0x3f115591	0.5677119
237	0xbf35f4d4	-0.71076703
238	0xbf3f1189	-0.7463613
239	0xbf332662	-0.6998044
240	0xbf09a37a	-0.5376507
241	0xbf2d7c83	-0.67768115
242	0x3f16eebb	0.58958024
243	0x3f3afe2f	0.73044103
244	0x3f1eecdd	0.62080175
245	0xbef765bc	-0.48319805
246	0xbf40356d	-0.7508152
247	0xbf0aa040	-0.5415077
248	0x3f0c09b9	0.54702336
249	0xbf0c54b4	-0.54816747
250	0xbd79b4b8	-0.060963362
251	0xbe110741	-0.14162923
252	0x3ec2e5b9	0.3806589
253	0x3e046b39	0.12931527
254	0xbed17fd4	-0.40917838
255	0x3d9ab7de	0.07554601

ode_f.f.6.bias f4 [10]
0	0x3ed43a6b	0.4145082
1	0x3ebf5365	0.37368312
2	0x3ee12468	0.43973088
3	0x3edd2d4c	0.4319862
4	0x3ed7dbf7	0.42160007
5	0x3e31b66c	0.17354745
6	0x3ef1ee5c	0.47252166
7	0x3ece2937	0.4026582
8	0x3ed66b1a	0.41878587
9	0x3ed97a2f	0.4247603

encoder_map.ffnn.0.weight f4 [50, 1]
0	0x3e7d1fd5	0.24719174
1	0xbe927e57	-0.28612015
2	0x3e9943ed	0.29934636
3	0xbeb14a69	-0.34627083
4	0xbeb52c58	-0.35385394
5	0xbdc4c92e	-0.096086845
6	0xbe1fc981	-0.15604211
7	0x3e2d42bb	0.16919987
8	0x3dc4b9c3	0.09605744
9	0xbda645e4	-0.08118799
10	0x39145f75	0.0001414994
11	0xbd90a7eb	-0.07063278
12	0xbd31dbec	-0.043422624
13	0xbe89fa2d	-0.2694868
14	0xbe45842f	-0.19288705
15	0xbe006bf5	-0.12541182
16	0x3e5a7298	0.21332777
17	0x3e4b4798	0.1985153
18	0xbe915e1e	-0.28392118
19	0xbd859b83	-0.06523802
20	0x3e6b6946	0.22989377
21	0x3e813260	0.25233746
22	0x3d180022	0.0371095
23	0x3e74f558	0.23921716
24	0xbe544907	-0.20730983
25	0xbe97219c	-0.2951783
26	0xbe11c188	-0.14233983
27	0xbe5888e3	-0.21145968
28	0xbe179832	-0.14804152
29	0x3e4a87cb	0.19778363
30	0xbe4db226	-0.2008749
31	0x3eacdc00	0.33761597
32	0x3e91e053	0.28491458
33	0x3e4690ee	0.19391224
34	0xbe951246	-0.29115504
35	0xbe343152	-0.17596939
36	0xbe3f2349	-0.18665804
37	0x3ecaa9f2	0.39582783
38	0x3e048d17	0.12944447
39	0x3e37190a	0.17880645
40	0x3ea6ab46	0.32552546
41	0xbe3d589d	-0.18490835
42	0x3caca440	0.021074414
43	0xbe921751	-0.28533414
44	0x3eb89805	0.36053482
45	0xbe3b8e99	-0.18316115
46	0x3db054f2	0.08609952
47	0x3ea65a69	0.32490852
48	0x3dfc6041	0.123230465
49	0xbe362b86	-0.1779004

encoder_map.ffnn.0.bias f4 [50]
0	0x3d080ce7	0.03321543
1	0x3cc1b896	0.023647588
2	0x3cc36c12	0.023855243
3	0xbd691361	-0.056903247
4	0xbd02e037	-0.03195211
5	0xbcb69b82	-0.022290949
6	0x3c818cfe	0.0158143
7	0x3cbb8618	0.02289109
8	0x3d1c567a	0.038168408
9	0x3c65b893	0.014021057
10	0xbcb195ae	-0.021677818
11	0xbcc96d57	-0.02458827
12	0xbd4746ee	-0.04865163
13	0x3d13ae53	0.03605492
14	0x3d04fe74	0.032469228
15	0x3cb09e60	0.021559894
16	0xbd223bd2	-0.03960783
17	0x3da9e485	0.0829554
18	0xbd11f50c	-0.035634086
19	0x3d115b24	0.03548731
20	0x3d4a90eb	0.04945461
21	0x3d82da80	0.06389332
22	0xbdf2e667	-0.11860352
23	0xbdf96194	-0.12176815
24	0x3d4ea8b0	0.05045384
25	0xbd266e1a	-0.040632345
26	0xbd3b271f	-0.045691606
27	0x3bdcf1e7	0.006742704
28	0xbd20b97e	-0.0392394
29	0xbcb598ba	-0.022167552
30	0xbb6bb65d	-0.0035966851
31	0x3d2a5717	0.04158696
32	0x3c839124	0.01606042
33	0x3d0e8afb	0.03480051
34	0xbc84a7ff	-0.016193388
35	0x3daddf47	0.084898524
36	0xbce8be23	-0.028410977
37	0x3d48ebce	0.049053006
38	0xbb3f5ef7	-0.002920089
39	0x3d4548a8	0.048164994
40	0x3d4ec74d	0.050483037
41	0x3b8212c7	0.0039695236
42	0x3d65d076	0.056107007
43	0x3cf20e68	0.029547885
44	0x3d523323	0.0513183
45	0x3b7b69f8	0.0038362723
46	0x3cbb6fb9	0.022880422
47	0x3d068e2c	0.03285043
48	0xbb8159f8	-0.0039474927
49	0xbd11de9e	-0.035612695

encoder_map.ffnn.3.weight f4 [50, 50]
0	0x3e13ac25	0.14421137
1	0xbbacfd7e	-0.005279242
2	0x3e041d53	0.12901811
3	0x3dc6e8aa	0.09712346
4	0xbe0b2da7	-0.13591634
5	0xbdd2f43b	-0.103004895
6	0xbdf94929	-0.12172157
7	0xbbbb1a5d	-0.00570993
8	0xbcdffaa5	-0.027341196
9	0xbd30a3c8	-0.043124944
10	0xbcbbb030	-0.022911161
11	0xbd057285	-0.032579917
12	0xbdb07146	-0.08615355
13	0x3cf9a7bd	0.030475492
14	0xbbcb1e8e	-0.0061987108
15	0xbdc79ff7	-0.09747308
16	0x3dfa3664	0.122174054
17	0xbd240f40	-0.040053606
18	0xbc6d6028	-0.0144882575
19	0xbceecea4	-0.029151268
20	0x3d3b38de	0.04570853
21	0x3d8436a9	0.06455738
22	0xbdb57cd5	-0.088617004
23	0x3d8afc3c	0.06786391
24	0x3cd8b72d	0.026454533
25	0xbe59af14	-0.21258193
26	0xbe24af1b	-0.16082422
27	0xbe29d0e4	-0.16583592
28	0xbe27a857	-0.1637281
29	0x3c87e083	0.016586548
30	0xbdbe2faf	-0.09286439
31	0x3e428b5b	0.18998472
32	0x3dea6135	0.11444322
33	0x3d832151	0.06402839
34	0xbe22dea8	-0.15905249
35	0x3d7e0bc3	0.062022936
36	0x3d57facf	0.052729424
37	0x3dc0b0c4	0.09408715
38	0xbdb4f4d1	-0.088357575
39	0x3e13c9c7	0.1443244
40	0xbccf068a	-0.025271673
41	0x3df52950	0.1197077
42	0x3da79d9f	0.08184361
43	0x3d61eae4	0.05515565
44	0xbd4dd74e	-0.05025416
45	0x3dadc0f7	0.08484071
46	0x3d98a58b	0.0745345
47	0x3de49316	0.11160867
48	0x3cdf27b2	0.027240608
49	0xbcd5d266	-0.026101302
50	0xbddb17ae	-0.10697876
51	0x3e280465	0.16407926
52	0x3dd97d44	0.10619596
53	0xbde2d719	-0.11076183
54	0xbceb08a5	-0.028690645
55	0x3b152a79	0.0022760911
56	0xbd9eeb76	-0.07759754
57	0xbdeea3bd	-0.11652324
58	0x3d69f71c	0.057120427
59	0x3d735fa0	0.059417367
60	0xba91c238	-0.0011120504
61	0xbc80aca5	-0.015707323
62	0xbc88e697	-0.016711516
63	0x3da67293	0.08127322
64	0x3cddd0f0	0.027077168
65	0x3b05d379	0.0020420237
66	0xbc72aca3	-0.014811668
67	0x3dc1e290	0.094670415
68	0x3deeb116	0.1165487
69	0x3c87ea68	0.016591266
70	0x3d447458	0.047962517
71	0xbb0b4fc2	-0.0021257256
72	0xbb3d6c37	-0.0028903612
73	0x3dd1e4a6	0.10248689
74	0xbcf39662	-0.029734794
75	0x3e20a5c7	0.15688239
76	0x3de69a83	0.112599395
77	0xbd18f841	-0.03734613
78	0xbdc47fac	-0.09594664
79	0xbd7051f6	-0.058671914
80	0xbd94a22d	-0.07257495
81	0x3dcbd7b9	0.09953255
82	0xbdc09671	-0.094036944
83	0x3d32510c	0.043534324
84	0xbdb24250	-0.08704054
85	0x3c6e9f24	0.014564309
86	0x3de031b8	0.10946983
87	0x3cef4cbe	0.029211398
88	0xbd3cd362	-0.046100028
89	0xbcbc3d62	-0.022978488
90	0x3df5b944	0.11998227
91	0xbd43a0c9	-0.04776076
92	0x3cbcd119	0.023048924
93	0x3d53d2c3	0.05171467
94	0xbcae1bd9	-0.021253513
95	0x3d8f8c27	0.07009154
96	0x3cfeb681	0.031092884
97	0xbdfc1f05	-0.12310604
98	0xbd58660b	-0.05283169
99	0xbbf2cd75	-0.0074097463
100	0xbe9d0f86	-0.30675906
101	0x3df3bf9c	0.11901781
102	0xbce958f6	-0.028484803
103	0x3e8af719	0.27141646
104	0x3deee74e	0.116652116
105	0xbd395188	-0.04524377
106	0xbd7ca8e1	-0.061684493
107	0xbd96189e	-0.07328914
108	0xbc5787dd	-0.013154951
109	0x3c46e1cc	0.012138795
110	0x3da34ece	0.07974015
111	0x3d7c8ef3	0.061659764
112	0x3e4091e2	0.1880565
113	0x3e039b62	0.12852243
114	0xbe05f084	-0.1308003
115	0x3dcb70ad	0.099336006
116	0xbe66a5cf	-0.22524188
117	0xbe80ef1e	-0.25182432
118	0x3e773c84	0.24144179
119	0xbdacebe7	-0.08443432
120	0xbc8fbf1e	-0.017547186
121	0xbc1f5baa	-0.009726444
122	0x3c5335a5	0.012891208
123	0xbe3e5c8a	-0.18589988
124	0xbd781782	-0.060569294
125	0xbc338fd1	-0.0109595815
126	0x3e0ad5bb	0.13558094
127	0xbc10ddac	-0.008841913
128	0x3df4096e	0.11915861
129	0x3e101421	0.14070179
130	0x3e1a89f7	0.15091692
131	0xbdbe0604	-0.09278491
132	0xbd536407	-0.051609065
133	0xbe50ed8e	-0.2040312
134	0xbe01a35f	-0.12659977
135	0xbdb1e630	-0.08686483
136	0x3e37d85a	0.17953625
137	0xbdb4de46	-0.08831458
138	0x3e0657b8	0.131194
139	0x3d8d323f	0.06894349
140	0xbe81720b	-0.2528232
141	0x3e0f2e9f	0.13982628
142	0xbdfce7a4	-0.123488694
143	0x3d5a8478	0.05334899
144	0x3e06a9ef	0.13150762
145	0x3d4b7a38	0.049677104
146	0x3dffbd96	0.124873325
147	0xbe96caaa	-0.29451495
148	0xbcfcb5b4	-0.030848362
149	0x3e0ba90a	0.13638702
150	0xbe177e8c	-0.14794368
151	0x3e310384	0.17286497
152	0xbe3c09cb	-0.1836311
153	0x3e2fb758	0.17159784
154	0x3eac86e8	0.33696675
155	0x3dadc23c	0.08484313
156	0x3c29d9a8	0.010366835
157	0x3da82383	0.08209898
158	0xbdb8314f	-0.0899378
159	0xbd513bbf	-0.05108237
160	0x3c86fe9a	0.016478825
161	0xbbed19e4	-0.0072357524
162	0x3dc9b444	0.09848836
163	0x3da78ab2	0.08180751
164	0x3d4433bb	0.047900897
165	0x3e360a6f	0.17777418
166	0xbe6777aa	-0.22604242
167	0xbd928ea9	-0.071561165
168	0x3e53f3de	0.20698497
169	0x3e168a7b	0.14701264
170	0xbde00659	-0.10938711
171	0xbe80fce1	-0.2519293
172	0x3dd9ac3b	0.106285535
173	0xbe306ba2	-0.17228559
174	0x3e826949	0.2547095
175	0xbdb49a92	-0.088185444
176	0x3e0ba67f	0.13637732
177	0xbcfdcd1d	-0.030981595
178	0xbd37b225	-0.044847626
179	0xbe3bd0d6	-0.18341383
180	0xbd0372d9	-0.03209195
181	0xbe9db648	-0.30803132
182	0xbe448c40	-0.19194126
183	0xbe288bfb	-0.16459648
184	0xbd163241	-0.03666902
185	0xbc162953	-0.009165126
186	0xbdd3aa49	-0.10335214
187	0xbea3fcf8	-0.32028937
188	0xbe6829cb	-0.22672193
189	0x3d1e505d	0.03865086
190	0x3d520202	0.051271446
191	0x3d647046	0.055771135
192	0xbe0a1dcf	-0.13487934
193	0xbda0cb21	-0.07851244
194	0xbe71ca19	-0.2361225
195	0x3d3744f6	0.0447435
196	0xbdcb8b30	-0.09938657
197	0xbd702026	-0.05862441
198	0xbe92048d	-0.28519097
199	0xbd6df494	-0.058094576
200	0x3e4023da	0.18763676
201	0xbd836621	-0.06415964
202	0x3df0b596	0.11753385
203	0xbe312722	-0.17300084
204	0x3e5a8974	0.21341497
205	0xbb8bd953	-0.0042678504
206	0xbdb59ade	-0.08867429
207	0x3e046d59	0.12932338
208	0x3d0922b8	0.033480376
209	0x3d6d4bf9	0.05793378
210	0xbc2200c0	-0.009887874
211	0xbde7bab1	-0.113149054
212	0x3c06a6e2	0.008218499
213	0xbd4309a9	-0.047616635
214	0x3db96baa	0.090537384
215	0x3cce47f2	0.02518079
216	0x3ddcb5d3	0.10776868
217	0xbe1620ce	-0.14660951
218	0x3e492826	0.19644222
219	0xbc2b38b5	-0.010450532
220	0xbd467a61	-0.048456553
221	0x3e2f9258	0.1714567
222	0x3ddc76f9	0.1076488
223	0x3e316a9f	0.17325829
224	0x3de37c67	0.11107712
225	0x3e31c354	0.17359668
226	0x3dfd5ebb	0.12371584
227	0xbe1c4339	-0.15260018
228	0x3dfec49d	0.12439845
229	0x3dcebadd	0.10094235
230	0xbd9f59a4	-0.077807695
231	0xbdbf6d76	-0.0934705
232	0xbda5032d	-0.08057246
233	0xbc8236ad	-0.015895212
234	0xbcc8f197	-0.024529262
235	0xbd8d5612	-0.06901182
236	0x3e2ce815	0.16885407
237	0xbd01fc60	-0.031734824
238	0xbbff4bf8	-0.0077910386
239	0x3e3e9620	0.18611956
240	0x3e48a109	0.1959268
241	0xba9514cb	-0.0011373995
242	0x3d34989d	0.044090856
243	0x3e1a10be	0.15045449
244	0x3aae249c	0.0013286057
245	0xbe377e63	-0.17919306
246	0xbdfd533d	-0.12369392
247	0xbd7b3177	-0.06132647
248	0xbbe63514	-0.0070253704
249	0x3e403917	0.18771778
250	0xbc003fdd	-0.007827726
251	0xbcf9108c	-0.030403398
252	0x3e2235eb	0.1584088
253	0xbe03b082	-0.12860301
254	0x3e0382b4	0.12842828
255	0x3d61f7a6	0.055167817

encoder_map.ffnn.3.bias f4 [50]
0	0x3e1e14b4	0.15437585
1	0x3d89f2d5	0.0673577
2	0xbdfa565b	-0.12223502
3	0xbdc00b62	-0.09377171
4	0xbc0e384c	-0.008680414
5	0x3d6fd538	0.05855295
6	0x3b85335c	0.0040649604
7	0xbdec77e6	-0.11546306
8	0x3d625d6d	0.05526488
9	0xbd127bed	-0.035762716
10	0xbd123d93	-0.035703253
11	0x3bea0545	0.0071417415
12	0xbdc1a1da	-0.09454699
13	0xbccb8bd5	-0.02484695
14	0xbd7fb0e9	-0.062424574
15	0x3cbc6d73	0.023001408
16	0x3dd71d58	0.10503644
17	0xbcd83609	-0.026392953
18	0xbdc6a532	-0.09699477
19	0xbc1f804f	-0.009735181
20	0x3d1eecb2	0.03879995
21	0xbcbe6a23	-0.02324397
22	0x3dec0b23	0.11525562
23	0x3bf3e754	0.007443348
24	0xbd9ac784	-0.07557586
25	0x3dc7e558	0.09760541
26	0x3c417a79	0.011808985
27	0xbd4575bb	-0.04820798
28	0x3df04699	0.117322154
29	0xbdba31e6	-0.090915486
30	0xbda9de4f	-0.08294355
31	0x3d652c3a	0.05595038
32	0xbd48af8a	-0.048995532
33	0xbccfc7a9	-0.02536376
34	0x3d6648a4	0.05622162
35	0xbd82a545	-0.06379179
36	0xbe1f7016	-0.15570101
37	0x3d9c804f	0.076416604
38	0xbcde95fa	-0.027171124
39	0x3d952b88	0.072836936
40	0x3cf86321	0.030320706
41	0xbcf97abf	-0.030454038
42	0x3d9d80de	0.07690595
43	0x3d105583	0.0352378
44	0xbd014c9f	-0.031567212
45	0x3dccfec2	0.10009529
46	0x3d686ae7	0.056742575
47	0x3d06bb1c	0.032893285
48	0x3d01df9a	0.031707384
49	0x3d61e999	0.055154417

encoder_map.ffnn.6.weight f4 [10, 50]
0	0xbe36c0ae	-0.17846939
1	0x3c099f88	0.008399852
2	0x3e4bd6c4	0.19906145
3	0xbe03dcc1	-0.1287718
4	0xbc2baf85	-0.010478859
5	0xbd54a645	-0.05191638
6	0x3e1f3a5b	0.15549605
7	0xbe6ab0ff	-0.22919081
8	0xbe4c30a7	-0.19940434
9	0x3e0c4594	0.13698417
10	0xbd7feeeb	-0.06248371
11	0xbe70cb4a	-0.23515049
12	0xbe5f2081	-0.21789743
13	0x3e6ee9d7	0.2333139
14	0x3e994962	0.299388
15	0x3e6c0bdf	0.23051403
16	0xbe0b4aa9	-0.136027
17	0xbe222085	-0.15832718
18	0x3de6235a	0.112372115
19	0x3e4aae84	0.19793135
20	0xbd067721	-0.032828454
21	0xbd793bbc	-0.060847983
22	0xbe53d209	-0.20685591
23	0xbe1275b8	-0.14302719
24	0x3b4e4c93	0.0031478747
25	0xbd9de7bc	-0.077102154
26	0x3df90c7d	0.12160585
27	0x3de4e55c	0.11176559
28	0xbcd22d2d	-0.025656307
29	0x3da086eb	0.078382336
30	0xbea333ba	-0.31875402
31	0x3df572cd	0.11984787
32	0xbd5f98f4	-0.054589227
33	0xbc347ce1	-0.011016102
34	0xbe4ec980	-0.20194054
35	0xbd4c58ac	-0.04988925
36	0x3e6540d5	0.22388013
37	0xbde354c1	-0.1110015
38	0xbddb5256	-0.10709064
39	0xbdad48d8	-0.084611595
40	0xbe67b77f	-0.22628592
41	0x3b5c5f40	0.003362611
42	0xbe1de9e4	-0.15421253
43	0xbe80875d	-0.25103274
44	0x3d48eb5b	0.049052577
45	0x3e429eec	0.19005936
46	0x3dc3048d	0.09522352
47	0x3d424a46	0.047434114
48	0x3e1ed4da	0.15510884
49	0x3e41ebc7	0.18937598
50	0xbd867e98	-0.065671146
51	0x3cbb741e	0.022882517
52	0xbd3fe3a7	-0.046847966
53	0x3e40e59a	0.18837586
54	0x3e44223f	0.19153689
55	0xbe542bfc	-0.20719904
56	0x3e2a74f9	0.16646184
57	0x3e057e2e	0.13036415
58	0xbcb5bc8f	-0.022184638
59	0xbeae05b3	-0.33988723
60	0xbd2b19ee	-0.041772775
61	0x3e45388a	0.19259849
62	0xbe15d949	-0.14633669
63	0x3e6c6a9f	0.23087548
64	0xbe24521a	-0.16046944
65	0xbd80b910	-0.06285298
66	0xbe205cf0	-0.15660453
67	0xbda59671	-0.08085335
68	0x3e57ba25	0.21067102
69	0x3e75b4a7	0.23994695
70	0x3dcab206	0.098972365
71	0x3e186c5c	0.14885086
72	0x3e31f56e	0.1737878
73	0xbd95af0d	-0.07308779
74	0x3cc6f2d0	0.024285704
75	0xbe134f5b	-0.1438574
76	0xbd0ea35f	-0.03482377
77	0x3df30c6a	0.11867602
78	0xbe5937d6	-0.21212706
79	0x3e6bb776	0.23019204
80	0x3e031040	0.12799168
81	0xbeaabc22	-0.3334666
82	0x3d8a86fd	0.06764028
83	0xbcbdd29b	-0.023171714
84	0xbe4a984b	-0.19784658
85	0xbe6b584b	-0.229829
86	0xbdbbe68d	-0.091748334
87	0xbe127384	-0.14301878
88	0x3c91d7bc	0.017803065
89	0xbe0c2948	-0.13687623
90	0x3dcd4a60	0.100239515
91	0x3e8af6ae	0.27141327
92	0xbcdf1fa1	-0.027236762
93	0xbe0a26bb	-0.13491337
94	0x3dc7ffcd	0.09765587
95	0xbd488f05	-0.04896452
96	0xbc33f341	-0.010983289
97	0x3e4f5c36	0.2025002
98	0xbd931440	-0.07181597
99	0xbd40c5f2	-0.047063775
100	0xbd62050f	-0.055180606
101	0x3c3b5eab	0.011436145
102	0x3d450dac	0.04810874
103	0xbe55cbd5	-0.20878537
104	0x3e5596af	0.20858262
105	0x3e154f20	0.14580965
106	0xbdc30667	-0.095227055
107	0xbdd3a09e	-0.1033337
108	0x3b727b87	0.0036999898
109	0xbe018905	-0.12649925
110	0x3dbcd522	0.09220339
111	0xbe05bfd7	-0.13061462
112	0xbe62f761	-0.2216468
113	0xbe81a51f	-0.2532129
114	0xbe37c619	-0.17946662
115	0xbb40a4bd	-0.0029395067
116	0x3db373ca	0.087623194
117	0xbdcf0a52	-0.1010939
118	0xbdeb25c0	-0.114818096
119	0xbe0f0ec4	-0.13970476
120	0x3d6af503	0.057362568
121	0x3e048c1a	0.1294407
122	0xbe011abe	-0.12607858
123	0x3e864ff4	0.26232874
124	0x3bd5beee	0.0065230047
125	0x3dcf5630	0.10123861
126	0xbdceac13	-0.10091414
127	0x3e81165d	0.25212374
128	0xbd6f69cc	-0.058450505
129	0xbe811949	-0.25214604
130	0x3d8c76f7	0.06858628
131	0x3dd3a5ff	0.103343956
132	0x3d51556f	0.051106866
133	0xbbbe0309	-0.0057987017
134	0xbc5c2041	-0.013435424
135	0xbe5467e2	-0.20742753
136	0xbe9a7cb1	-0.30173257
137	0x3e52b4ee	0.20576832
138	0xbdfb7410	-0.122779965
139	0x3e5c7666	0.2152954
140	0xbdf90637	-0.121593885
141	0xbe79b239	-0.24384393
142	0xbd0ac79c	-0.03388177
143	0x3d185502	0.037190445
144	0x3d2f7d5b	0.042844158
145	0xbdfc04f1	-0.1230563
146	0xbe6276d5	-0.22115643
147	0x3d247c4f	0.040157612
148	0x3e7c329c	0.24628681
149	0x3dd3c0c2	0.103395
150	0x3d8e203c	0.06939742
151	0xbc223249	-0.009899684
152	0x3deaef62	0.1147144
153	0xbdb0106c	-0.08596882
154	0xbe289be4	-0.16465718
155	0xbd9d9e65	-0.07696227
156	0x3dba0bf5	0.09084312
157	0xbdac8b90	-0.08425057
158	0xbe6b3063	-0.22967677
159	0x3d78b31e	0.060717694
160	0x3e1358fc	0.14389414
161	0x3dc06b4e	0.09395467
162	0x3e88c9d5	0.26716486
163	0xbe4a9570	-0.19783568
164	0x3dcd84a3	0.10035064
165	0x3ddabcb4	0.106805235
166	0x3da652b2	0.08121242
167	0xbd8bb4f0	-0.068216205
168	0xbe69e8e7	-0.22842751
169	0x3d9de9b1	0.07710589
170	0x3e1be216	0.15222964
171	0x3eb5db76	0.35518998
172	0x3b0ef3ff	0.0021812913
173	0x3e9dfa2f	0.30854937
174	0x3dbbd9a0	0.09172368
175	0x3e4f8841	0.2026682
176	0x3e0e0c6a	0.13871923
177	0xbe20cc6c	-0.15702981
178	0x3e9be2ed	0.30446568
179	0x3e86875d	0.2627515
180	0xbe129763	-0.14315562
181	0x3e85e3a7	0.26150247
182	0xbe43ffb9	-0.19140519
183	0xbda34628	-0.079723656
184	0xbd2d6492	-0.04233224
185	0x3eb360b1	0.35034707
186	0x3e457049	0.19281115
187	0x3e952936	0.29133004
188	0xbdb9964b	-0.09061869
189	0x3dd217c8	0.10258442
190	0x3d1539eb	0.036432188
191	0x3e27276f	0.16323636
192	0x3d7db415	0.061939318
193	0xbcc92dad	-0.024557913
194	0xbe4b972c	-0.19881886
195	0x3e19fea1	0.1503854
196	0x3d7d32f2	0.061816163
197	0x3e85a0b0	0.26099157
198	0x3e8722bc	0.26393688
199	0xbdca9335	-0.09891359
200	0xbe4686e4	-0.19387394
201	0xbda99749	-0.082808085
202	0x3ddc4f72	0.107573405
203	0xbe890e47	-0.26768705
204	0x3e8750ae	0.2642874
205	0xbd32c6c7	-0.0436466
206	0xbe0f745c	-0.14009231
207	0x3d985add	0.07439206
208	0xbe05e743	-0.130765
209	0x3e266137	0.16248022
210	0xbd18d954	-0.037316635
211	0xbdc60609	-0.0966912
212	0xbe2c56f7	-0.1683005
213	0x3c8e155a	0.017344166
214	0xbd8f5d1a	-0.070001796
215	0x3c032bf9	0.008006089
216	0x3dd7f038	0.10543865
217	0x3d49d2fd	0.04927348
218	0x3e1f5d51	0.15562941
219	0xbdfe269b	-0.12409707
220	0x3d540ad5	0.051768143
221	0xbe430758	-0.1904577
222	0x3e3b5341	0.18293478
223	0xbd3e1331	-0.04640502
224	0xbe9eec78	-0.31039786
225	0x3e3eff92	0.1865218
226	0x3e0621b1	0.1309879
227	0xbe7f72a8	-0.24946082
228	0xbd343c1c	-0.044002637
229	0x3d3f3e21	0.04669011
230	0x3c08ec15	0.008357068
231	0x3d4dbcf8	0.050229043
232	0xbe7bea42	-0.24601081
233	0x3dc7f541	0.09763575
234	0x3e7f66d3	0.24941568
235	0x3eb1e279	0.34743097
236	0x3e3d6cda	0.18498555
237	0x3ca290da	0.019844461
238	0x3cc26fda	0.023734976
239	0x3e42a071	0.19006516
240	0x3e8457d1	0.2584825
241	0xbe6f4975	-0.23367865
242	0xbdbafb5a	-0.09129973
243	0xbc8312f7	-0.016000254
244	0xbc7523e1	-0.0149621675
245	0x3e21154a	0.15730777
246	0xbda8da3b	-0.08244749
247	0xbd396c07	-0.04526904
248	0x3d93a900	0.072099686
249	0xbbc54dfc	-0.0060212594
250	0xbdc88b66	-0.09792213
251	0xbc308b84	-0.010775451
252	0x3eb813f2	0.35952717
253	0x3eae8306	0.34084338
254	0x3c91f898	0.017818734
255	0xbe5b6af4	-0.21427518

encoder_map.ffnn.6.bias f4 [10]
0	0xbbf56b31	-0.007489585
1	0xbc5a80fd	-0.013336417
2	0xbb3cc5f6	-0.0028804517
3	0xbb30bb86	-0.0026967241
4	0x3c2674ad	0.010159654
5	0xbdc8d076	-0.09805386
6	0x3d19a07b	0.03750656
7	0x3ba9fbf8	0.0051875077
8	0x3b2ab066	0.0026045083
9	0x3c07d81a	0.008291269

readout_map.ffnn.0.weight f4 [50, 10]
0	0x3e876f9b	0.26452336
1	0xbe30e990	-0.17276597
2	0xbe6c6d64	-0.23088604
3	0x3d1f3595	0.03886946
4	0x3e472506	0.19447717
5	0xbd836df2	-0.06417455
6	0xbde0b751	-0.10972465
7	0x3e82375f	0.2543287
8	0xbd6ea893	-0.058266234
9	0xbe4f619e	-0.20252082
10	0x3cd64ce6	0.026159715
11	0x3e33eaba	0.1757001
12	0x3d1475dd	0.036245216
13	0x3e565990	0.20932603
14	0xbd91d98b	-0.07121571
15	0xbd5fbaac	-0.054621384
16	0xbe33f8f0	-0.17575431
17	0xbebc6e05	-0.36802688
18	0x3e221a76	0.15830407
19	0x3e3095f0	0.17244697
20	0xbe6f0414	-0.233414
21	0xbe885dee	-0.26634163
22	0xbe47836b	-0.19483726
23	0x3e88d1fd	0.26722708
24	0x3dd4f29f	0.10397839
25	0x3e04303b	0.12909023
26	0x3d2a509d	0.041580785
27	0x3e263ee6	0.16234931
28	0x3ce14a32	0.0275012
29	0xbd05a923	-0.032632004
30	0xbd9809b4	-0.07423726
31	0xbe51470a	-0.20437256
32	0xbdc864b7	-0.09784835
33	0xbc891150	-0.016731888
34	0xbe10b745	-0.14132412
35	0xbc4d72bb	-0.012539561
36	0x3e5d2edc	0.21599907
37	0x3e7dea1b	0.24796335
38	0x3ba8a083	0.0051460876
39	0x3d76886d	0.0601887
40	0x3dc4f4e7	0.09617024
41	0xbe5175d5	-0.20455106
42	0xbca22cf3	-0.019796824
43	0x3d6b61fd	0.057466496
44	0x3e4d84d9	0.20070209
45	0xbaa549f1	-0.0012610537
46	0xbe23d673	-0.15999775
47	0x3688ce37	4.0771224e-06
48	0xbdfbb820	-0.122909784
49	0x3df9d157	0.121981315
50	0x3e38253a	0.17982951
51	0xbe4a08a2	-0.19729856
52	0x3e3546ba	0.17702761
53	0xbddb74cd	-0.10715637
54	0xbe7ec8ba	-0.24881259
55	0x3dc48460	0.09595561
56	0x3e37288f	0.17886566
57	0x3da14caa	0.07875951
58	0xbd903fa4	-0.070433885
59	0x3d8003bb	0.062507115
60	0xbdd4a0dd	-0.10382245
61	0x3bd13e58	0.006385606
62	0x3dd57d43	0.104242824
63	0x3dde83ca	0.108649805
64	0x3d3dc5b8	0.046331137
65	0xbe05edd3	-0.13079004
66	0xbc7c4728	-0.015397824
67	0xbe9e0c3a	-0.30868703
68	0x3e24cd8d	0.16094036
69	0x3df17875	0.117905535
70	0x3e74a0ce	0.23889467
71	0xbe4aae87	-0.1979314
72	0xbe096ff6	-0.13421616
73	0xbe888dc1	-0.2667065
74	0xbe45112b	-0.1924483
75	0xbd46faa2	-0.048578866
76	0x3dd6a486	0.10480599
77	0xbdbecbe8	-0.09316236
78	0x3e545843	0.20736794
79	0x3ea989bc	0.33112895
80	0x3e15085d	0.14553972
81	0x3d84eeab	0.06490835
82	0xbdb761c4	-0.08954194
83	0xbc2dd7e3	-0.010610553
84	0xbe4b27a3	-0.19839339
85	0x3dfab100	0.12240791
86	0xbdb41f4f	-0.08795034
87	0xbdaf08d1	-0.085466035
88	0x3e37352e	0.1789138
89	0x3e00b945	0.12570675
90	0x3e403f4a	0.18774143
91	0xbcc9ab6c	-0.024617873
92	0x3da19cdf	0.07891249
93	0x3e82df0c	0.25560796
94	0xbe8116ba	-0.25212651
95	0x3bdd02af	0.0067447047
96	0xbdc9abee	-0.09847246
97	0x3db45c9f	0.088067286
98	0xbe832d49	-0.25620487
99	0x3d4745f0	0.048650682
100	0x3e4a2fd3	0.19744806
101	0x3e316672	0.17324236
102	0x3d8d9182	0.06912519
103	0xbe192f80	-0.14959526
104	0x3e55de42	0.20885566
105	0xbcad539a	-0.021158028
106	0xbd2cb5c8	-0.042165548
107	0xbd31ae75	-0.043379266
108	0xbd60292c	-0.054726765
109	0xbe9e1124	-0.30872452
110	0x3e77d43e	0.24202058
111	0xbe641ce7	-0.2227665
112	0x3c066ab7	0.008204154
113	0x3be9b0b9	0.0071316627
114	0x3e209807	0.15682994
115	0xbce4be4f	-0.027922777
116	0xbe5613ae	-0.20905945
117	0xbd33302f	-0.043747123
118	0x3de865f3	0.1134757
119	0x3d581aeb	0.052760046
120	0xbe989769	-0.29803017
121	0xbe0d3696	-0.13790354
122	0x3e78d39b	0.24299471
123	0xbe66adea	-0.2252728
124	0x3d4bc269	0.04974595
125	0x3de0e259	0.109806724
126	0x3dcc1df5	0.09966651
127	0xbbfdc686	-0.007744613
128	0x3e9210cc	0.2852844
129	0xbe07189a	-0.13192979
130	0x3ea1ba76	0.3158757
131	0xbc62dc00	-0.013846397
132	0x3e42d059	0.19024791
133	0xbc1310f7	-0.008976213
134	0xbe4d5aef	-0.2005422
135	0xbd82d54b	-0.06388339
136	0xbe80081d	-0.2500619
137	0xbe6d2c59	-0.23161449
138	0xbdbcf81b	-0.0922701
139	0x3ea73394	0.32656538
140	0xbdb819fc	-0.08989331
141	0x3e17903e	0.14801118
142	0x3d14a216	0.03628739
143	0xbe6b9ed1	-0.23009802
144	0x3e36cd81	0.17851831
145	0x3ded7fc2	0.115966335
146	0xbab35713	-0.0013682566
147	0xbe477d86	-0.19481477
148	0xbda702f6	-0.08154862
149	0x3e3b2204	0.18274695
150	0xbe426dc3	-0.18987183
151	0x3e2bf514	0.16792709
152	0xbdbf9771	-0.09355057
153	0x3e83eea8	0.25768018
154	0xbe77a6b0	-0.2418468
155	0xbcd1a7a1	-0.025592627
156	0xbce7b763	-0.028285688
157	0xbe8b91a8	-0.27259564
158	0x3e65287d	0.22378726
159	0x3e1a331f	0.15058564
160	0xbdb6d847	-0.089279704
161	0xbcdfa593	-0.027300632
162	0x3d2c4bb9	0.042064402
163	0x3e81f7c5	0.25384346
164	0xbd10b9fd	-0.035333622
165	0xbd23e072	-0.04000897
166	0xbd966f0c	-0.07345399
167	0x3d9f8471	0.07788933
168	0xbdff2e70	-0.12460029
169	0xbe0d1554	-0.13777667
170	0x3cfaf3fe	0.030633923
171	0x3e2aa1c4	0.16663271
172	0xbe37139a	-0.17878571
173	0xbea0d94d	-0.31415787
174	0x3d859cbf	0.065240376
175	0x3de34e4b	0.110989176
176	0xbcd0ec5c	-0.02550333
177	0x3e4a16f9	0.19735326
178	0xbe3ced0f	-0.18449806
179	0x3e753b2c	0.23948354
180	0x3e8dd6c3	0.27702913
181	0xbe013d27	-0.12620984
182	0xbe8ad8ab	-0.2711843
183	0xbe0792b9	-0.13239564
184	0x3dbb9006	0.0915833
185	0x3da1e1b3	0.07904377
186	0xbe1b3729	-0.1515776
187	0x3e8e0e4c	0.27745283
188	0x3e8729ac	0.2639898
189	0xbe867bbf	-0.26266286
190	0xbe1836d8	-0.14864671
191	0x3e20a7db	0.15689032
192	0xbc67b536	-0.014142325
193	0x3e5f949d	0.21834035
194	0x3e4c12fd	0.19929118
195	0xbe0595b4	-0.13045388
196	0xbe843b86	-0.25826663
197	0x3cfe66e6	0.031054925
198	0xbe9785d2	-0.29594284
199	0x3e379ce1	0.17930938
200	0xbe38f93b	-0.18063824
201	0xbde4f534	-0.11179581
202	0xbe49161d	-0.19637342
203	0x3d996e08	0.0749169
204	0xbdb82e78	-0.08993238
205	0xbdb19edc	-0.08672878
206	0x3e6b1946	0.2295886
207	0xbcc18452	-0.023622666
208	0x3e6f2391	0.23353411
209	0x3daf3604	0.085552245
210	0x3dc18d33	0.0945076
211	0x3e6c2fee	0.23065159
212	0xbdce6efb	-0.100797616
213	0x3cec108c	0.028816484
214	0xbe5be433	-0.2147377
215	0x3bb78255	0.0056002536
216	0xbe5d6507	-0.2162057
217	0x3e713cc0	0.2355833
218	0xbe79da4b	-0.24399678
219	0x3e301fb8	0.171996
220	0xbe36826f	-0.17823194
221	0x3e7e3598	0.24825132
222	0xbd0bc021	-0.034118775
223	0xbe8c9d4c	-0.27463758
224	0xbd51e40e	-0.05124288
225	0xbe31b146	-0.1735278
226	0x3e1334da	0.1437563
227	0x3e97d5aa	0.296552
228	0xbe53ac16	-0.20671114
229	0x3e2f35a9	0.17110313
230	0xbbc0abfb	-0.0058798767
231	0xbca34d7a	-0.019934405
232	0x3e6d1365	0.2315193
233	0xbe83931a	-0.25698167
234	0xbdc3028f	-0.095219724
235	0x3c7b552a	0.015340129
236	0xbe6a7c5c	-0.22899002
237	0x3d76644e	0.06015425
238	0x3ea70da2	0.3262759
239	0xbd2a2aad	-0.041544605
240	0x3e329276	0.17438683
241	0xbe48a54d	-0.19594307
242	0x3d652e59	0.055952404
243	0xbe31acfb	-0.17351143
244	0xbba5d0cb	-0.0050602905
245	0x3c5747a1	0.013139636
246	0x3ded80ad	0.115968086
247	0x3e7ac935	0.24490817
248	0xbd09ba29	-0.0336248
249	0xbdd84d29	-0.10561592
250	0x3e0fd07a	0.14044371
251	0xbdf627d3	-0.120193146
252	0xbe50f9f1	-0.20407845
253	0x3e904d59	0.28184012
254	0xbe2618c2	-0.16220382
255	0x3cd116be	0.02552354

readout_map.ffnn.0.bias f4 [50]
0	0x3d400e45	0.04688861
1	0xbdbec336	-0.09314577
2	0x3cdcd03f	0.026954768
3	0x3c307032	0.010768937
4	0x3ca35d75	0.019942025
5	0xbde91b43	-0.11382153
6	0xbccb9e17	-0.024855657
7	0x3cbbf5a8	0.022944286
8	0xbd8f8de3	-0.070094846
9	0xbd18c2ed	-0.03729527
10	0xbce7d89e	-0.028301533
11	0xbdbd782a	-0.09251435
12	0x3c47722e	0.012173219
13	0x3cb8b694	0.022547998
14	0xbcc75a04	-0.024334915
15	0x3cc3a321	0.023881497
16	0x3de6257a	0.11237617
17	0xbd38e00a	-0.045135535
18	0xbbcfee2d	-0.0063455314
19	0xbc14153e	-0.009038268
20	0x3d311c27	0.04323974
21	0x3ceea054	0.029129185
22	0x3cc86a13	0.024464643
23	0x3d40f8de	0.04711234
24	0xbd9cfcec	-0.076654285
25	0xbc1ffc33	-0.009764719
26	0xbde2e404	-0.11078647
27	0xbd5475a9	-0.051870022
28	0x3db4e4f7	0.08832734
29	0x3d8c6244	0.0685468
30	0xbdc6935e	-0.09696077
31	0xbc726bc0	-0.014796197
32	0xbceb3753	-0.028712904
33	0xbd59fc02	-0.05321885
34	0xbd2e0988	-0.04248956
35	0x3c2f7642	0.010709347
36	0x3dbefd5b	0.093256675
37	0x3c6114fd	0.013737914
38	0xbd853859	-0.06504888
39	0x3d9307a9	0.071791954
40	0x3c9908d6	0.018680971
41	0xbc6f0cc6	-0.014590448
42	0xbdc86244	-0.09784368
43	0xbd0a56a8	-0.033774048
44	0x3d02789e	0.03185331
45	0x3bc70a84	0.0060742516
46	0xbccdccd1	-0.025122078
47	0x3ce05fde	0.027389463
48	0xbcda7431	-0.026666733
49	0xbb086966	-0.0020814775
