fork/NJODE-master/data/saved_models/id-10/last_checkpoint/checkpt.tar (torch, 141453 bytes, 51 tensors)

ode_f.f.0.weight f4 [50, 13]
00000000: a02f 293e a5a3 043e 026c 1a3d e88b 093e
00000010: bedd 343e e2d4 39bd a446 a43e fee1 4dbe
00000020: e0b4 e93c 7bc7 353d 37ee 1fbd f87b e63d
00000030: 5b2b 45bd 20ae 513e 7dbf e03c 3298 cbbd
00000040: d5b3 d4ba dd30 04be f2fd 12be a66c 6e3d
00000050: 7e58 42bd 35bd 92be b797 ab3e 5429 4e3e
00000060: db28 9b3e e792 ef3d 5e83 c23c a1d6 87bd
00000070: 18c3 243c c8fb 6d3e 1f2b 08be 5c9b c23d
00000080: 1e38 f0bd d5d9 e13d 7bc6 283e 1396 56be
00000090: e316 46be 191e c5be 88dd 46be a6eb 373e
000000a0: ca22 65be ef4a a8bd 0748 d4bd 6ff8 9b3c
000000b0: a069 983b 8780 783d 3e41 c53c f7bd e43d
000000c0: ba9a 663e aed4 9b3e bc7c ab3d d148 e6bd
000000d0: 46e9 963d 5ca9 0a3e 7793 8c3d 7fd8 01be
000000e0: 39b0 febb cdc9 433e 711a 9dbe 2421 1b3d
000000f0: 5f15 cf3d 1ce6 5b3e 6001 12be f7f0 9abe
00000100: 0f31 36be 89fd 07be 3b81 19be a1a4 773e
00000110: ef5b e0ba 4f16 7d3d 9962 cd3d 5aeb 73bd
00000120: e69a 9f3d 4daf ebba 7a5a 8ebe 7feb d0bd
00000130: 0641 a7bd 1307 aebd fbbc b53d 718d a9bd
00000140: 6323 e4bd b25a 813a 9f9d 39be 63f7 90be
00000150: 6ec0 163d 8c1c 85be 4910 39be e8f2 7b3d
00000160: aa73 96bc a49e 77be 2557 ccbd 8841 653c
00000170: b303 273e ff04 50bc 9e7d 87bd 5a69 903e
00000180: 42f7 65bd de98 d23d b5d0 54be 4188 3ebe
00000190: 2861 edbd f19e 2cbe a4d5 9abd ffec 05be
000001a0: 5219 13be be9b 8d3d e5a0 c23d 1a45 673e
000001b0: d08b 01be 6c5a ef3c 5a7d 33be f37b 2c3e
000001c0: 14ee 1dbe 772f 73be cb99 5f3e ead6 d9be
000001d0: 1b5d 98bb 30a5 1c3e b88d 10be 01f7 473e
000001e0: 9453 903e 3526 183c de56 6c3e b846 c3bc
000001f0: 96b8 723e 39cc 873e 57f7 6abd d203 9e3e
00000200: 4aa4 3fbd 2645 c4bd 9e87 b23d 4672 493e
00000210: 7dbb 103e 89e3 dc3d 8a59 183e daee 663e
00000220: dae7 34be a84c 7e3d e7d0 a8bd c1a9 d13b
00000230: dc78 1ebe f5ed 903e 0205 6dbd 1322 e13d
00000240: 0f2b 1dbe 5787 683e 0ae3 a43e a25b debd
00000250: 652c 82bd dd52 c93d 1fc5 fbbd 62f6 d33d
00000260: 2ef9 7e3d 205a 13be 0e42 dd3e 6b97 663e
00000270: ce79 5dbe 8726 503e 8e8d acbd c4fb 793e
00000280: c22d 3b3e d6fc 4c3d b1c3 603d 8812 5e3e
00000290: 2842 72be 5112 1b3e 4795 1dbd 9526 3a3e
000002a0: 6a58 113e 1259 3abe 1594 343e 3423 d33d
000002b0: c95a 61bd fac5 8abd 7a67 033d 21dc 003e
000002c0: 579d 803e ad9d c9bd 776e 4f3e 1b02 273e
000002d0: 0705 2a3e 8d8f 7d3e c8ca 883d 762e 83bd
000002e0: 05ad 513e baab bd3d 233f c4bd ceb5 4fbe
000002f0: 7871 94bd 1804 8fbe 6f34 b3bd 9898 92be
00000300: 129b 7d3d 8a08 2dbd 1116 fbbd dbf8 d6bd
00000310: afcb 84be 7da9 c93b 1bde 29be 6d80 283e
00000320: c827 dbbd 1194 91bd 0162 22bd dc64 babb
00000330: d787 7bbe 1c62 ccbb dcd7 89bd 8eb7 05be
00000340: 0338 2fbd b337 78bd ec40 c43d d64e 413c
00000350: beee 753e a966 743e d3c9 cb3d dd20 253e
00000360: 787f b33d 397a 2bbe 6cb5 323d 7cf2 2d3e
00000370: df94 893e 067c 653b 62ef 893e 2f1f 9f3d
00000380: 4d90 513d 9b32 b6bd 77a0 76be b5b4 053e
00000390: c5b2 01bb 8e30 043e 6140 983e f75b 2abd
000003a0: 312b 263e 3986 3ebc 0d08 42be a5bd ef3d
000003b0: 29f9 2a3e 3860 373e a699 e13d 1104 0e3e
000003c0: ff6d bb3d 8f89 0b3d 9d76 433e 787d 1c3e
000003d0: 679f 17be 7c16 443e 4dac b73d dbaa 5fbe
000003e0: dff2 32bd 400c 61bd 0472 403d 5022 4e3d
000003f0: b820 79bd e3b7 07be 60a7 673d 6931 d13d
0.16522074 0.1295305 0.03770066 0.13432276 0.17662713 -0.045369036 0.32085145 -0.2010574
0.02852863 0.044379693 -0.03904554 0.11254114 -0.04813705 0.2047658 0.027435059 -0.09941138
-0.001622791 -0.12909265 -0.14354685 0.058209084 -0.047447674 -0.28659979 0.33514187 0.20132953
0.30304608 0.11697941 0.023744281 -0.06632734 0.01005628 0.23240578 -0.132977 0.09502289
-0.117294535 0.11027876 0.16481964 -0.20955686 -0.19344668 -0.38499525 -0.19420445 0.17960986
-0.22376552 -0.082174174 -0.103653006 0.01903936 0.0046512634 0.06066945 0.024078961 0.111690454
0.22519961 0.304357 0.083734006 -0.112443574 0.07368712 0.13541168 0.06864064 -0.12680243
-0.007772472 0.1911995 -0.30684236 0.037873402 0.10111498 0.21474499 -0.14258337 -0.30261967
-0.17792152 -0.1328031 -0.14990704 0.24183895 -0.0017117242 0.061788853 0.10028572 -0.05955062
0.077932164 -0.0017981321 -0.27803403 -0.10201167 -0.08166699 -0.08497443 0.08873936 -0.08278931
-0.11139562 0.0009868948 -0.18126534 -0.2831374 0.03680461 -0.25998342 -0.18072619 0.06151095
-0.0183657 -0.2418161 -0.09977559 0.013992675 0.16310005 -0.012696504 -0.066157565 0.28205377
-0.056144007 0.10283063 -0.2078274 -0.18606664 -0.11590797 -0.16857506 -0.0756028 -0.13078688
-0.14365128 0.06914471 0.095033444 0.22584954 -0.1265099 0.029217921 -0.17528287 0.16844158
-0.15422851 -0.23748575 0.21836011 -0.4254678 -0.004649771 0.15297389 -0.14116561 0.19527818
0.28188765 0.009286453 0.23080012 -0.023837432 0.23703226 0.26522997 -0.057364788 0.3086229
-0.046787538 -0.095835015 0.08717273 0.19672498 0.14134021 0.107855864 0.14877906 0.22552052
-0.1766657 0.062084824 -0.0824297 0.00639841 -0.15475792 0.28306547 -0.057866104 0.10992827
-0.15348457 0.22707878 0.32204467 -0.10857321 -0.06356124 0.09830258 -0.12293457 0.10349728
0.062249355 -0.14389849 0.43214458 0.22518699 -0.21628496 0.20327197 -0.08425437 0.24412447
0.18279174 0.05004581 0.054874126 0.21686757 -0.23658049 0.15143706 -0.03847244 0.1817878
0.14193884 -0.1819804 0.17634614 0.10309449 -0.05501822 -0.06776042 0.032081105 0.12583973
0.2512004 -0.098445274 0.20256983 0.16309397 0.1660348 0.24761792 0.066793025 -0.06405346
0.20476158 0.0926127 -0.09582355 -0.20284197 -0.07248205 -0.2793281 -0.08750235 -0.28632045
0.061915465 -0.04224447 -0.12260068 -0.10496684 -0.25936648 0.006154238 -0.16588633 0.1645524
-0.10700947 -0.071083196 -0.039644245 -0.005688293 -0.24563538 -0.0062372815 -0.06730625 -0.13058302
-0.042778026 -0.060599994 0.09582695 0.011798581 0.24016854 0.23867287 0.09950604 0.16125818
0.08764547 -0.16745843 0.04363005 0.16987032 0.26871392 0.003501655 0.26940447 0.0776962
0.051163007 -0.08896371 -0.2408465 0.13057216 -0.0019790393 0.12909147 0.29736617 -0.04159161
0.16227414 -0.011628681 -0.18948384 0.11706094 0.1669661 0.17907798 0.11015634 0.13868739
0.091518395 0.034066733 0.19088216 0.15282238 -0.14806901 0.19149202 0.08968411 -0.2184252
-0.04368865 -0.054943323 0.046983734 0.05032569 -0.06082222 -0.13253741 0.056556106 0.10214502

ode_f.f.0.bias f4 [50]
00000000: 5b37 143d f9f9 b2bd 1025 953d 5d0f db3c
00000010: 943f 9bbc a86a ad3d c9d8 13bd e22f 213d
00000020: 8f14 913b bcaa 4c3d 4ba1 133d 90a2 4d3c
00000030: d50a fa3c 103e d93b 8522 22bd 332e 6abd
00000040: 96d7 263d 8ad2 be3a 7479 43ba 0b6b 963b
00000050: bd6a 903d 2b43 923c 03f5 88bc 7d8e c9bc
00000060: 7d4c 433d 95d4 38bd cd80 aa3d 9411 eb3c
00000070: c2f9 f3bd 5254 c6bd 3bc5 cf3c 68f1 86bd
00000080: 1806 bb3d d6f7 c33c c2cb 4d3d 4640 7ebd
00000090: 9fa1 10bc a3bc ecbc eeb8 a13d 1e31 843d
000000a0: da2e e0bc 4ff7 8a3d 728d 9b3d 1ade e3bd
000000b0: 3254 19bd 603e 823d 190e a53d ca55 01be
000000c0: 7d3e 673d f5c1 6abd
0.036185604 -0.08739085 0.0728246 0.026740724 -0.018951215 0.08467609 -0.036095414 0.039352305
0.0044274996 0.049967512 0.036042493 0.012550965 0.030522743 0.006629713 -0.0395837 -0.057172965
0.040732943 0.0014558595 -0.00074567576 0.0045903972 0.07051609 0.017854294 -0.016718393 -0.024604077
0.047680367 -0.04512461 0.08325348 0.028694905 -0.11912872 -0.096840516 0.025362602 -0.06589013
0.09132022 0.023921888 0.050243147 -0.062073015 -0.008827596 -0.028898543 0.07896601 0.06454681
-0.02736609 0.067854516 0.07595338 -0.11126347 -0.03743381 0.06359553 0.080593295 -0.12630382
0.056456078 -0.057313878

ode_f.f.3.weight f4 [50, 50]
00000000: 42fd a33d 9470 fb3c 3c6b 653e 6f50 503d
00000010: 70ac bf3d 3832 98bc 4d03 253d a963 e9bd
00000020: 6770 773b 3d47 d13d 342e 37bc c554 05bd
00000030: f1a0 16be acd1 52bd 47c9 d33d bae4 863e
00000040: 363b 18be 17ed 033d 00e6 3abe f31d 213e
00000050: 07d3 04bd 113c 1839 2c1c a6bd 4daf 3c3b
00000060: b5be 453e 5dd2 453e 6fd0 5a3d c5ee aa3c
00000070: 1b18 863d 9d0e 58be 7fbf 523d d5da 12be
00000080: 2eda 963d 67a2 83bc 6bec 323b f2b7 ce3d
00000090: 52b9 9b3c 12ba 9e3d fc73 e2bd f367 f8bd
000000a0: 1203 82bd aadd 083e 29cf a63c cd62 773e
000000b0: 1faf 443e 32ce 0dbe e52f 83bd 2d03 1fbe
000000c0: 0cc2 70bc ce82 713d 3045 25be c436 57be
000000d0: 70d1 05be 3023 01bd 4949 8fbd 9ec1 8abd
000000e0: d9e3 1ebd 1ace 20be f500 ee3d 939a 5cbe
000000f0: 9354 66bc 773f 1fbc 74bd 30be f57b e3bc
00000100: c09a 9c3d d0bc cabc f1a8 f8bd 149d 07be
00000110: 4b1a 8abe 75c6 03bd a586 c93d d4c1 2fbe
00000120: 49b7 0fbe 3c37 413e d444 143d 47bb 6e3e
00000130: 9be1 07bd 96e3 bbbd 3f19 1ebe 56bb 47be
00000140: d8a5 8d3d 913f d03c 7a5c bfbd 4dde 983c
00000150: 95f3 c2bd d590 0b3e f88e b5bc d403 0b3e
00000160: 6811 aebd d756 b03d 3118 c9bd 4112 c8bc
00000170: 6e38 dc3d 9dec d3bd 9024 0e3d c9f2 383e
00000180: aef0 2d3d e097 e0bc b228 64be be37 633e
00000190: 9cb9 5d3e 1cb1 803c 207d 0ebe a16b 8a3d
000001a0: e401 863d 1d16 28be 79dc 613d 0278 12bd
000001b0: 2e85 c63d 6e0e a73d 0516 2a3e 29bc e73d
000001c0: 6c56 283e c823 883e 6b77 49be 85ad 1b3d
000001d0: dc7c 8bbd d24e 723e 33d9 97bd f130 bdbb
000001e0: dd14 c13d 2c96 583d 142f e63d 29e0 0f3d
000001f0: a8d7 8f3c ccf9 2fbe 76e0 863d 7e7b fa3d
00000200: 8b54 1ebe 0094 633d b1db 12be cc56 b6bb
00000210: f0b5 3fbe e6d1 65bd 8ff1 493d eb1b 863d
00000220: a74d e03d c976 09bd 8a37 fdbd bcc5 1b3e
00000230: 1044 33bd 43db 91bc 19fd 273e 00dd 92be
00000240: 8dc8 21be 5e88 8c3d a09c 8d3d 3b63 03be
00000250: a2ca 863e b25c 9abd e408 f33d a78a d1bd
00000260: 2b94 4abd 243c 86bd c761 e3bd fe47 0f3e
00000270: 357d 1fbd e812 153d 2ce6 d73d 8ffc 43be
00000280: 3763 8dbd c2f1 2e3d dbfd 09be a4d8 3fbe
00000290: 6d03 e63d 0ceb bb3c 9e79 bdbd 8be1 a23d
000002a0: 13d2 c5bc 75a2 163d e4fc f73d ecce 24be
000002b0: a210 663c 3d69 3d3e f627 083e 12ac 283e
000002c0: ffbb 1c3d 4f4b da3d 2205 1dbd 5692 75bb
000002d0: b4a3 223e 3370 48be 254a 5fba 9096 ae3d
000002e0: ed49 c13d 5ea2 5cbb fef5 093e 70cd 3c3c
000002f0: f904 993d c818 033e 2d38 113a 7c82 023e
00000300: b1c8 f5bb 619d 623d 3ce2 3bbd e9a9 0a3e
00000310: d682 053e a258 66bd d0e7 26be 7fac a53d
00000320: 11f9 573d ab0e 153b 1ea9 39be ef96 d73d
00000330: 2bae 6c3c f851 2f3d 7513 a13d affc ef3c
00000340: eed3 03be 80db bb3c c53d c13c ca24 853d
00000350: cd1f 083e 39d9 d13d 6b7c d3bd da90 92bd
00000360: f60b 033e 71fe 063e 3711 4f3e 73f4 aabd
00000370: dca2 be3d 5797 58bd 94f4 b53c b181 cf3c
00000380: 1e83 433d 0c34 7b3d c97d 28be 6cf8 6dbd
00000390: fce7 4f3e 7b8b 9a3d 97a4 57be 1781 3b3e
000003a0: 9066 84bc 6165 ddbd d0f1 4ebd b0f6 9fbc
000003b0: 6f8e c5bd 8f57 2ebd 09e6 c3bd 0662 7c3d
000003c0: 451a 453d e143 5fbe 3e95 32be 9dd6 333c
000003d0: decf a43d 6be1 cd3d 9d15 42be 58e3 8bbb
000003e0: 94ed 193d 7893 0ebd cc27 e8bd af5c e7bd
000003f0: 2c83 4dbd 575f 113e 3e48 0fbe 9db6 62bd
0.080072895 0.03069333 0.22404188 0.050857957 0.09359062 -0.018578634 0.04028635 -0.11395962
0.0037756206 0.10218666 -0.011180449 -0.032551546 -0.14709832 -0.05146949 0.10341125 0.2634638
-0.14866337 0.03220853 -0.182518 0.15734081 -0.032427814 0.00014518226 -0.08110842 0.002879101
0.1931103 0.19318528 0.053421434 0.020865807 0.065475665 -0.21099325 0.051452156 -0.1434129
0.07365833 -0.01606865 0.002730156 0.100936785 0.019009266 0.07750334 -0.110572785 -0.12129202
-0.06348242 0.13365808 0.020362454 0.24158783 0.19207428 -0.13848189 -0.064056195 -0.15528555
-0.014694702 0.058962636 -0.16139674 -0.21016985 -0.13068175 -0.031527698 -0.069964 -0.06775211
-0.03879151 -0.15703622 0.11621276 -0.2154334 -0.01405825 -0.009719721 -0.1725977 -0.027769068
0.07646704 -0.024748236 -0.12141598 -0.13243514 -0.26973185 -0.032171685 0.098401345 -0.17163783
-0.14034761 0.18868726 0.036198452 0.23313628 -0.03317414 -0.09174268 -0.15439318 -0.19505057
0.06916398 0.025420936 -0.093438104 0.018660689 -0.09519116 0.13629468 -0.0221629 0.13575679
-0.08499414 0.086103134 -0.09819067 -0.024422767 0.107529506 -0.10347865 0.034702837 0.18061365
0.04246586 -0.02741617 -0.22281149 0.22189233 0.21652836 0.015709452 -0.13914919 0.0675881
0.06543329 -0.16414686 0.0551419 -0.03575898 0.09693371 0.08157049 0.16609962 0.113151856
0.16439217 0.265898 -0.1967446 0.038007278 -0.068109244 0.2366288 -0.07414474 -0.0057736565
0.094278075 0.05287759 0.11239448 0.035125885 0.017558888 -0.17185134 0.06585781 0.122305855
-0.15461938 0.055561066 -0.14341618 -0.005564546 -0.18721747 -0.056108378 0.049302634 0.06548294
0.10952311 -0.033560548 -0.12364109 0.15212148 -0.04376608 -0.017804747 0.16405143 -0.28684235
-0.1579916 0.068619475 0.069146395 -0.12830822 0.26326472 -0.075372115 0.1186693 -0.10231524
-0.04945771 -0.0655444 -0.11102634 0.13992307 -0.038937766 0.036394984 0.10541949 -0.19139312
-0.06903689 0.042711027 -0.13475744 -0.18734986 0.11231122 0.022939228 -0.09251712 0.07953175
-0.024148023 0.036776025 0.12108782 -0.1609456 0.0140420515 0.18497176 0.13296494 0.1647189
0.038265225 0.10658895 -0.038334973 -0.0037471256 0.1588276 -0.1957405 -0.00085178233 0.08524811
0.09437928 -0.0033666114 0.13472745 0.0115235895 0.074716516 0.12802422 0.0005539682 0.12745088
-0.007500731 0.05532587 -0.04587005 0.13541378 0.13038191 -0.05623687 -0.16299367 0.08089542
0.052727763 0.0022744338 -0.1813092 0.10526835 0.014445822 0.04280278 0.07865039 0.029295294
-0.12873814 0.022931814 0.023589024 0.065011576 0.13293381 0.1024651 -0.10326465 -0.071565345
0.12797531 0.13182999 0.2022141 -0.08347406 0.09308407 -0.052878704 0.02221135 0.025330396
0.047732465 0.061328933 -0.16454233 -0.05809824 0.20303339 0.07546135 -0.2105888 0.18310963
-0.016162187 -0.10810352 -0.05052358 -0.01952681 -0.09646308 -0.04256397 -0.0956536 0.06161692
0.048120756 -0.21803237 -0.17439744 0.010976461 0.0804746 0.10052761 -0.18953557 -0.004269045
0.037580088 -0.034808606 -0.11335716 -0.11296975 -0.050173923 0.14196526 -0.13992402 -0.055349935

ode_f.f.3.bias f4 [50]
00000000: b4f7 8ebd b31a 88bd f4bd 6c3d 8ab3 e1bc
00000010: 7be5 ed3c 90f2 853d 35d9 c23c d460 8eba
00000020: aaf5 363d 4404 30bd 1f42 383d f964 8fbd
00000030: 0abf 773d 6b05 50bd 7de6 693d 84dc 45bd
00000040: 40ef cebc 21d1 353d 1443 3cbd 14b6 4d3d
00000050: 7c32 55bd de7f a4bd 9e6f 80bd 7679 6bbc
00000060: 73e2 b73c a25e 9e3c 1ffe a63d 2b58 a33d
00000070: 433e 663d c1ce 493d c8ff 0ebc 52eb 3b3d
00000080: 0b2d 553d c987 72bd 4cf9 5dbd 32ce 033d
00000090: c9e9 8e3c 6ecc 353d 7d08 973b b40d 263d
000000a0: 6559 5b3d 5a44 2abd 889c 9cbd ac40 97bd
000000b0: c761 1c3d 0271 1fbc 5868 9bbd aad3 5b3d
000000c0: e58c d53c 3e50 8cbd
-0.06980839 -0.066457175 0.05779834 -0.027551431 0.029040089 0.06540406 0.023785213 -0.0010862597
0.044667877 -0.042972818 0.044984933 -0.07001681 0.060484923 -0.050786417 0.057104576 -0.048306003
-0.025260568 0.044388894 -0.04596241 0.05022247 -0.0520501 -0.08032201 -0.06271289 -0.01437222
0.022446847 0.019332234 0.081539385 0.07975801 0.05621172 0.04926944 -0.008727975 0.045878716
0.05204491 -0.059211526 -0.054192826 0.032179065 0.017445462 0.044384412 0.004609166 0.040540412
0.05355205 -0.04156909 -0.076470435 -0.07385382 0.038179185 -0.009731533 -0.07588261 0.053668655
0.02606816 -0.068512425

ode_f.f.6.weight f4 [10, 50]
00000000: 4ac1 d5be 5034 c23d 9c23 283e e140 c5be
00000010: d9ff b43e 56b8 ab3e dcb3 e53e 55c5 693d
00000020: f3ee b13e 4796 ec3e ee9a d03e b498 c9be
00000030: 0d4c d03e 453f 7ebe 84ed d3bc 1770 e5bc
00000040: 34ac aabe 9076 b83e b37e 313e 9905 e33e
00000050: 6bfc c23d fdd8 f9be 8cc4 ccbd c496 40be
00000060: 49b6 8f3d 7653 463e e481 9c3e 5bdb 863e
00000070: aa56 943e fc45 ae3e 3ea2 0a3d 8f56 b63e
00000080: 13cc 2dbe f816 bfbe 266a 0abe 8f4a a23e
00000090: 7497 8a3e dad1 9c3e 8f70 463c a7d2 c43e
000000a0: 31e2 3e3e 420a 97be 1650 ac3b 5b32 dfbe
000000b0: dc44 773d 669d c83d 1c73 36be 35aa 943e
000000c0: 9316 863b e262 87be 491f 8dbe 9430 55be
000000d0: fd7f e23e f0b9 d7be bb40 5f3e a95b 743d
000000e0: 009c ca3e 0532 5abe f255 ecbd 4b5c b13e
000000f0: e48c b83d 97f2 67be 68f1 f03d 257e d1be
00000100: 3a6e 663e 3a60 0bbe a18d a7be 11cf cb3e
00000110: 0885 a03e e7d1 be3d b88c 1ebe b91a 7b3d
00000120: 681a 9fbe d721 9abe cc71 e43e 2bb3 43bd
00000130: dcee 7cbd c7f5 dc3e abd3 733e 04e8 cf3e
00000140: f945 443e b6a8 293d 4da6 ddbd b2c7 96bd
00000150: 70c8 d1bd 5a1b c13e 1542 be3e abd8 aa3e
00000160: 9d88 063e d0e3 7d3e f0b2 3b3e 38d6 6fbd
00000170: 7e6f 3abd 0732 ccbe fae2 803e 0917 613d
00000180: 456a 85be 04ef b53e 836d 01bf ca7f a3be
00000190: 6021 0ebe 0b13 c3bd 2b3e 8d3e 25b9 143d
000001a0: 01f9 bf3e f05d ed3d 915b ab3e 9215 95be
000001b0: fb84 d03e 282c 5c3d 5eef 6e3e b4de 97be
000001c0: 672a 243e e998 c0be e526 133d 4726 e4be
000001d0: 0bc0 b8be ab97 61bd b9ea 43bd 8230 d13e
000001e0: 34a9 ddbe e46d f0be bc92 85be b657 ad3d
000001f0: 208e c73e fd13 0d3f a49d f83e 774f d53e
00000200: 7d02 c13e 3178 91bd 6e54 f33e 440c 933e
00000210: f13c 7b3c 05b2 363d 5c2e bbbe 335f 9a3d
00000220: cd45 493e d817 a03e c53b a4be 71ef 693e
00000230: c1cf bc3e 0e31 d4be 72fc e2be a4b1 e0be
00000240: d629 f03e 40a9 f2be 021f 5abd 1f91 a63e
00000250: 8ef2 ddbe c36e 91be b5f6 003e 402e 67be
00000260: b4ad 1c3e f5f6 f9bc 99c2 923e 8fe7 c13d
00000270: 04dc 553e fd98 bdbe 11ca e03e cb6d e13d
00000280: 79b6 c43e e456 61be c2e2 bb3e 973d 513d
00000290: 2445 8abd f9cf 463c aafa 58be c8cb a03e
000002a0: d42a eb3e 79e6 bb3e 63f8 53be a719 dabe
000002b0: 5fe4 4dbe 8d4e d63d cf56 4b3e b2b8 b03e
000002c0: 675f 893e 578f 943c d4ad ca3e 1faa b33e
000002d0: ad1d 363e 14d5 983e 04c3 1ebe 5c72 be3d
000002e0: c6da edbe cead d73e 6c0f 943e e560 5e3e
000002f0: c78a a8be b2ab d03e 4cca ecbd 277d 8cbe
00000300: 1b9c b2be 3e91 56bd ef37 423e 37ec ddbc
00000310: c916 8bbe 2e49 e93c 345a 72be c358 f13d
00000320: daca c9be b48b 9fbe c938 c43e bbab 36bd
00000330: b208 a23e 1dae a63e 018d a13e 186c 823d
00000340: 0fdb cebd 2ad0 6c3d 8edf 38bd c697 5bbe
00000350: c08c a33e 47c9 abbe a6d2 c93e e65c 91bd
00000360: a223 17be 6bfe cf3e c1d3 333e f18c a33e
00000370: eff5 85be c473 8dbe c1d6 243e 91d2 34be
00000380: 8928 bc3d 3e06 ae3e 451c 7a3e e9b5 f13e
00000390: 57b3 8bbd 7192 c13e 28fe e13e 6677 b83e
000003a0: b3c2 9dbe 173b 18be 9e9d ccbe cfe5 84bd
000003b0: 7c0e ea3e fb2e d53e 594a 29be 0ccc 453e
000003c0: 723e e33e 2d2d c8be 1ff3 dfbe b6d5 0bbe
000003d0: 5ad2 d73e 4871 5ebe 2ae3 9bbe c48b 38bd
000003e0: 4f50 e53c 1a28 6fbe 5632 1ebe 6c54 99be
000003f0: 8fbf 433e 74fb 2a3d 2f39 c3bd d54e b03e
-0.4174903 0.09482634 0.16419834 -0.3852606 0.35351446 0.33539075 0.44863784 0.057072956
0.34752616 0.46208403 0.40743202 -0.39374316 0.40683022 -0.24828823 -0.025870092 -0.02800755
-0.33334506 0.36027956 0.17333488 0.44340208 0.09520801 -0.4879836 -0.09998426 -0.18807513
0.0701719 0.19367775 0.3056785 0.2633923 0.2897237 0.3403777 0.033846132 0.35612914
-0.1697238 -0.3732221 -0.13517055 0.3169751 0.27068675 0.30628854 0.012111797 0.38441965
0.18640973 -0.29500014 0.0052585704 -0.43593106 0.060368404 0.09795646 -0.17817348 0.29036108
0.0040920465 -0.2644263 -0.2756293 -0.20819312 0.44238272 -0.42134047 0.21802036 0.059657726
0.39572144 -0.21308143 -0.1153983 0.34640726 0.09011248 -0.22651134 0.117647946 -0.40916553
0.22502986 -0.13610926 -0.32725242 0.39806417 0.31351495 0.093173794 -0.15483367 0.06130478
-0.31074834 -0.30103943 0.4461807 -0.04777829 -0.06175123 0.43156263 0.23811214 0.406067
0.19167317 0.04142066 -0.10822735 -0.073623076 -0.102433085 0.3771618 0.37159792 0.3336843
0.13138051 0.24793935 0.18329978 -0.058553904 -0.045516483 -0.39881918 0.2517317 0.05495361
-0.2605764 0.35533917 -0.50557727 -0.31933433 -0.13879919 -0.095251165 0.27586493 0.03630938
0.37494662 0.11590183 0.33468297 -0.2911802 0.40726456 0.05375305 0.23333499 -0.29662097
0.160318 -0.3761666 0.035925765 -0.44560453 -0.36084017 -0.055076282 -0.04783127 0.4085732
-0.43293154 -0.4695884 -0.26088512 0.08463995 0.3897562 0.55108625 0.4855777 0.4166219
0.3769721 -0.07103003 0.47525352 0.28720295 0.015334354 0.044603366 -0.36558807 0.07537689
0.19655533 0.3126819 -0.3207685 0.22845246 0.36877254 -0.41443676 -0.44333225 -0.4388553
0.46906918 -0.47394753 -0.053252228 0.32532594 -0.43349117 -0.28404817 0.12594111 -0.22576237
0.15300637 -0.030513266 0.2866409 0.094679944 0.2088471 -0.37030783 0.43904164 0.110072695
0.38420466 -0.22005802 0.3669644 0.051084127 -0.06751469 0.0121345455 -0.21189371 0.31405473
0.45931113 0.36699274 -0.20700221 -0.42597696 -0.20106648 0.10464201 0.19857334 0.3451591
0.268306 0.018134756 0.39585745 0.3509073 0.17784758 0.29850066 -0.1550408 0.09299156
-0.46455973 0.4212479 0.28918016 0.2171665 -0.3291838 0.40755993 -0.115620226 -0.27439234
-0.34884724 -0.052384607 0.1896665 -0.027090175 -0.2716582 0.028477278 -0.23667222 0.11784508
-0.39412576 -0.31161273 0.38324574 -0.04459737 0.3164726 0.32554713 0.3155289 0.063682735
-0.10100376 0.05781571 -0.045135073 -0.21444616 0.3194332 -0.33552 0.39418525 -0.07097797
-0.14759687 0.40623793 0.17561246 0.31943467 -0.26164195 -0.27627385 0.16097547 -0.1765845
0.09187419 0.33989137 0.24424846 0.472091 -0.06821316 0.37807038 0.44139218 0.36028594
-0.30812606 -0.14866291 -0.39964002 -0.06489145 0.45714176 0.41637406 -0.16532268 0.19316119
0.4438358 -0.39096966 -0.43740174 -0.13655743 0.42152673 -0.21722901 -0.3044675 -0.045055166
0.027992396 -0.23355141 -0.15448889 -0.2994722 0.19116043 0.04174371 -0.09532391 0.34435144

ode_f.f.6.bias f4 [10]
00000000: 9698 fc3d 167d e63d 3379 1a3e e860 003e
00000010: 214e 143e e3f1 d63d 81c8 fe3d 8420 d93d
00000020: e724 8c3d b525 fe3d
0.12333791 0.11254327 0.15085296 0.12536967 0.14482929 0.10495355 0.12440587 0.10601905
0.06842976 0.12409536

encoder_map.ffnn.0.weight f4 [50, 1]
00000000: a426 403e 6646 cd3d 2275 763e d58d 843c
00000010: 814f a5bd b512 5fbe 711b a7bd 3c97 cc3d
00000020: 5b9c c9bc 755a 043e 7183 83be 2d97 393e
00000030: bba4 19be 673c f73d b811 96be 390d 7ebd
00000040: c011 e6bd 6072 d63c b376 ba3d 6b5c 543e
00000050: 07fb 603d e9dc 9a3d 5755 e23d 009b 8d3d
00000060: 0fae 72be de97 2b3e ddf5 12be 0b55 1ebe
00000070: 3585 903e 0b11 9cbe 2fc8 203e a762 8e3d
00000080: 8859 253e 8dd5 1fbe 6b15 86be 4514 253e
00000090: 0a37 9d3e a756 1abe 4522 4e3e 0b79 603d
000000a0: 410e 85be da60 c83d c7af 2bbe ec4c 883e
000000b0: 023e d2bd 49fa 2f3d abf0 283e abee 1abc
000000c0: b04e 483e 4f95 7c3e
0.1876474 0.10023193 0.2406812 0.016180912 -0.08071805 -0.2178448 -0.08159531 0.09989783
-0.024610689 0.12925132 -0.2568622 0.18124075 -0.15004246 0.12072068 -0.29310393 -0.06202433
-0.11233854 0.026177585 0.09104671 0.2073838 0.0549269 0.075616665 0.110514335 0.069143295
-0.2369921 0.16757151 -0.14351602 -0.15462129 0.2822663 -0.30481753 0.15701364 0.0695241
0.16147435 -0.15608807 -0.26188216 0.16121013 0.30706054 -0.15072118 0.2013026 0.054802936
-0.25987437 0.09784098 -0.16766272 0.26621187 -0.10265733 0.0429633 0.16498058 -0.009456317
0.19561267 0.24666332

encoder_map.ffnn.0.bias f4 [50]
00000000: 1426 4cbd 47a4 7d3a 854b 69bd 9e69 993d
00000010: e972 c53b c312 93bc 7b7d cabc 8191 8f3d
00000020: 2d80 183d 9b9f 5f3c 547b 0e3d d310 ee3b
00000030: 959d b9bc 7fa7 0a3d b9fb 0f3d 6a11 d33b
00000040: 4373 45bd e16b c93d 92b5 12bd 8e8d fcbc
00000050: 6c9e 253c 6def fbbd 304e 9cbd 71c3 a1bd
00000060: 657a 3dbd b38b 9dbd b180 94bc bcd4 bfbc
00000070: 9d4c 66bd 815d 703c 90c3 7c3d b110 72ba
00000080: c377 0abc 4a45 8a3c 6ff6 13bc e890 b03c
00000090: 8e3d 1d3c e896 c13d b625 a8bc e135 4abc
000000a0: 57ee 603d 9a00 5fbd 2b65 c03d 3bcc c73c
000000b0: 2327 81bd 3ad1 f9bc fc50 703b 0a2d 3c3c
000000c0: c383 0ebd 9e0f 5cbd
-0.049841 0.00096756633 -0.056956787 0.07490848 0.0060256612 -0.017953282 -0.024718037 0.070101745
0.037231613 0.013648893 0.034785584 0.007265189 -0.022658149 0.033851143 0.03515217 0.006441285
-0.048205625 0.098350294 -0.03581769 -0.030829217 0.0101085715 -0.12301526 -0.076321006 -0.078986056
-0.046259303 -0.07692661 -0.018127771 -0.02341687 -0.056225408 0.014670731 0.06170994 -0.00092340546
-0.008451405 0.016878743 -0.009030922 0.021553472 0.009597195 0.09452611 -0.020525794 -0.012341947
0.0549148 -0.054443933 0.09394296 0.024389377 -0.06306293 -0.030495275 0.0036669364 0.0114853475
-0.034793627 -0.05372583

encoder_map.ffnn.3.weight f4 [50, 50]
00000000: a1a0 063e 3212 6f3d 571c 323e 9283 7a3d
00000010: 81f2 d13b 8637 b5bd 5a24 67bd 4acb 313d
00000020: 08d8 873c efb3 7dbd 9e11 1abe 9363 e13d
00000030: 3296 00be 5548 d23d 1f34 ba3d e0bb 25bd
00000040: cd9e 82bd ee3e ce3c 8ace c23d 714f 84bd
00000050: 691f a73c 07b0 43bd ebb5 f03b fb31 bc3c
00000060: cade 38be c9f6 9a3d cf2f 973c 4b89 893d
00000070: 89d8 193e af36 c03c e2e2 583d 1dc6 81bc
00000080: c9fd aebd e4fe dabd 1727 d6bd 5017 a83c
00000090: 4035 243e da58 a2bd cf90 2d3e dd24 0b3d
000000a0: a7ad d7bc bda7 a73c ecc0 793d eaa1 2c3e
000000b0: 6393 d4bd 19ea 1ebc 317a f43c 8a6d ec3a
000000c0: 3a6c 873d 5093 c6bd bf5b 3a3d 51aa 123e
000000d0: e088 15be 989c e5bd 223c 92bd cc59 74bc
000000e0: 0d50 df3d 47a8 cb3c 504e babd 1bd3 15be
000000f0: 62a5 acbd 35a9 00be 08a6 833b c130 4fbd
00000100: fe5b 163e ad2e 68bd 3d30 1d3d 93b9 09be
00000110: bdad a7bd fc01 c8bd b460 a0bb 7bdd 033c
00000120: d22c b53c 7e05 ecbd 68a5 68bd 4393 29be
00000130: 4072 dd3d eb23 e13b 77d6 32be 6c77 9a3d
00000140: 0412 aabc 33e6 cd3d 4833 d7bd 50df 163e
00000150: 4f1c 02bd 4e96 5fbe 11b9 e93d 5f09 81bd
00000160: 8d0c a33d f61b 90ba 74ae 0fbe b8c2 0ebe
00000170: 9e0e 1ebe fcc4 0f3e ef24 67bd c3b9 3b3d
00000180: 0799 793d 612c 773c 556d b53d 5862 3fbc
00000190: aac5 57bc b8ab 68bd decb 30be 3dfd 5dbd
000001a0: 696a 643d 4580 013e 1977 383d 7204 b4bd
000001b0: 2da8 92bb 99a6 22be 01f1 f1bd 7306 b5bd
000001c0: 256d e43d 1dfa c5bd 2764 5b3e fc6e 153d
000001d0: 7efe 0c3d 7db8 5abc ff30 0abe 2748 4fbe
000001e0: 2273 33bd f6f5 87bd cebe 1bbd b8af d3bd
000001f0: 069b 2b3e d315 0cbe 2b13 723b 7d5a a93d
00000200: 6779 3ebe 009f d93b ed5d 44be d78d 05bc
00000210: f149 2ebe a170 373e 3587 613e 762d 053d
00000220: 53d1 cb3d 8707 df3d 239a d2bd a7b5 01bd
00000230: 10e8 9fbd 3808 adbb 7481 15bc f731 0dbe
00000240: 1d16 0f3e 9cb6 3abd e97c 53be 34ab 903a
00000250: 7521 34be 2d86 2a3d b976 afbb 7afc 073e
00000260: 2163 0fbe c5c3 cfbd f1bb 4a3d 8811 c0bd
00000270: 9147 443d 6668 dc3c 7fb8 c13d ca42 1b3b
00000280: 59e0 ebbd 1be1 24be da73 28be 2f42 79bc
00000290: e63d 543e aa65 80bc 1a16 77bd 9d03 2c3d
000002a0: 9a71 cbbd 33e4 d23d dab4 79bb 5cfb 28bd
000002b0: 6865 eb3c b509 33be a91d 2d3b bb31 e13d
000002c0: cfcb c23d a6b0 4fbe 99f0 843c 869a 82ba
000002d0: 7f49 e63d 9456 1cbe 52e4 23bd e6d5 1dbd
000002e0: 8563 05be a6a8 3cbe 20cc 08be 6127 bb3b
000002f0: a509 36be af74 77bd 65b6 cf3d 527d 8cbd
00000300: 3597 cbbd 12c7 b23d f0df bd3d 6105 d83d
00000310: 56c5 9dbd e29b c239 ea8f a73d d75e 4f3d
00000320: 7c55 9bbd 40c4 133d 312a 103e 9c0f 8139
00000330: 545d 82bc f0c5 ec3d b2ca 2b3b 5c81 8fbc
00000340: f199 97bb 2832 13bc 394d 8cbd 723c fcbc
00000350: c787 033d de04 f0bc 87dd dfbd da38 daba
00000360: 3641 a9bc aa51 06bc ada6 1f3d 30a3 6c3d
00000370: e5f6 6f3b c0c7 10bd efd3 40bd 8616 7c3d
00000380: a68c 683d af95 073e 2175 64bc a6a4 d03c
00000390: a8e3 003e 6291 ff3b 9720 c5b7 b0d4 003b
000003a0: 93eb e0bc d651 debd 8629 9b3d 8bf7 aebd
000003b0: f951 343d 3309 06bd 1094 f8ba 43c9 dd3a
000003c0: 470e 03bd cdfc a0bc 0cfc 823d 423d 12bd
000003d0: 0061 883c 1ee7 9e3c 2041 e5bd 3d5f ceba
000003e0: f71b 25bc 90f3 6abd cfd4 333e 3f32 b8bc
000003f0: 4e97 fb3d 0501 c13c a50d aa3c a046 21be
0.13147213 0.05836696 0.17393623 0.06116063 0.0064070825 -0.08848481 -0.056431152 0.043406762
0.016582504 -0.061939176 -0.15045783 0.110053204 -0.12557295 0.102677025 0.090919726 -0.040462375
-0.06377945 0.025176492 0.095120504 -0.06460465 0.02040072 -0.047775295 0.007345905 0.022973051
-0.18053737 0.07566602 0.018455414 0.0671564 0.15024008 0.023463575 0.052950747 -0.015841538
-0.085444994 -0.10693148 -0.104566745 0.020518929 0.16035938 -0.07927103 0.16949771 0.033970702
-0.026327921 0.020465726 0.060975 0.1685864 -0.10379674 -0.009699368 0.029843422 0.0018038016
0.066124395 -0.096960664 0.045497652 0.14322783 -0.14602995 -0.112115085 -0.07140376 -0.014913987
0.1090394 0.024860514 -0.09096968 -0.14631312 -0.08429982 -0.12564547 0.004017595 -0.050583605
0.1468353 -0.05668514 0.03837608 -0.13449697 -0.08187435 -0.097660035 -0.0048943404 0.0080484105
0.022116099 -0.11524485 -0.05679837 -0.16560082 0.10812807 0.006870737 -0.17464624 0.07542309
-0.020760544 0.10053673 -0.10507828 0.14733624 -0.03176528 -0.2183468 0.11412252 -0.063006155
0.07961378 -0.0010994661 -0.14031392 -0.13941467 -0.15435264 0.14039987 -0.056431707 0.045831453
0.060936954 0.015086264 0.08858744 -0.011681162 -0.013169685 -0.05680439 -0.17265269 -0.054196585
0.055765543 0.12646587 0.045035455 -0.087899104 -0.0044756145 -0.15883864 -0.11813546 -0.08839121
0.1115363 -0.09666846 0.21424924 0.036482796 0.03442239 -0.0133496495 -0.13495253 -0.20242368
-0.04381097 -0.0663871 -0.038023762 -0.1033625 0.16758355 -0.136802 0.0036937695 0.082692124
-0.18600999 0.0066412687 -0.19176455 -0.008151493 -0.17020394 0.17914058 0.22024234 0.032514058
0.09952035 0.108901076 -0.102833055 -0.031667378 -0.07807934 -0.0052805208 -0.009125102 -0.13788591
0.1397328 -0.045584306 -0.20653118 0.0011037351 -0.17590888 0.041631866 -0.005354729 0.13279906
-0.14002658 -0.10144762 0.04949564 -0.09378344 0.047919814 0.02690525 0.09459018 0.0023690932
-0.115174 -0.16101496 -0.16450444 -0.015213533 0.20726737 -0.015673477 -0.060323812 0.041995633
-0.09933777 0.10297432 -0.003810218 -0.04125534 0.028734878 -0.17484172 0.0026415384 0.109958135
0.0951153 -0.2028223 0.016228007 -0.0009964264 0.11244487 -0.15267402 -0.040012665 -0.038534068
-0.13026245 -0.1842371 -0.13359118 0.0057114814 -0.17777117 -0.060414013 0.10142211 -0.068598405
-0.0994095 0.08729376 0.09271228 0.10547901 -0.077036545 0.00037118705 0.08181746 0.050627556
-0.07584664 0.03607583 0.14078595 0.00024616427 -0.015913643 0.11561191 0.0026213345 -0.017517738
-0.0046265055 -0.008984126 -0.068506666 -0.030790541 0.03211191 -0.029299196 -0.10930925 -0.0016649023
-0.020660978 -0.008198181 0.038977314 0.057772815 0.0036615666 -0.035346746 -0.047077116 0.061544918
0.056774758 0.13240694 -0.013943941 0.025469135 0.12586844 0.0077993134 -2.3499406e-05 0.0019658022
-0.02745608 -0.10855453 0.07576279 -0.08543309 0.044023488 -0.032723617 -0.0018965025 0.0016920943
-0.031996038 -0.019651795 0.063957304 -0.03570295 0.016647816 0.019397315 -0.11194062 -0.0015744936
-0.010077468 -0.057361186 0.17561649 -0.022484897 0.122847185 0.023560056 0.02075846 -0.15749598

encoder_map.ffnn.3.bias f4 [50]
00000000: 0c55 053d 4e0b 8dbc df3e d4bc 54e3 a6bc
00000010: af11 8c3c 623a e13c 40c2 1a3d a5b5 af3c
00000020: a135 30bb 3694 25bc 8962 33be 6aa2 803d
00000030: ca7f 40bd 57e7 8838 f843 c5bc b023 433c
00000040: f3df bbbc 7333 4b3d 3c7e 053d 6441 a2bd
00000050: 643c 733c 7186 8d3c 44b8 8ebd 933e 45bd
00000060: 6d69 59bd 6377 cc3c 12fc 13bd e0cc 66bd
00000070: a67d 753d dbd8 a03c 7866 873d 1c24 18bd
00000080: 965c 6c3c d0c2 4e3d 79ea 893c 1348 683d
00000090: 2947 ef3d 0746 133d 8b1d e9bc eecb e43d
000000a0: ecef 2b3d 7e87 35bc 0c1c 903d daf0 f5bd
000000b0: 45a7 193d fd5c c03a 1f8c 23bd 09db 00bb
000000c0: c649 7a3d 1e2b f53c
0.03255181 -0.017217305 -0.025908886 -0.02037207 0.017098276 0.02749366 0.037782907 0.02144892
-0.0026887434 -0.010106137 -0.17518057 0.06280978 -0.04699687 6.528076e-05 -0.024080262 0.011910364
-0.022933936 0.049609613 0.03259109 -0.079226285 0.014845941 0.01727602 -0.0696874 -0.04815538
-0.053079057 0.024959272 -0.036129065 -0.056347728 0.05993428 0.019634655 0.06611341 -0.03714381
0.014426371 0.050478756 0.016835438 0.05670936 0.116834946 0.035955455 -0.02845647 0.11171709
0.041976854 -0.011079667 0.070365995 -0.120088294 0.037513036 0.001467615 -0.03992855 -0.0019661805
0.061105512 0.029927786

encoder_map.ffnn.6.weight f4 [10, 50]
00000000: 8892 8c3e eafd 6dbe bb03 b13d 1c87 463e
00000010: 3eb5 563e 160d cdbd f6df 7a3e 8cfa 4abc
00000020: 3fb3 74be 091f 8ebd 04e7 63be 0fda 8f3c
00000030: 9e62 87bb 1f34 47be 0267 3abe 6863 3a3d
00000040: d1b4 403e 0357 51be 458b 82be 5920 4e3d
00000050: 6ad7 2fbe 3647 cfbc c08d 453e eba0 46bd
00000060: 455f 9abe 98f2 e23b 07a8 9fbd 76bd 88be
00000070: 6e17 31bd b5a0 073d 5aee 883d 99c1 01be
00000080: 755d 4fbe 99fe 533d 3827 b13d 0704 3f3d
00000090: 0e80 8dbd 0dd1 173e 21ac 9c3d a612 69be
000000a0: a9c1 1c3e d544 373e 9346 a23e cdf5 8dbe
000000b0: 2842 0abd 28c6 01be bbf8 67be 68ce 423e
000000c0: 7f97 113e a94b 8dbe a60c f3bd 9493 12be
000000d0: 88d2 81be 1284 e2bd 43d5 273e 41cf e13b
000000e0: 41a9 a93c 0648 a23d ae3b 5f3d 8cff 563e
000000f0: de0a 2abb 9894 b5bd 9898 7cbe 77e7 1e3e
00000100: 5ea8 5fbd 7ae8 153e 1926 73bd 086d 783e
00000110: 60b2 92be fb9b f0bd 088c 5f3d 2dfd f73d
00000120: 9deb 90be de79 013e 1ddd a5be d6c1 f4bd
00000130: 9029 9dbd 66da cb3c 5fa2 b9bd d4a9 ba3c
00000140: 60c2 9abe 54ee dabd 4b72 c9bd 53d2 0fbc
00000150: b72f f4bd 4f56 613e 62ad 503e 4fb7 e4bc
00000160: a373 5c3e f74f 383e e275 383e fea3 04bd
00000170: f213 16bd 801d 85bd 543d 593d 54bd 27bd
00000180: c1ba 913e 1fb8 e4bb 2288 673e bdef 033e
00000190: 4fc5 f6bd a808 27be 5cfe 44be 6069 e33d
000001a0: 3d73 6bbe 3cb7 fe3d e206 103e 6670 c8bd
000001b0: c85a f63d 7993 2a3e a432 6ebd 22c6 8ebd
000001c0: a9e3 f4bd 968e 86be 1c25 b3bd cfa5 813d
000001d0: dacd 103e f206 dd3d 5b37 823e 9185 8dbe
000001e0: b6ab 5c3e 69ff 703e 722c a23d 0056 49be
000001f0: af26 9e3e 83c5 cf3c b909 5a3d 8f8e 9e3d
00000200: 9175 23bd ef88 54be d8d7 8c3e f767 823e
00000210: 81dd 633d 5661 613d b02e 723e fc62 78bc
00000220: f3ac b83c 8f81 773e c8ba 85bc a79d 0f3e
00000230: 745e 3fbd 724e 1f3e 3996 b33c fa2c 51bb
00000240: 658e 2abe ab81 18be 9f3a 33bd 5a81 44be
00000250: 1a2f 3fbd f07f f13d df3d 163d 47ed 2dbd
00000260: 6d49 013e c2e6 1f3e a673 ea3d af5f 933d
00000270: b31d 99bd 1943 d6bd 38b2 65be cf80 74be
00000280: 35bc fb3d 9e45 673e f83b 08be f147 4fbe
00000290: 9ecd 653d 23fb 0a3d 6d15 563e 3f67 003e
000002a0: c630 513e eca4 dbba 73d5 4b3e 6408 84be
000002b0: 3dd3 893d 5365 143c 4e0b 683e 9109 b7bd
000002c0: 40bb 0d3e 9233 483e 26f4 853d dc65 64be
000002d0: b906 523e d398 63be 9679 883e e137 4b3e
000002e0: 264c afbd 49a0 603e 142e 823e 882a 703e
000002f0: 9cce 2dbe db09 e83d c3e1 773e b55d c73d
00000300: 2a91 17bd fec3 f2bd 2a65 6bbc 798f d4bd
00000310: 2cab 91be 1f0b 96be 5e47 853e b9f7 883e
00000320: 3271 983c 9f19 4ebe c2c4 f8bd 8734 023e
00000330: ccb3 e0bc be27 4abd 35da 883e c345 7ebd
00000340: bf96 983d 516b f3bd 5764 713d ac97 dd3c
00000350: 4d5d 773e ecc2 10be 2915 f4bc 986d bcbd
00000360: cefd c43d 23f9 9b3d 94b8 8ebd fe74 693e
00000370: 19c2 663c c93c 4b3e 6f89 3abd 9b4e 69be
00000380: 4cc2 a8bd 65a3 273e 3ee0 5a3e 569b 143e
00000390: ba41 85be 2e84 2e3e 11ad 643e c583 64be
000003a0: c28c e3bd 94af 363e fb9a 9c3a 9a20 3d3e
000003b0: 4531 61bb 8c87 dcbd 66e4 073e 5d14 0d3e
000003c0: 0611 49bb c4fd 42be 8ea1 ba3c c4b8 ca3c
000003d0: 63e3 533e 9758 85bd 694e a73d 02f5 82bd
000003e0: 4248 1ebe a5d0 42bd 8610 f03c 25d4 5e3e
000003f0: d056 8f3b 5c5c 9dbe f5ae eabc 7656 c0bd
0.27455544 -0.23241392 0.0864329 0.19387478 0.20967576 -0.100122616 0.24499497 -0.012388837
-0.23896502 -0.06939513 -0.22256094 0.017560033 -0.004131629 -0.19453476 -0.18203357 0.045504957
0.18818976 -0.20443349 -0.2549688 0.050323818 -0.17172018 -0.02530251 0.19292355 -0.048493307
-0.3015081 0.006925892 -0.077957205 -0.26707047 -0.043235235 0.033112247 0.06686087 -0.12671508
-0.20250495 0.051756475 0.086500585 0.0466347 -0.0690919 0.1482584 0.076500185 -0.2276102
0.1530825 0.17897351 0.3169447 -0.27726594 -0.033754498 -0.12673247 -0.22653477 0.1902405
0.14217947 -0.27596787 -0.11867647 -0.14314109 -0.25355935 -0.11060347 0.16389947 0.0068911617
0.02071059 0.07923894 0.054500274 0.20995921 -0.0025946419 -0.08866233 -0.24667585 0.15517984
-0.054603927 0.14639464 -0.059362505 0.24260342 -0.28651714 -0.11748501 0.054576904 0.12108836
-0.2830476 0.12644145 -0.3239526 -0.11951034 -0.07673943 0.024884414 -0.09064173 0.022786058
-0.3022642 -0.10689989 -0.09836253 -0.008778173 -0.119231634 0.2200558 0.2037864 -0.02791944
0.21528487 0.17999254 0.18013719 -0.032382958 -0.036640115 -0.06499767 0.053037003 -0.04095204
0.28462794 -0.0069799568 0.22610524 0.12884422 -0.120493524 -0.16311896 -0.19237655 0.11104083
-0.22993179 0.12437293 0.14065126 -0.09787063 0.12029034 0.16657819 -0.058153763 -0.069713846
-0.11957485 -0.2628066 -0.087473124 0.063304536 0.14141026 0.1079234 0.25432858 -0.27640966
0.21549878 0.23534931 0.079186335 -0.19661713 0.30888888 0.025362736 0.05323193 0.07742035
-0.039907042 -0.20755361 0.27508426 0.25469944 0.055631164 0.055024467 0.23650622 -0.015160318
0.022543406 0.24170516 -0.016324416 0.14024983 -0.046720937 0.15557268 0.021922218 -0.0031917677
-0.16655882 -0.14893214 -0.043757077 -0.19189969 -0.04667578 0.1179198 0.0366801 -0.042462613
0.12625666 0.15615371 0.114478394 0.071959846 -0.07476368 -0.104620166 -0.22431266 -0.23877262
0.12291757 0.2258515 -0.13304126 -0.20242287 0.056104295 0.03393091 0.20906611 0.12539385
0.20428762 -0.0016757525 0.19905643 -0.25787652 0.06729744 0.009057361 0.22660562 -0.089373715
0.13840961 0.19550923 0.06540708 -0.22304481 0.20510377 -0.22226267 0.26655263 0.19845535
-0.08559446 0.21936144 0.2542578 0.23453724 -0.16973346 0.11330005 0.24207215 0.0973467
-0.037003674 -0.11853789 -0.014367381 -0.10378928 -0.28450906 -0.2930536 0.2603101 0.26751497
0.018608663 -0.20126961 -0.121469036 0.1271535 -0.027429484 -0.049354307 0.2672898 -0.06207825
0.074506275 -0.11885703 0.058933582 0.027049862 0.24156685 -0.14136857 -0.029795246 -0.09200591
0.09618722 0.076158784 -0.06968799 0.22798535 0.014084362 0.19847406 -0.045541223 -0.22783892
-0.08240184 0.16370924 0.21374604 0.14512381 -0.26026708 0.1704261 0.22331645 -0.22315891
-0.11110832 0.17840415 0.0011948043 0.18469468 -0.0034361642 -0.10768041 0.13270721 0.13777299
-0.0030680313 -0.19042116 0.022782113 0.024746306 0.2069221 -0.06511038 0.081692524 -0.06394388
-0.15457252 -0.04756226 0.029304754 0.21760614 0.0043743625 -0.30734527 -0.02864788 -0.09391491

encoder_map.ffnn.6.bias f4 [10]
00000000: d4b8 e63a 921a 22ba aa8b bfbc b9de f1bc
00000010: 3237 cdbc c217 c0bc a977 a2bc 5201 92bb
00000020: 7f09 bbbd d847 7fbd
0.001760269 -0.0006183769 -0.023382027 -0.029525148 -0.025050733 -0.023448829 -0.019832449 -0.004455724
-0.091326706 -0.062324375

readout_map.ffnn.0.weight f4 [50, 10]
00000000: 319c 2b3d 7262 fbbd 12f2 793d 3d1e 98be
00000010: 458b 9cbe c9b5 b6bc 33bc 3f3e 3701 923e
00000020: 82b0 3f3e 91c8 c53b 4a30 02be 2912 163e
00000030: eb0b 433e 3c1b 22be 2dd4 f6bd 2006 98be
00000040: e04b 1cbd ad05 983e d097 14be 2e3c 8b3e
00000050: b574 e53b 58fb adbd e087 c23c accd 10be
00000060: 2fc9 643e 2b0b 4cbd 9095 44be f375 903e
00000070: 30b4 4fbe 1b0b bc3c dd95 163e 0a50 86be
00000080: 8efb 21be 131d 243e 338f 313e bd2a 81be
00000090: 3d36 443e 3925 703d 737b 78be 1c00 263e
000000a0: 25ae 1ebe e816 f83d 6508 2c3d b8db efbc
000000b0: 0746 38bd 747b 993d e9b9 1abd 9679 43bd
000000c0: 5dbc 0e3e b332 e4bd 6a96 92be 9a92 273e
000000d0: 4367 99be 23f2 653e abd8 623d 513d bbbd
000000e0: dd6f ff3d 82dd 083e 8e9d 9bbc 32e5 e93c
000000f0: 67b9 123e 936c 4bbe 4416 63be da77 32bd
00000100: b7f0 623e ace6 543e 968c 12bd ccac 0fbe
00000110: 48a1 23be 60aa 2b3e 22ed bc3d 0c5e f63d
00000120: d1b7 41be b25c e93d 174c 82be f6fc e2bd
00000130: f451 e9bc 58d9 103e ec95 c33d b848 2e3e
00000140: e511 5cbc 463a 123d dc06 873e 705f b9bd
00000150: 2cab fe3d d168 8cbe ff52 373d 5833 03be
00000160: e251 023e 584e 8abd d994 1d3c 9812 35be
00000170: 7078 e4ba 8379 6abe a89f d83d 3237 f13b
00000180: 20e3 653e e8e1 3bbe 7790 953e 2c6c a9bd
00000190: 01aa 2abb 19de 3bbe ba42 093e 64a3 7cbd
000001a0: 0a3f 5bbe e872 b63e cbaf 69bd c031 16be
000001b0: 5612 eabd d0a7 733e 7e70 a2be 947d 303e
000001c0: 9102 7fbc 8f10 86be 4342 c0bc 1617 813d
000001d0: b8d8 54bd 1f49 483e 0e3e 523e fd08 423e
000001e0: ac46 94bb 4dd1 7ebd f238 c43b 2676 42be
000001f0: 8d39 7b3e f2c3 db3c 6f2c 103e 1b6a 3a3d
00000200: 72c3 4cbe 32af efbd acbc 87be 5918 493e
00000210: fca9 f6bd ff48 173e ffe3 8ebe 52fb 663e
00000220: d444 9abe 41c0 6d3e 1e42 5dbd d8bc 923e
00000230: b34e 8d3e 9953 98bc b0e0 833e 29d7 9fbd
00000240: 03c9 66be 726a 063e b3ac 2cbd 0e28 84be
00000250: 2464 4d3e 2d1d 45be 8203 0cbe 9a48 b53d
00000260: caf7 a23e 8b3d 3fbc f146 d1bd 78ec c7bd
00000270: 3ccf d7bd 610d 583b 82d3 733c e051 0cbe
00000280: de7c 66bd 8d6a 043e b0c2 4dbe f0a7 eebd
00000290: 92d4 32be 6230 d63d 849d d33d 13b7 263e
000002a0: 0997 0b3e e24f e8bd 4851 a13e 46c3 883e
000002b0: 22de 14bc 5e4c 47be c0e4 12be 8f46 b6bd
000002c0: 10dc 26bd 4167 0a3e c58f 6bbe 3f9a ddbd
000002d0: 0eb9 823e d58a 6c3d 81c3 92be b241 5bbe
000002e0: 0c91 0b3e 2959 f93d 199d 88bd 2147 dd3d
000002f0: aaa6 f7bd b5d5 293d c292 1e3e 42e4 ba3d
00000300: aa99 43bc b02f 9bbe 664d 833e d684 82be
00000310: 6788 04bd 5ca6 3d3d f027 09bd fa06 0c3e
00000320: 9600 e4bd ce45 82be 328c 1d3e 8ca5 8cbe
00000330: 5849 133e 4cbc 993d 45cf a2ba 8fa2 f83d
00000340: b4fe 26bd 4f04 543e 0843 fdbd 122e 91bd
00000350: 6059 3ebe 81a2 5f3e 265c 87bc 9c77 bfbd
00000360: 6673 a8bd 5645 26bd c84a 853d 9429 643e
00000370: 891c f73d 7846 923d b7b1 21be c1bc d1bd
00000380: bd80 7bbe 6dcd 883d 0661 d03d 63ea 0fbd
00000390: 6d90 40bc 3237 933e 4123 a6be b5a5 943d
000003a0: 33b0 793e 745c 5f3b e6ea 6e3e 90b9 8abe
000003b0: 0779 873e 967b e2bd 757d 2ebd 1d7a 8ebd
000003c0: 6836 1b3e 1166 3b3e 4fbf 72bb 5216 90bd
000003d0: d9d1 683d e27c 3b3e bb5d 45be 6bbe 48be
000003e0: b44a cb3d 7a7c 4dbe b077 5e3e b44f 493d
000003f0: 5746 79be 125b dc3d c294 5d3e 4513 ddbd
0.041897003 -0.12274636 0.061021872 -0.2971057 -0.30575004 -0.022303479 0.18724136 0.28516552
0.18719676 0.0060358723 -0.12713733 0.14655365 0.19047515 -0.15830702 -0.12052188 -0.29692173
-0.038158298 0.2969183 -0.14511037 0.2719435 0.007002438 -0.08495206 0.02374643 -0.14140958
0.2234237 -0.049815338 -0.19197679 0.28214988 -0.2028358 0.022954514 0.14705606 -0.2623294
-0.15818617 0.16026716 0.17339782 -0.2522792 0.19161315 0.05862925 -0.24265842 0.16210979
-0.15496118 0.12113744 0.042000193 -0.029279575 -0.04498866 0.0749425 -0.037774954 -0.047723375
0.13939042 -0.111424826 -0.28630382 0.16364518 -0.29961595 0.22455649 0.055382412 -0.091425546
0.12472508 0.13365749 -0.018996026 0.028551672 0.14328538 -0.19865637 -0.22176462 -0.04357133
0.22162138 0.2079112 -0.035778604 -0.1403076 -0.15979493 0.16764212 0.09224917 0.12029657
-0.18917777 0.11394633 -0.25448677 -0.11083405 -0.028481461 0.1414541 0.0955008 0.17019928
-0.013432001 0.035700105 0.2637242 -0.090514064 0.12434992 -0.2742372 0.044756886 -0.12812555
0.12726548 -0.06753224 0.009618008 -0.17682874 -0.0017430913 -0.22897916 0.10577327 0.007361316
0.22449923 -0.18347895 0.2921178 -0.08272585 -0.0026041272 -0.18346442 0.1340436 -0.06167926
-0.21410766 0.35634542 -0.057052415 -0.14667416 -0.114292786 0.23794484 -0.3172645 0.17235404
-0.015564577 -0.26184508 -0.023469096 0.063032314 -0.05196449 0.19559143 0.20531484 0.18948741
-0.0045250263 -0.062211324 0.0059882337 -0.18990383 0.24533673 0.026826832 0.1407945 0.045511346
-0.19996431 -0.11703338 -0.26511133 0.19638194 -0.12044141 0.1477394 -0.27908322 0.22556809
-0.30130637 0.2321787 -0.054018132 0.286597 0.27599105 -0.01859455 0.2575736 -0.078047104
-0.22537617 0.13126543 -0.042156886 -0.2581181 0.20057732 -0.19249411 -0.13673213 0.08851738
0.31829673 -0.011672388 -0.10218609 -0.097619 -0.10537574 0.0032966959 0.01488197 -0.13703108
-0.056271426 0.12931271 -0.20093799 -0.11653125 -0.17463902 0.10458447 0.10332778 0.16280775
0.13631834 -0.113433614 0.31507325 0.26711482 -0.009086164 -0.19462726 -0.14345074 -0.08900177
-0.04073721 0.1351595 -0.23004062 -0.10820436 0.2553181 0.057749588 -0.28664783 -0.2141178
0.1362955 0.12175209 -0.06670589 0.108045824 -0.120923355 0.041463573 0.15485671 0.09125568
-0.011938492 -0.3030982 0.25644988 -0.2549197 -0.032356646 0.04630123 -0.033485353 0.13674536
-0.11132924 -0.25443882 0.15385512 -0.27470052 0.14383447 0.07506618 -0.001242139 0.121403806
-0.040770248 0.20704769 -0.12366301 -0.07088865 -0.18588781 0.21839334 -0.016523432 -0.093489856
-0.082251355 -0.040593468 0.06508404 0.22281486 0.120659895 0.07142347 -0.15790449 -0.1024108
-0.24560829 0.06679807 0.10174756 -0.035135638 -0.011753184 0.28753048 -0.32448772 0.072581686
0.24383621 0.0034082206 0.23331794 -0.27094698 0.26459524 -0.110587284 -0.042600114 -0.06956885
0.15157473 0.18300654 -0.0037040298 -0.07035507 0.05684075 0.18309358 -0.19274037 -0.19603889
0.09926358 -0.20067015 0.21725345 0.049148276 -0.24343239 0.10759558 0.21638778 -0.10794691

readout_map.ffnn.0.bias f4 [50]
00000000: 0f7a 6abb 600a 0ebc 7f74 733d e5c4 3b3c
00000010: b10d 4d3d b31c 2abd f8fb 953d efda bbbd
00000020: 6895 72bb a3cd 733d fd17 863d f17d 96bd
00000030: b5d0 613d 20f4 14bd 86fe b0bc 8011 0e3e
00000040: 016c 1b3d 61f7 0d3d 8dd3 31bd 1fa3 c5bc
00000050: 2b8d a5bc b302 0e3e 8156 99bd a3ff 82bc
00000060: 04ee 47bc 8f28 69bd 0ffb 013d 18fe 42bd
00000070: 7799 a9bd 5be3 00bc e56e 053d 9f27 27bd
00000080: 12f7 63bd 61ec 61bd f898 883c 4448 46bd
00000090: 273a 36bd 8384 af3d 5d58 75bd d9d2 1a3d
000000a0: 54e7 42bd 1c5d ee3c 18ad ae3c 0746 063e
000000b0: 5712 acbd 0a6a 363d 735c 0dbb f144 7a3d
000000c0: cf27 c73d e319 4c3c
-0.003577832 -0.008669466 0.05943727 0.0114605175 0.050061885 -0.041531276 0.0732345 -0.09172618
-0.0037015323 0.059522282 0.06547544 -0.0734824 0.05513068 -0.03636563 -0.021605741 0.13873863
0.037944797 0.034659747 -0.04341464 -0.024125634 -0.020208916 0.13868217 -0.074872024 -0.015991038
-0.012202743 -0.056923445 0.03173357 -0.047605604 -0.08281224 -0.007866706 0.03257646 -0.04080927
-0.055655546 -0.05515707 0.016674504 -0.04840876 -0.044489052 0.085701965 -0.059898723 0.037798736
-0.047583893 0.029097132 0.021322772 0.13112651 -0.084019355 0.04453472 -0.0021569997 0.061100904
0.0972439 0.012457344
