fork/NJODE-master/data/saved_models/id-11/last_checkpoint/checkpt.tar (torch, 141453 bytes, 51 tensors)

ode_f.f.0.weight f4 [50, 13]
00000000: 6edf 113e 2e53 adbe 84ca 9d3d 2efe 103e
00000010: 0335 fbbb 79c7 67be e7d8 143e e36d d93d
00000020: 3c81 c13c bcde 44be 8f23 ba3d 4e2b b5be
00000030: f80f c5be 2747 4a3d 54c6 243e a233 d5bc
00000040: e306 183e 4843 34be 0a9f 1e3e ae76 5e3e
00000050: 7483 0ebe dbdf 8f3c 3747 1cbe d4c3 593e
00000060: 2f7f 4b3e cc6e c73e 30ab 2c3e 4647 0dbd
00000070: 3130 b83d b182 033e f6ba cb3d d9c6 7a3e
00000080: 17e6 223d 2956 223e 1a9f 593c 58e0 44bd
00000090: 373c ed3d 8cfc 753d 1b3b f83d f430 81bb
000000a0: 25c0 4dbe 1949 553e 002c 5fbe 7c1f 15be
000000b0: 9bff a73d 70a4 3a3e 4f0a 7bbe e502 f2bd
000000c0: 341b f3bc 4aff dcbd 7fdf f5bd 769b a1be
000000d0: 95e9 eabd 69ba 403d 0c0e d4bd 7be2 dfbd
000000e0: 430b cbbd 89d5 a3bd d7ad 98bd 306f e7bd
000000f0: 421b 65bd 30a7 62bd 4afc 86bd 7371 91bc
00000100: a3ca c73c c8fb 7c3e c0a2 863e 0a63 723d
00000110: af0c 2c3e 08d6 8bbe f38a 3f3e dc40 203e
00000120: 7f1e 8fbe 7c0f 6abd f4ad a3be 0fc9 43be
00000130: 3158 a53e 19f5 ea3e db5f 8abc c57d 5ebc
00000140: a77c 253e 0f1b 973c 3297 69bd 8a9e 54be
00000150: b6c6 33be f695 613d 80d8 0f3e a6fd 193e
00000160: d9f1 ebbd e518 b03e 1f07 453e 87db 943e
00000170: d8cb 4e3e eaa7 633e cba1 923e 9ad6 143d
00000180: 2cf7 28be 8aeb a9bd 6afc 1e3e 1e58 a8bc
00000190: 7a53 743d acad e83d 58c2 e03b 1945 b83d
000001a0: 6387 03bd 1555 1b3e 9ed5 d4bc 3731 1f3e
000001b0: 95a5 75bd 4d51 903d 9c4d 263e 56ca 0abe
000001c0: 90eb e43d b6b1 723d 458b 0b3e 2097 7c3b
000001d0: 0eae 8e3d 5a8e 883c 9540 1d3e 5bd7 f7bd
000001e0: 9715 48bd 38a9 933d cb24 fa3d db07 e63d
000001f0: d0be 153d f9b8 733e 7c78 9d3e 272d 783e
00000200: 1a6f 51bd b1b1 093d 30bd 293e 8064 483d
00000210: cc8c b23d bddd 51be 6e5b 3a3e cdda 8f3e
00000220: 8599 aa3d 551e 123e 13b2 48be aa02 543e
00000230: d39f 933b ae8c 393e 4c82 373d 4170 1a3e
00000240: 3552 82bd 449e 95bd 3f4c 113e a817 6e3e
00000250: d5ff 103e 18dc 393e 1c64 793e 82a6 05bd
00000260: 3331 c63d 00f0 06bd bb45 02bc 5b15 f23d
00000270: 8003 e33d 7783 a4ba 58fa 5e3e 869b 5bbc
00000280: b319 06be ea65 3cbe 85f4 0c3d f9d6 afba
00000290: 234f 173c c6a8 483e 2cc4 bfbd 9ba1 19bf
000002a0: 3b5e 5abe 9a2e 403c bc89 313e 384e 873d
000002b0: 9a8a a83d 6e40 253e 877f e0bc 60ea a43d
000002c0: 0649 6d3e 6a6f 6abc 03cf 6d3e 1bb7 3d3e
000002d0: 3df3 af3b 9e6f 653d d9a6 17be 6c7f 03bc
000002e0: 2a75 be3d 707e cd39 ab9f 22be 1375 5cbe
000002f0: 7c24 24be 6b10 053e a518 1e3d 8db5 973d
00000300: 2581 a83d 16cd 8fbe bd65 a5be 4c9d 833e
00000310: 3692 873e 11db a4bd 5335 64be ad0a ffbd
00000320: 3587 823d d685 6f3d 0a7d 46be 9cc8 083d
00000330: ee1b 16be 5075 4cbe 7a19 083f aa37 c83e
00000340: 5dee b43b c09d 043e 0c41 5f3e fd2f 3bbe
00000350: d5b9 fbbd 2cfa 6cbe 6f88 58be 3263 2b3e
00000360: c9ef 43be e476 6cbe 14ce 3e3e e2f1 54be
00000370: 22ae eebd 6eec 373e 999c a7be 2509 873e
00000380: 7db4 4abe ff90 c33c 058a d8bd f995 173e
00000390: 600e 403d 30e2 4c3c 6b85 a8bd d526 6e3e
000003a0: 8ae0 1cbf 1933 97be 456a 123e 377b 573e
000003b0: 0382 c4bd 5a9b 71be 4874 d23c 4f1e 513e
000003c0: 9f7a dcbd 8f9d 59bc 5ec7 42be bba0 5cbe
000003d0: cb80 293e 7528 103f d4f7 973e 09ca e2bd
000003e0: 3de2 973e 3588 f23d 0690 8ebc 3b71 49bd
000003f0: e6de 383e 05f8 06be 62f5 37be 3ca8 e6bd
0.14245388 -0.33852524 0.077046424 0.14159462 -0.0076662316 -0.22634687 0.14535867 0.10616662
0.023621194 -0.19225591 0.090888135 -0.353846 -0.38488746 0.049384262 0.16091281 -0.026025597
0.14846377 -0.17603791 0.15490356 0.2172496 -0.13917333 0.017562797 -0.15261541 0.21266109
0.19872735 0.3895172 0.16862178 -0.0344918 0.08993567 0.12842824 0.09947769 0.24489917
0.039770212 0.1585318 0.013282562 -0.048065513 0.11583751 0.0600553 0.121206485 -0.0039426032
-0.20092829 0.20828666 -0.21794128 -0.14562792 0.0820305 0.1822679 -0.24515651 -0.11816958
-0.029676057 -0.1079088 -0.12005519 -0.3156392 -0.114703335 0.047052775 -0.10354242 -0.109318696
-0.099142574 -0.07999713 -0.07455032 -0.11300504 -0.0559342 -0.055335224 -0.06591089 -0.017754292
0.024388617 0.24705422 0.26296043 0.059176482 0.16801713 -0.2731173 0.18705349 0.15649742
-0.27952954 -0.057143673 -0.31968653 -0.19119667 0.32293847 0.4589012 -0.01689141 -0.0135797905
0.16160832 0.01844552 -0.057028957 -0.20763603 -0.17556271 0.055074655 0.14047432 0.15038165
-0.11520738 0.34393993 0.19240998 0.29073736 0.20194948 0.22232023 0.28639063 0.036337472
-0.16500539 -0.08296879 0.15525976 -0.02054983 0.059649922 0.1136125 0.006859105 0.08997554
-0.032111537 0.15169175 -0.025980767 0.15546118 -0.059972364 0.07046757 0.16240543 -0.13553748
0.111777425 0.05925151 0.13627346 0.0038542226 0.06966792 0.016669441 0.15356667 -0.12101623
-0.048848715 0.0721001 0.12214049 0.11231967 0.036558926 0.2380103 0.30755985 0.24235974
-0.051131345 0.033616725 0.16576076 0.04892397 0.08718261 -0.20494743 0.1819894 0.2809662
0.08330063 0.14269383 -0.1959918 0.20704141 0.0045051365 0.18120071 0.044801995 0.15081884
-0.06363336 -0.073055774 0.14189242 0.23251212 0.14160092 0.18150365 0.24354595 -0.032629497
0.09677353 -0.032943726 -0.007951195 0.118204795 0.11084652 -0.0012551387 0.21775186 -0.013403779
-0.13095741 -0.18398252 0.03441288 -0.0013415507 0.009235176 0.19595632 -0.09363589 -0.60012215
-0.21325009 0.011729861 0.17337698 0.06606716 0.08229561 0.16137859 -0.02740456 0.08052516
0.23172387 -0.01430879 0.232235 0.1852688 0.0053695724 0.05601465 -0.14809741 -0.008025985
0.09299691 0.0003919485 -0.15881221 -0.21529035 -0.16029543 0.12994544 0.03859772 0.07407675
0.08227757 -0.28086156 -0.32304183 0.25705945 0.26478738 -0.08049596 -0.22285967 -0.12453208
0.06373445 0.058477245 -0.19383636 0.03339444 -0.14659092 -0.19966626 0.53163874 0.39104968
0.005521579 0.12950802 0.21802157 -0.18280025 -0.12291304 -0.23142308 -0.21145795 0.16737059
-0.1913444 -0.23092228 0.186333 -0.20795396 -0.11654307 0.17961285 -0.32736662 0.26374164
-0.19795413 0.02387285 -0.105732 0.14803304 0.04688871 0.012505099 -0.082285725 0.23257
-0.6128012 -0.29531172 0.14298351 0.21043096 -0.0959511 -0.23594418 0.025690213 0.20421718
-0.107655756 -0.013282194 -0.19021365 -0.21545689 0.16553037 0.5631173 0.29681265 -0.110736914
0.29664794 0.11842386 -0.01740266 -0.04918025 0.18053779 -0.1318055 -0.179647 -0.11262557

ode_f.f.0.bias f4 [50]
00000000: ec29 813d fd46 6fbc 7cc5 7f3d 72cc b4bc
00000010: e1d0 a5bd f901 89bd 647a afbd a2be 3b3d
00000020: c058 a53c af87 b73d d8cd 183c dd6f 8e3d
00000030: 9cd2 143e dd42 ac3d d254 013d f25b 783a
00000040: f48f 7bbc 8fcf ba3d 1681 e6bd 3fc9 55bc
00000050: 3c68 2dbd 0576 8fbd 554b c73d f1de 7d3d
00000060: 06d4 933c 8e16 413d e0eb a43d eddf d8bb
00000070: 6aaf a93d c20c 0abd 0b0d 85bd 61c2 9a3c
00000080: de70 0cbd fe5e d73d 50c5 1ebd d7c8 70bd
00000090: ca3d 74bd 0124 143d 682c 823c 86bb 2a3d
000000a0: 7468 dfbd d586 b73c 52a3 6b3b e9ad 863c
000000b0: cc5a dcbd 9bb0 5b3c ab50 17bd 7216 3e3d
000000c0: 675c d43d 7183 94bd
0.06306824 -0.014604327 0.062444195 -0.022070143 -0.08096481 -0.066898294 -0.08568266 0.0458361
0.02018392 0.089614265 0.009326421 0.0695493 0.14533466 0.08411191 0.03157503 0.000947415
-0.015354145 0.0912162 -0.1125509 -0.013048469 -0.042335734 -0.07004932 0.09731165 0.06198019
0.018045437 0.04714065 0.08052802 -0.006618491 0.08285411 -0.033703573 -0.064966284 0.018891515
-0.034287326 0.10516165 -0.03876239 -0.058785286 -0.05962924 0.03616715 0.015890315 0.041682743
-0.10908595 0.02240316 0.00359555 0.016440349 -0.10759506 0.013408805 -0.036942165 0.046408124
0.10369187 -0.07251633

ode_f.f.3.weight f4 [50, 50]
00000000: db8c b73c 1516 26be ffd3 42bd 4e47 c53d
00000010: 3943 c73d 52ed eebc 47ee 373c 0c3b 05be
00000020: 6757 b33b 6883 1d3c fb9d 2cbd b3f1 09bc
00000030: 552d 02bc 8442 d0bd c490 7e3d 38b7 54bd
00000040: 4b80 b13d 1f21 c73c a558 8fbd 1ec2 68bc
00000050: e381 dfbb 8e7e b43b 8be5 853d 6690 fb3c
00000060: 55e9 033c acc7 b3bc 6e88 1c3c ed09 1cbd
00000070: a5a5 553d b18f 313e cc10 1e3e b426 93bd
00000080: 7f65 d8bd f375 d93c 2479 06bd 5930 563d
00000090: b04b 1d3e e2a9 773d c950 b9bc 01fc 33be
000000a0: ef60 4abd 9c51 c7bd 2914 ca3b 5ecd 6f3c
000000b0: 8384 bebc 67d2 0a3c e06b acbc 1b4d 07be
000000c0: f04a d0bc b2c5 953d 89a3 4dbe 4653 943d
000000d0: 87a1 783d 91cd dfbd 5fe6 bcbc 97f8 4a3e
000000e0: bf79 18bc 33f3 d6bd 66c7 4b3d 7c01 8dbd
000000f0: 1886 893d c016 2fbd d8e3 f7bd dce0 dfbd
00000100: ba77 a9bd 2106 2b3e 9c23 b5bb ac36 5abe
00000110: 2e37 4a3e 46ff 583e 4298 9d3d aa60 c83d
00000120: 13b6 2abe 4623 1a3d 6538 edbd 69bb 573d
00000130: c578 83bd 5abb f93d 7c52 7dbe c35e fabc
00000140: 7f3f 003b a494 a63d 80ea a63d c0b6 bdbc
00000150: d0ff 873d 5980 a13d e045 2dbc 0c7a f6bd
00000160: 1717 b8bd a99b 00be df8d 3a3b bf66 4e3d
00000170: 8c55 89bd a152 a13c 4bdc f43d e85e 5dbe
00000180: a085 713d e3bb fe3b 4212 42be bdee 4f3d
00000190: 356e 373c 93f1 123d 3952 693e 4ea3 29be
000001a0: 96b5 843d 81e4 1f3d c5bc ccbc d9d3 553e
000001b0: 641a e13d 8273 723d bed8 933c 804e 69bc
000001c0: 5a5a 81bd c78b f13c 9c02 bebb 4065 ad3d
000001d0: 0897 8fbd 51a4 43bc 8367 f43d bae9 863d
000001e0: 29ab 1dbd ed5a 58bd 4fa3 333d 1e4d b2bd
000001f0: c1ea 3ebe 098f 123e 3c41 5d3c c679 5a3d
00000200: 6dda 49be 6e33 69be a3e0 36bd 84c6 683e
00000210: 9a61 123e 57e0 b8bc b2bd 383d 46ad c9bc
00000220: fdc4 c13d 8b26 86bd 42cb 0abc 4e59 3f3e
00000230: 4bfb 413e 071c 8ebd c43d bf3c c5c7 803d
00000240: 0f68 113d be71 cabd 3a4c 3e3d 05ea 493d
00000250: a9f3 783d 2358 56bd 6840 87bc 2ea5 1a3e
00000260: 6cc5 043e d940 06be 8da8 e5bd 5032 22bc
00000270: d290 63bc fa6f b83d f3e1 803d 1275 223e
00000280: 9287 09bd fe9e 813c e314 453d 3a1c 253e
00000290: a998 f7bd 6c1b 2abd 63d3 58bd f28b 80bc
000002a0: ee4d 24bc b11e b7bc b911 533c d1f1 f3bc
000002b0: fe26 813c 06e6 323e d7f2 19bd e4f7 1f3e
000002c0: 2aff 27bd 27fa 503d e9a4 28bd 1bec b5bd
000002d0: 2b9b 8cbd c7b5 ab3d d483 913d 6447 29bd
000002e0: a1b4 dd3c fe5a 57bd 9451 103d 7e13 3dbd
000002f0: 5f27 6e3c fa5e 433e 9c57 a3bc 43c8 9b3d
00000300: 7a65 fa3b d1d3 12bd 6c1c 963b eccb 573d
00000310: ca4e 6a3b b387 fd3d 139b 95bd 5603 92bd
00000320: 0c0e 0ebd ebc7 693c 17cd ed3d b9b6 6bbd
00000330: 9ad9 23be af8a f6bc cf9d 043d 833f e43d
00000340: bad0 88bd 515f e53d 6903 b43d 12cb 943d
00000350: aa43 9a3d ff6c b23d 9de2 08be 3b6c abbd
00000360: bf9f 8fbd 6e5c 60bb 3916 563d f1af 893d
00000370: 664e 483b 0302 28bd d593 9cbd 6217 e13d
00000380: 37b7 973c ec6d 8a3d df9c 3b3d 981d 733d
00000390: 6dc8 2cbd 3f21 c5bd 8b2c 2bbd f214 8e3d
000003a0: 1d06 b33d bccc ad3d a3aa ef3c 03c5 c2bc
000003b0: 4041 59bd 284c 32be 90ed 2cbd 2497 413e
000003c0: 369e 183e ae37 853d 54e8 20be 1d12 e13b
000003d0: 3aff a73d c624 a6bb 5e76 da3c 6cc7 ad3d
000003e0: e869 e63c 7e4d 84bd 7f85 67bd e604 1c3e
000003f0: 6716 3e3e 19f6 24be 1b8d 79bd 6544 fcbc
0.022406032 -0.16219361 -0.047565456 0.09632741 0.097296186 -0.029165898 0.011226243 -0.13010806
0.0054730657 0.009613849 -0.04214285 -0.008419442 -0.007945378 -0.10168937 0.062149778 -0.051932544
0.08667048 0.024307786 -0.069993295 -0.014206437 -0.0068209036 0.0055082506 0.065379225 0.030708503
0.008051236 -0.021945797 0.009554012 -0.038095403 0.052159924 0.1733997 0.15436095 -0.071851164
-0.10566234 0.0265455 -0.032830372 0.0522922 0.15360904 0.060464747 -0.02262153 -0.175766
-0.04940885 -0.09732363 0.006166954 0.014636366 -0.023256546 0.008473015 -0.021047533 -0.13213007
-0.025426358 0.07313098 -0.20081915 0.07242446 0.06070092 -0.109278806 -0.023059068 0.19821392
-0.00930637 -0.10495605 0.049750708 -0.06885049 0.067150295 -0.042746305 -0.121040046 -0.109315604
-0.08274789 0.16701557 -0.0055279266 -0.21309918 0.19747612 0.21191129 0.076950565 0.09784062
-0.16671018 0.037631296 -0.11583022 0.052668963 -0.06419519 0.121939376 -0.24738497 -0.030562764
0.0019569097 0.0813382 0.08150196 -0.023158431 0.06640589 0.078858085 -0.0105757415 -0.12034997
-0.08988779 -0.1255938 0.002846591 0.050390955 -0.0670577 0.01969272 0.1195608 -0.21618235
0.058965325 0.0077738627 -0.18952277 0.050764788 0.011195709 0.035874914 0.22785272 -0.16566202
0.06479947 0.039036278 -0.024992356 0.20881595 0.10991362 0.059192188 0.018047687 -0.014239907
-0.06316061 0.029485596 -0.005798651 0.084665775 -0.07011229 -0.011941032 0.11933806 0.065875486
-0.03849331 -0.05282109 0.043856915 -0.08706115 -0.18644239 0.14312376 0.013504323 0.05333879
-0.19712229 -0.22773525 -0.044647824 0.22731978 0.14295045 -0.022567911 0.045102783 -0.024618756
0.09461401 -0.0655032 -0.008471312 0.18686411 0.18943517 -0.069389395 0.023344882 0.06288103
0.03549963 -0.09884976 0.046459414 0.049295444 0.060779247 -0.052330147 -0.016510203 0.15102074
0.12965935 -0.13110675 -0.11213789 -0.009899691 -0.013889508 0.09005733 0.062930964 0.15864971
-0.033576556 0.015822884 0.048115622 0.16124049 -0.120896645 -0.041530058 -0.05293597 -0.015691731
-0.0100283455 -0.022353502 0.012882643 -0.029778393 0.015765663 0.1747056 -0.037585106 0.15621907
-0.041014828 0.051019814 -0.041172896 -0.08882924 -0.068655334 0.08384281 0.07105222 -0.04132785
0.02706367 -0.05257701 0.03523405 -0.046161167 0.014535754 0.190792 -0.019939236 0.07606556
0.0076414915 -0.035846535 0.004581025 0.05268471 0.0035752528 0.12379398 -0.07304969 -0.071295425
-0.034681365 0.014268856 0.116113834 -0.057547305 -0.16000977 -0.030095426 0.03237706 0.111449264
-0.066804364 0.11199821 0.08789713 0.07265295 0.07532437 0.087121956 -0.13367696 -0.08370253
-0.07012891 -0.003423478 0.052267287 0.06723011 0.0030564307 -0.041017544 -0.07645384 0.10990788
0.01851998 0.06759247 0.0458039 0.059354395 -0.04218333 -0.09625482 -0.041790526 0.06937589
0.087414004 0.084863156 0.02925617 -0.023775583 -0.053040743 -0.17411864 -0.042218745 0.18905312
0.14904103 0.06504761 -0.15713626 0.0068686143 0.082029775 -0.0050703017 0.02666777 0.08485302
0.028126672 -0.06460093 -0.056523796 0.15236244 0.18563233 -0.16109504 -0.060925584 -0.030794332

ode_f.f.3.bias f4 [50]
00000000: f3e0 adbd f7ee 4bbd 6785 593d a3ae a33d
00000010: bb7e 713d 8998 903d f2eb 993d 7e97 b3bd
00000020: e77f 8b3d 40cf a23d ca2b 843d 3d82 94bc
00000030: cbc5 9b3d 4f45 a3bd d171 9f3b be64 8fbd
00000040: 4579 92bd 8ed7 af3c bf53 3a3d 5642 3d3d
00000050: e198 a9bd 0340 a53d 31be 693d 9705 89bd
00000060: a917 7bbd a15c 24bd 7668 7d3d 4b44 dabc
00000070: cbb9 72bb d906 753d 5eec 9f3d c14d 933d
00000080: dad3 58bd 12db 573d fd2e a93d 1d2f 453c
00000090: 608b ad3d bf1b 893d 2ff4 853d bb5f a4bd
000000a0: 2c74 b3bd cb89 943d ca90 293d 5396 34bd
000000b0: e575 833d f9bb a23d 13a4 793d 6592 00bb
000000c0: f719 aa3b ea07 be3d
-0.08490171 -0.04978844 0.053105738 0.07992294 0.05895875 0.07060344 0.07515706 -0.08769129
0.06811505 0.07949686 0.064536646 -0.018128509 0.076060854 -0.07972204 0.004865863 -0.07001637
-0.071520366 0.02146509 0.045490023 0.04620584 -0.082811125 0.0806885 0.057066146 -0.06690519
-0.06130186 -0.0401274 0.0618672 -0.026643893 -0.003703701 0.059820984 0.07808755 0.07192565
-0.052936412 0.052699156 0.082609154 0.012035158 0.08473849 0.06694745 0.06540715 -0.08026072
-0.087623924 0.072528444 0.041397847 -0.044088673 0.06418971 0.07946009 0.06094749 -0.0019618508
0.0051910835 0.09278853

ode_f.f.6.weight f4 [10, 50]
00000000: 9bee 53be 53f2 5a3e bcf9 b03e f5c7 ab3e
00000010: 392f c23d f4aa 793e 9ced 753d 90b4 c9be
00000020: bdcc 933e 6b2a c93e 81f7 a43c 5c65 483d
00000030: 3977 a93e cdf4 133d fc50 94be f5c2 85be
00000040: 2a0c 92be f9ac 0cbd ebd5 1dbe 5a39 d3be
00000050: 8e76 c0be 628c 973d dc3e b33c 22ca 5fbe
00000060: 6638 9c3c 70d5 b3bd c00a 8e3e 49ba d83d
00000070: dc4a 5c3d 9d52 dc3d 4f05 83bb 6b3a 123e
00000080: 2984 61bd 8258 743c 428b ab3e 4925 7abe
00000090: 24a3 013e e4e6 bb3e 79b4 61be cc6f 64be
000000a0: 41fe 8ebc 1fdc 4fbc f976 b1be b815 d13d
000000b0: b22c 8c3e c636 343e 3f07 ae3e f67c 06be
000000c0: 0761 25be f85c 863e c461 a6be 72fc b73e
000000d0: fcfe be3e d347 033e 6d7c 6a3d 205b d53e
000000e0: df45 abbc 271f 8abe dd19 893e c0d1 bf3e
000000f0: 188c 2f3e 76bf d5bd 63af 683e e798 c0be
00000100: 2684 debe f2b9 d63c cf26 8fbd 20a1 ed3c
00000110: dcb7 1fbe 62b9 6fbe d23f d3be f562 213e
00000120: 5044 843e 95bc 94be b007 80be b0d0 fc3e
00000130: 7951 1a3e 3a51 1bbd 1190 5e3e f35d bf3e
00000140: ca77 713e c6a2 3c3e 9b41 cbbe 036c 913e
00000150: 18da 8d3e a7cd bbbe b2fc a43e 3b67 b63e
00000160: 6a94 adbe b72d c3be 2aa7 57be 7f46 b63e
00000170: 74c4 27be 34bc 393d 2c88 c83e ecf1 cd3e
00000180: 78be 023e fd6d 8fbe 5ad9 a6be 95f7 a23e
00000190: 15c7 eabd 74a3 213c 5260 133e 9bde 923d
000001a0: a4c5 8c3e a291 da3e da74 803e ca92 1fbe
000001b0: e3d3 783e 795d 223e fc43 ac3e b15b fbbd
000001c0: c9b9 d03d 5383 c9be c922 d9be 7057 a5be
000001d0: 855c 89bd 4ffa c93d 2770 63be 6e5d 0abf
000001e0: d74c cabd c4bb 763e 3a63 ac3e 5d7f ffbd
000001f0: c622 d0be 0a7b 153e 48f3 183e c283 6ebe
00000200: 6895 cf3e 1e5d 803e f9cd e93d 1c49 b33e
00000210: 2217 d5be 4990 d33e 47fe 4a3e d796 e3be
00000220: 60d1 613e 7c6f 503e d09e 1dbe cbdd 7ebe
00000230: f59a 01be a093 163e 099a fabe a0bc a43e
00000240: 3ab0 c73e 473f 173e 82a5 233e dfdb ddbe
00000250: 1d61 ecbe 0843 613e f7d1 afbe e809 4f3e
00000260: 5f49 d23d 8c82 853e 4933 af3e 4369 c93e
00000270: e5d2 df3e 9a5e 5bbe a6a8 ad3e 3779 9c3e
00000280: 2826 233e 4eb6 85be d5c4 973e c460 e4be
00000290: 637f adbe d4bd dbbe 4adb e9be 2ca2 393e
000002a0: 58ac f6be e395 50be 23bd 83be aaf2 a53e
000002b0: 8a5f d93e a929 91be a696 ea3c 4b49 8e3e
000002c0: ce8d 7f3e 7d1e 9bbd 8002 173e 1171 a43e
000002d0: 0cf6 9f3e e5ad 663e 189e a33c c6e5 933d
000002e0: 6622 143d e962 8cbe 6414 5a3e b6d9 cc3d
000002f0: b591 42be f119 2abe 69cc c9be 9044 373e
00000300: f159 05bf eefc 7b3e c0bf 5b3d aa4c 683d
00000310: be13 703e c753 60be a364 afbe 36ba 703e
00000320: 0b39 5ebc f7b3 803d 556a c03d f233 a93e
00000330: 8ce6 5c3e da17 c03e d128 e23e d704 22be
00000340: eb1d 6bbc e345 bf3e a4cc bc3e 7f6a cdbe
00000350: ca48 a13e 400c 88be 6e45 54bd 68c9 e7be
00000360: c6e9 bdbe 5768 de3e 4184 a6be d3eb f1be
00000370: b5d9 d0be d74e eb3e 3174 e53d a477 cfbe
00000380: 2336 cfbe 0505 893e bd74 e43e a697 16be
00000390: 6281 dd3e 29d8 843e beca 4f3e f2dd a53e
000003a0: 57e6 6cbc 032b 273e 1f42 b03e fe19 edbe
000003b0: 2852 a13e f51d bd3e d92a f8be 8a69 cbbe
000003c0: 6848 dcbe e712 c73e 5303 46be 0430 a83e
000003d0: 95ce 483e 0a13 673e da7a 763e e086 15be
000003e0: f6d2 94be 01bd fa3d 79cc 1fbe 7bd0 943e
000003f0: ca35 ca3e ff34 a73d 483c 593e 12a7 6d3e
-0.2069649 0.21381502 0.34565532 0.33550993 0.09481663 0.2438162 0.060041055 -0.3939557
0.2886714 0.39290175 0.02013755 0.04892479 0.33098772 0.036122132 -0.28968036 -0.26125303
-0.28524905 -0.034344647 -0.15413634 -0.41254693 -0.3759045 0.07399823 0.02188056 -0.21854451
0.019069862 -0.08780944 0.27742577 0.10582406 0.05378233 0.10757945 -0.0039984356 0.14280097
-0.05505768 0.01491368 0.33504683 -0.24428286 0.1265989 0.36699593 -0.22041501 -0.22308272
-0.017455222 -0.012686758 -0.3466108 0.10209221 0.2737785 0.1759902 0.33989903 -0.13133606
-0.16150294 0.26242805 -0.32496464 0.35934788 0.37303913 0.12820368 0.057247568 0.41671085
-0.02090734 -0.26976892 0.26777545 0.37464714 0.17143285 -0.10436909 0.22723155 -0.37616655
-0.43460196 0.026211713 -0.06989824 0.029007494 -0.1559748 -0.23410562 -0.4125963 0.15760405
0.25833368 -0.29050127 -0.25005865 0.49377966 0.15070142 -0.03791926 0.21734644 0.37376365
0.23580852 0.18421468 -0.3969849 0.2840272 0.27705455 -0.36680338 0.3222404 0.35625634
-0.33902293 -0.38120815 -0.21059862 0.3560066 -0.16383535 0.0453455 0.3916639 0.40223634
0.1276797 -0.28013602 -0.325877 0.31829515 -0.11463753 0.00986563 0.14392212 0.07171365
0.27494538 0.42689234 0.2508915 -0.1558334 0.24299578 0.1585597 0.33645618 -0.12273348
0.10191686 -0.39358005 -0.4240935 -0.32293272 -0.067071 0.09862196 -0.22210751 -0.5404881
-0.09877937 0.24095064 0.33669454 -0.124754645 -0.4065153 0.14597717 0.14936554 -0.23292449
0.40543675 0.25071043 0.11416239 0.35016716 -0.4161921 0.41321018 0.19823562 -0.4445102
0.22052526 0.20355028 -0.15392613 -0.24889295 -0.12656768 0.14704752 -0.48945644 0.3217516
0.39001638 0.14770232 0.15981105 -0.4333181 -0.46167842 0.21998227 -0.34339878 0.20218623
0.10267901 0.26076162 0.34218815 0.3933812 0.43715587 -0.21422806 0.3391773 0.3056123
0.15932524 -0.2611565 0.29642358 -0.44605076 -0.3388625 -0.42918265 -0.45675117 0.1812827
-0.48178363 -0.20369677 -0.25730237 0.324117 0.42455703 -0.28352097 0.028636288 0.27790293
0.24956438 -0.075741746 0.14747047 0.32117513 0.31242406 0.22527273 0.019972846 0.0722156
0.036165617 -0.27419212 0.21296841 0.100024626 -0.19000895 -0.16611458 -0.39413765 0.17897248
-0.52090365 0.24608204 0.053649664 0.056713738 0.23445031 -0.21906959 -0.34256467 0.23508534
-0.013563405 0.062843256 0.09395281 0.33047444 0.21572322 0.37518197 0.44171765 -0.15822159
-0.014350395 0.37358007 0.36874878 -0.40120313 0.31500846 -0.26571846 -0.051824026 -0.45270848
-0.37092417 0.4343898 -0.32522777 -0.47250232 -0.40791097 0.45958588 0.112038024 -0.40520966
-0.4047099 0.26761642 0.44620314 -0.14706287 0.43262774 0.25946167 0.20292184 0.32395893
-0.014459214 0.16325001 0.34425446 -0.46308893 0.31507993 0.36936918 -0.4847019 -0.39728957
-0.43023992 0.3888161 -0.19337206 0.32849133 0.19610055 0.22565857 0.24070302 -0.14602232
-0.290672 0.12243081 -0.15605344 0.29065308 0.39494163 0.08164405 0.21214402 0.23208264

ode_f.f.6.bias f4 [10]
00000000: e134 103e 21ca 2b3e d5bf 2c3e 8d8c 473e
00000010: 635b 393e 7db0 013e 3874 273e e021 213e
00000020: a582 1a3e c2b0 1f3e
0.14082672 0.16776325 0.16870053 0.1948721 0.18101268 0.12664981 0.16352928 0.15735579
0.150889 0.15594772

encoder_map.ffnn.0.weight f4 [50, 1]
00000000: 6e03 78be 2721 97be 186e 1cbe e62d 93be
00000010: f5d8 4e3e 4b9c 173e 0fd5 d83d 7130 77be
00000020: 9f4a 01be 9649 92be d59b dfbd 0422 f8bd
00000030: 4fa9 803e 6976 6d3d 031f 19be b251 a73d
00000040: 7cbb b33d 6682 843e 3470 90bd d5ab 9ebe
00000050: 5329 22be a5c4 963e db97 9f3e e0d5 2b3d
00000060: 5c23 2c3e 0f03 f8bd 6126 d4bd 7cb8 81bd
00000070: 7684 9b3e 00b6 0b3e d705 5c3e 3fcf 813e
00000080: 4dec 83be 217a 863e 67d2 9d3d cbba 35be
00000090: 6137 a03e ba34 193e 6df1 1f3e 8369 693e
000000a0: 263d 29be ef01 07be 9ff9 b0be 658e bebd
000000b0: 3ee0 57be a510 473d 88b1 8ebd f7dc 713e
000000c0: f429 693e aabe 6fbe
-0.24220058 -0.2951748 -0.15276372 -0.28745955 0.2019995 0.14805715 0.10587513 -0.24139573
-0.12626122 -0.28571767 -0.109183945 -0.12115863 0.25129172 0.057974253 -0.14953236 0.08169879
0.08775994 0.25880736 -0.07052651 -0.30990472 -0.15836076 0.29446903 0.31170544 0.041952014
0.16810364 -0.121099584 -0.10358883 -0.06334016 0.30374497 0.13643646 0.21486603 0.2535343
-0.2576622 0.26265052 0.07706147 -0.17747037 0.3129225 0.1496152 0.1561944 0.22794156
-0.16527233 -0.13184331 -0.34565446 -0.09304503 -0.21081635 0.048599858 -0.06967455 0.23619448
0.2276991 -0.23412576

encoder_map.ffnn.0.bias f4 [50]
00000000: 4a56 61bd 3ebb 3d3c c55b a3bd 1404 12bd
00000010: 0300 243c bce3 cabd 6354 f13d e7cf a73c
00000020: 532e 02bc 9f6f 1f3c c602 bd3c 9af4 383d
00000030: f6c1 393c 6e4f 643c d3b3 95bd 1918 5bbd
00000040: 99c5 39bd d69a ff3b 2803 0d3c 8e56 233c
00000050: 681a ab3d 1252 c73c 9e5f 9e3d 2558 133c
00000060: 7d1a c23c 67fa a6bd 37ab a13d 7144 cb3c
00000070: a929 963d b6e1 d03c e155 4f3d 8978 563a
00000080: 76df 6cbc 9405 ef3c 54a8 dc3c 141d 32bd
00000090: 2f13 b73c 1ad8 8ebd 2489 af3b fa57 993d
000000a0: 05a9 98bd f831 4b3d 37b2 a0bd 2c31 8bbc
000000b0: 7245 c7bc febb f43b 259e 073d fab4 933b
000000c0: 2e4b 1ebd f6a3 f93c
-0.055013932 0.011580287 -0.07976488 -0.03564842 0.010009768 -0.09906718 0.117836736 0.020484878
-0.007945615 0.009731202 0.023072612 0.045155145 0.011337748 0.013934953 -0.073096894 -0.05348978
-0.04535446 0.0078004403 0.00860671 0.009969367 0.08354646 0.024331126 0.07733081 0.008993183
0.023694271 -0.08153229 0.07893985 0.024812909 0.07332165 0.025498252 0.05061901 0.0008181413
-0.014457574 0.029177465 0.026935734 -0.043484762 0.022348015 -0.06974812 0.0053569246 0.07487483
-0.07454113 0.0496082 -0.07846492 -0.01699122 -0.024325106 0.0074686995 0.033109803 0.004507658
-0.038645916 0.03047369

encoder_map.ffnn.3.weight f4 [50, 50]
00000000: 0805 583d f0c5 05bd fcda c1bc b425 b4bd
00000010: 5c26 b9bc 650a 1cbd a94e 503d b3c3 d4bd
00000020: 3455 b4bc 01bd 0b3d 9596 10bd 4a85 c53b
00000030: dc52 5fbd 2817 d23c ea80 40bd e3bf 3b3c
00000040: e1a4 243c 8f47 f13c fe1e 8abc edbe d33c
00000050: f3b5 a23b d2cf dc3c c0af 223d 297d 9f3c
00000060: 53c4 96ba 75c4 2abd 0013 42bc d01a 4fbc
00000070: 0bd8 923d 2c95 913c 74a1 aa3d 370a 983d
00000080: 792d 82bd 3465 db3d fc3f df3c 5f18 8ebd
00000090: 31d5 6c3c 77eb edbc d86b da3b 02e3 4b3c
000000a0: 0afd c8bc 55ab 55bc d0a4 42bb 96fb eabc
000000b0: cda0 95bd a907 a63c 0bd3 0ebc eea1 bc3d
000000c0: 7a1c 98bd 7166 91bd 67d0 89bd f3f5 a1bd
000000d0: bf84 7cbd bcc4 a4bd 7889 713d ca4f 4b3c
000000e0: 0ae3 5e3d 08ad 6dbd a31a 1bbd 2375 9bbd
000000f0: b9b3 c9bc 74c3 ccbc 5779 883d ff56 cf3c
00000100: b23e 61bd 8e79 fa3b 36ec 4a3c 5166 933d
00000110: 6e33 8fbc a737 89bd 9e60 d2bc f19b 8c3d
00000120: 0ac3 c93d 0fec 653c 36fe 503d 9d73 44bd
00000130: 5d3a 9ebb 43a1 49bc fdab a33d fce7 253d
00000140: de27 8f3d 5cac 613d 8473 84bd 45ab 873d
00000150: ec67 db3c dad6 71bd 808d 963d acab ff3c
00000160: 67ba 1e3d 755a 973d ffd3 6fbd aeb1 90bc
00000170: 2a51 e1bd 6d2f ffbc 7e1f 57bd 4ece 873c
00000180: e9cb 0dbc 862b 8d3d 2a6e 293d 7279 3dbd
00000190: 1b6f e9bd a2bd 9dbd af9f 2a3d ee72 273d
000001a0: 8cfe a53d 140d b6bd 294b 193c 2bba 32bd
000001b0: ce63 133c 5887 0b3e a3cc a13c 0a26 abbd
000001c0: 83ec a3bd 276f 6bba 3630 66bb 0745 3f3c
000001d0: 6ee9 95bc 3b4a 303d 0ce5 753b 95e8 31be
000001e0: 277e 8eba 900e 653d 7e48 38bd f8d4 9f3b
000001f0: f431 0c3c 9da4 84bb 0ce9 ff3c 01c3 de3a
00000200: f007 233d cd67 df3c cb06 1cbd f989 19be
00000210: 9b2e f73d 97a7 c33d dfda 2c3b 8615 9e3c
00000220: 7e19 c53c 2510 b9bd 2de9 1cbd 665e ab3d
00000230: 4bc3 303d 91ca c0bc 18ba 073d 89a0 793b
00000240: 2c3f 573d 27ff 23bc b1b6 b93b 0282 66bd
00000250: 593b edbc da40 93bc c92a 1a3d 99be adbd
00000260: 425b 4abc 83fd 9ebd b5e9 99bd 3edd 183d
00000270: 2bca 553b ef6d c83d 41b4 04bd b0ad 453d
00000280: 9dbf b03b 02bd 1fbd e58b abbd 3ebc c0ba
00000290: 01e7 e3bc 9a04 31ba 5afb 1b3c dd03 3e3d
000002a0: c086 ae3a 4e32 40bd ae2e 6dbd 3ee2 b8bd
000002b0: 767b c23d 2d84 4c3a bc3d e2bc e031 363b
000002c0: fb96 8a3c 921b 6c3b 72b9 c3bd ec50 53bc
000002d0: 60a4 383d 815a d0bd eb99 b7bc 8c8d 9b3c
000002e0: d269 523b dc13 0f3c 3e5b 04be a871 8e3c
000002f0: b327 a8bb cb9c 83bd 1eb0 b6ba 897e 00bd
00000300: 97cb acbd 8fba b13b dcd0 90bd 0062 473b
00000310: 6b07 b03a 914b 3a3d 0f0d 193d e25f cdbd
00000320: 6657 52bd e787 883d cc33 c13d 9ef6 213e
00000330: ab6a 83bd 75e8 e3bc bccf 9cbd 958b 333d
00000340: e1eb c2bc 19cc 133e c61f 713c 5569 94bc
00000350: 103e e93d 0a45 22bd 4dde 9b3d 1268 43bc
00000360: 0da9 debc fff8 18bc dbf9 f53c 890f 5a3d
00000370: 1819 f03c 9ea9 3bbd 177c 133d 9ff3 f3bc
00000380: d667 a0bd 80c9 4f3d 9201 fabc 04a0 c63c
00000390: db0a c5bb b6b3 70bd c819 e7bc ac13 e5bd
000003a0: 5665 153e 0b38 01bd 41e2 33bd 2c9c c53d
000003b0: aa35 33be 0218 1b3d 762d a0bd 8b3c 37bd
000003c0: 48e7 ba3d 6985 a93d 0029 c53d da0c 053d
000003d0: 9e47 35bc 4a34 01bd 8825 1b3c 7c26 2a3d
000003e0: ee78 d3bc 4be4 133c 0487 f73c a1ad a1bd
000003f0: 6a4c 8e3d 7f28 053e 3314 04be 0041 d13d
0.052739173 -0.03265947 -0.02366399 -0.08796254 -0.022601299 -0.03809585 0.050856266 -0.10388889
-0.022013284 0.034115795 -0.035299856 0.006027852 -0.05452238 0.025645807 -0.046997942 0.011459324
0.010049076 0.029453067 -0.016860481 0.025847876 0.0049655377 0.026954565 0.03971839 0.01946886
-0.0011502601 -0.041691262 -0.01184535 -0.01264067 0.07170113 0.017771326 0.08331576 0.07423823
-0.063563295 0.10712662 0.02725219 -0.06938242 0.014455126 -0.029042942 0.006665688 0.01244426
-0.02453472 -0.013041337 -0.0029700287 -0.028684419 -0.07306061 0.020267325 -0.008717309 0.09210573
-0.074273065 -0.07099617 -0.06729203 -0.07908239 -0.061650034 -0.080453366 0.05896899 0.01240916
0.05441574 -0.058026344 -0.0378672 -0.075907014 -0.024621831 -0.024995543 0.06663769 0.025310038
-0.05499143 0.007643885 0.012385419 0.0719725 -0.017480578 -0.06700068 -0.025680836 0.06865681
0.09851654 0.014033332 0.051023684 -0.04796182 -0.004828735 -0.012306514 0.079917885 0.04050444
0.06990026 0.055096015 -0.06467345 0.06624464 0.026782952 -0.05904279 0.07351208 0.03120979
0.038751986 0.073903 -0.058551785 -0.01766285 -0.11001809 -0.031150544 -0.052520268 0.016577866
-0.008654573 0.06893067 0.041364826 -0.046258397 -0.11398145 -0.07702185 0.041656192 0.04088109
0.081051916 -0.08889213 0.0093562985 -0.043634575 0.008995963 0.13625848 0.019750899 -0.08356865
-0.080040954 -0.00089811016 -0.003512395 0.011674172 -0.018299785 0.04303954 0.0037520556 -0.17373879
-0.0010871337 0.05592209 -0.04499101 0.004877683 0.008556832 -0.0040479437 0.031239055 0.0016995372
0.03980249 0.027271176 -0.038092416 -0.14994039 0.12069436 0.095534496 0.0026375575 0.019297373
0.024060007 -0.090362824 -0.03830831 0.083676144 0.043154996 -0.023534091 0.033136457 0.0038090071
0.05255048 -0.0100095635 0.0056675305 -0.05627633 -0.028958963 -0.01797526 0.03763846 -0.08483619
-0.012350859 -0.07763197 -0.07515279 0.037320368 0.0032621722 0.09786593 -0.032398466 0.048261344
0.005393936 -0.03899861 -0.08376292 -0.0014704538 -0.027820112 -0.00067527 0.009520376 0.046390403
0.0013315305 -0.046922974 -0.057905845 -0.09027527 0.094962046 0.0007801678 -0.027617328 0.0027800724
0.016917696 0.0036027175 -0.09556855 -0.012897711 0.045078635 -0.10173512 -0.022412261 0.018988393
0.003210653 0.008732762 -0.12925431 0.01738818 -0.0051316856 -0.0642639 -0.0013937985 -0.031370673
-0.08437269 0.005423851 -0.07071087 0.0030423403 0.0013429945 0.045482222 0.03736597 -0.10028054
-0.05135288 0.06666546 0.094337076 0.15816733 -0.0641683 -0.027820805 -0.0765681 0.043834288
-0.023794116 0.14433326 0.014717048 -0.018116632 0.113887906 -0.039616622 0.0761076 -0.011926668
-0.02718022 -0.009336709 0.030026367 0.05323747 0.02930884 -0.045816056 0.036007013 -0.029779254
-0.07832305 0.050729275 -0.030518327 0.024246223 -0.006013257 -0.058765136 -0.028210536 -0.11185393
0.14589438 -0.031547587 -0.043916944 0.09648928 -0.1750094 0.037864693 -0.07821171 -0.044735473
0.09126145 0.08277399 0.09626961 0.03248296 -0.011064438 -0.031544007 0.009469397 0.041540608
-0.0258145 0.009026597 0.030215748 -0.07894445 0.069481686 0.1300373 -0.1289833 0.10217476

encoder_map.ffnn.3.bias f4 [50]
00000000: 5e8f 1a3d 354e 213e 323d a83c ee9a 8bbc
00000010: 561a 07bc 789d 30bd 5e99 f33d f5f3 a53c
00000020: b517 12bd 5eaf 2cbd 04a6 0abe 0b06 453d
00000030: aa51 1dbd 58f3 163d 10e0 f3bc 1324 2b3e
00000040: 17e9 733c ed4c 883d 44f1 943d f4ff b5bc
00000050: 587d 103d a003 d2bc a23b 6bbc 3e62 0a3d
00000060: cd62 903c cafd c4bd 355f 55bd fdc5 1abd
00000070: cb63 f03d 598d f13d 50b0 16bc 1cdc 83bb
00000080: 1088 f2bd 99e7 21be c645 6d3d 2e68 c5bc
00000090: a11c d0bd 3855 4a3c 5047 ca3d e80a 9bbd
000000a0: c7b0 b43d 9e6d 1a3a 0ce2 ea3c 1bc2 69bc
000000b0: 9da1 64bd c175 25bc 2817 8ebc 3163 33bc
000000c0: 1238 413e d831 59bc
0.03773438 0.1575249 0.020536993 -0.01704165 -0.008246025 -0.043118924 0.11894487 0.02025793
-0.03566714 -0.04215943 -0.13539892 0.048101466 -0.03840796 0.036853164 -0.029769927 0.1671298
0.014887116 0.066552974 0.0727258 -0.022216775 0.035275787 -0.025636494 -0.014357479 0.033785097
0.017625237 -0.09618719 -0.05209275 -0.037786473 0.11737784 0.11794538 -0.00919731 -0.004024042
-0.11842358 -0.15811004 0.05792787 -0.024097528 -0.101617105 0.012349419 0.09876883 -0.075704396
0.0882278 0.0005890968 0.02867224 -0.01426747 -0.05581819 -0.0100988755 -0.017345026 -0.010948942
0.18869045 -0.013256513

encoder_map.ffnn.6.weight f4 [10, 50]
00000000: d5a1 1dbe 535a d6bd 256f 2cbd 3967 8a3d
00000010: 2ba0 803e 48f7 f13d 1294 57be 5382 963d
00000020: 89b4 513d 55b1 533e 6517 573e 7a95 b4bd
00000030: 123c 3f3e 969a 87be 4b23 f23d 90e9 29be
00000040: f336 16be 53b7 84bd 5fe2 12be 562f a8bb
00000050: fe45 4dbe da73 cf3d c834 94bb 263d 803d
00000060: 7d3a 66be ecaa 513e a30f 1c3e b219 523e
00000070: 63f4 a2be 498d 70be 82a3 04bc 8993 583e
00000080: 1d7f 473e 744e 5a3e a263 2ebe 2681 cebc
00000090: 3162 313e 0838 333e 1b3c 8dbd a386 803e
000000a0: 746f 47be 139e 033c 3bf9 1bbd 8847 783b
000000b0: 010a 113e 3c92 68bd e686 dabd 167e dcbd
000000c0: 98b5 80be e9f8 7a3d 6965 253d cf34 64be
000000d0: 340c 2cbd 9647 473e 8efd 8ebd 120c 2a3d
000000e0: 64ff 7e3e 8899 fcbc 593e 1bbd 1559 f0bd
000000f0: 461e 22be 0efc f43d d94f a53d fa1d 663e
00000100: 9cb9 9dbd 897a 6a3e d95c 873d 9599 853d
00000110: 6796 0f3d 91e9 ed3d 8bdd f63d 0147 ecbd
00000120: 0bb1 8c3d c846 e8bd c3ce bebd 1fc3 8c3d
00000130: dd4e 82bd f82c cabd fd7d 803e e3c9 d03d
00000140: 77e7 c5bd 8cd3 4fbd 91c1 4ebe 74ca 223e
00000150: c8e6 d63d f897 a4bc 3493 183c f218 b0bd
00000160: 16b5 663e 6539 213e d630 b33b 0fff aa3d
00000170: 3331 9a3d ac7c 78bd 2417 6c3d e472 54be
00000180: 656e 0f3e 92cc 92bb 75ad 7d3d 388c b5bd
00000190: 8d0f 733b 8368 0fbe 88e7 433d 77d6 313e
000001a0: c6fd 4d3e 9b00 13be 744b 823e 94f5 2dbd
000001b0: 0144 8a3d 3b34 c53c b6e0 a5bd d1ea 08be
000001c0: 85b4 333d c954 59bd 24fd c3bc f8c9 543e
000001d0: a18c e5bd 125d 343d 6b97 493e 4071 df3d
000001e0: ba69 433e 6e37 39bd a330 0f3d 69c8 91bd
000001f0: 9dc4 f0bd 8010 d4bd fd20 103e 02b1 843d
00000200: 80e1 2a3e 44c7 603b 8ea8 10bd e954 31bd
00000210: 5764 18be 0255 1b3d 9c44 2a3e 6eac a43d
00000220: ab64 30bb abd2 f5bd 1c82 61be 116c 34be
00000230: fb80 6c3d e40e 433c 6aa9 09be 2bba 3bbd
00000240: cac1 52bd 21a9 b83d cc59 7b3d 15df a93d
00000250: c899 1a3e 20ad e8bc 725f 323d 35dd e8bd
00000260: 4cc0 49bd de43 03be 979c 803d 3a2a 2e3d
00000270: 3a31 023e f93c 92bd 353b 1fbd 4cd2 9bbd
00000280: c6c5 a63c 959f d9bd df97 f3bc 83d7 b03d
00000290: 15b7 813d 4b12 28be d748 093a 48bc 84bd
000002a0: 644f d2bd 612b 84be 740f ea3d 2a0a a63b
000002b0: c3fa 6dbc 3c93 b3bd 19d4 083e 46bd 19bd
000002c0: 3d10 4bbd 2905 87bd 683a 143d 5883 af3d
000002d0: 7e03 af3d a95f 923d 5c1f cb3d 9930 773e
000002e0: a047 72bd df1b 833c 7ef7 6b3c d5f9 603d
000002f0: a13b 48be b216 0cbc 3b15 833d 1f2d 68bd
00000300: 62ff 0cbe 1525 ce3c 3be7 cdbd 1181 2bbd
00000310: e3ee 04be 0583 c73b 846c 2a3c 52f3 b93d
00000320: 0ec6 f3ba bdc4 50bd 6e19 da3c d3ff babd
00000330: 4d95 10bc 2738 d33d 711a 66be e61d 26bd
00000340: 8da8 c23d 8676 093d e43f 633e da1c e7bd
00000350: 5709 c93d 65df da3d 81dd 2ebc c0b0 80be
00000360: 6c82 19be 2982 31be 11fb 2cbe 60fb 9cbd
00000370: 8308 fbbd f18d 153e 2d5c e0bc 69b2 4e3e
00000380: 32c7 983b 4fe7 1b3e 95af d93d 0027 cd3d
00000390: 8c34 4fbe 810d 3ebe 6c96 0a3e e4fc 8abd
000003a0: 5098 1f3e 0cc4 353e a1af 75be 89de 40bd
000003b0: 298b de3d 026f b3bd 2347 c9bd 65fd c23d
000003c0: c32a 68bd 5f4d 393e 9341 ca3d aa49 4c3d
000003d0: a775 e53d 4121 bf3b cb62 7b3c cfdf 6ebd
000003e0: fc1f 82be e4db 5b3d df1f e53c 38ac 913c
000003f0: 4620 f3bc 09d3 d0bd 28a5 e7bd 154a 8a3d
-0.15393765 -0.10466447 -0.042098183 0.067579694 0.25122198 0.11814743 -0.21052578 0.07349076
0.051197562 0.20673116 0.21005018 -0.08817573 0.18675259 -0.26485127 0.11823138 -0.16593003
-0.14669399 -0.06480279 -0.14344166 -0.005132596 -0.20046231 0.10129519 -0.0045228936 0.06261663
-0.22483249 0.20475358 0.1524034 0.20517614 -0.31827077 -0.23491396 -0.008095624 0.2115003
0.19482084 0.2131899 -0.17030194 -0.025208067 0.17322613 0.17501843 -0.0689623 0.2510272
-0.1947611 0.008033293 -0.03807948 0.0037884433 0.14163972 -0.056780085 -0.10670261 -0.107662365
-0.25138545 0.061272535 0.040379915 -0.2228577 -0.042003825 0.19460902 -0.069819555 0.041515417
0.24902111 -0.030834928 -0.037901256 -0.11735741 -0.15831861 0.11962138 0.0807187 0.22472373
-0.07701418 0.22898306 0.06609506 0.06523434 0.035055544 0.11616815 0.12053975 -0.115369804
0.06869706 -0.113416255 -0.093167804 0.06873154 -0.06362698 -0.09871858 0.2509612 0.10194757
-0.09663289 -0.050738856 -0.20191027 0.15897542 0.10493237 -0.020091996 0.00931244 -0.08598508
0.22530016 0.1574455 0.005468468 0.0834943 0.07528915 -0.06066577 0.057639256 -0.20746952
0.14006956 -0.004479953 0.061933 -0.08864635 0.0037088126 -0.14004712 0.047828227 0.17366968
0.20116338 -0.143557 0.2544819 -0.04247053 0.06751252 0.024072757 -0.08099501 -0.13370825
0.04387333 -0.053059373 -0.023924418 0.2078017 -0.112084635 0.04403407 0.19686668 0.109102726
0.190833 -0.045218877 0.034958493 -0.07118303 -0.11756251 -0.103547096 0.14075084 0.06479074
0.16687584 0.003429846 -0.035316996 -0.043293867 -0.14882027 0.037922867 0.16627735 0.08040701
-0.0026915472 -0.12003072 -0.22022289 -0.17619349 0.057740193 0.011905406 -0.13443533 -0.04583184
-0.051454343 0.09016634 0.061364934 0.08294503 0.15097725 -0.028402865 0.043548055 -0.11370317
-0.049255654 -0.12818858 0.06279867 0.04252074 0.12714091 -0.07140536 -0.038874824 -0.0760847
0.020357978 -0.10626141 -0.029735504 0.086348556 0.06333748 -0.16413228 0.0005236989 -0.06481224
-0.10269049 -0.25814345 0.11428729 0.0050671296 -0.014525118 -0.08768317 0.13362159 -0.03753402
-0.049576033 -0.06592781 0.036188513 0.08569974 0.08545588 0.07147152 0.09918091 0.24139632
-0.05915034 0.0160045 0.014402268 0.05492576 -0.19553997 -0.008550333 0.06400534 -0.056683656
-0.13769296 0.025164166 -0.10053869 -0.041871134 -0.12981753 0.006088617 0.010401849 0.09079613
-0.0018598454 -0.050968874 0.026623454 -0.09130826 -0.008824659 0.103134446 -0.22471024 -0.040555857
0.09504805 0.0335603 0.22192341 -0.112848 0.098162346 0.106871404 -0.010672928 -0.2513485
-0.14991158 -0.17334808 -0.16892649 -0.076651335 -0.12257483 0.14604928 -0.027387703 0.20185246
0.004662418 0.15224956 0.10629193 0.10017204 -0.20234889 -0.18559839 0.13533944 -0.06786516
0.15585446 0.17750567 -0.23992778 -0.047087226 0.108663864 -0.087614074 -0.098280214 0.095209874
-0.056681406 0.18095921 0.098757885 0.04987494 0.11204081 0.0058328216 0.015343378 -0.05831891
-0.25415027 0.0536765 0.027969299 0.017782316 -0.029678475 -0.10196502 -0.11310798 0.06752411

encoder_map.ffnn.6.bias f4 [10]
00000000: a040 cdbd 6a03 ef3b 3075 afbc 204d 55bc
00000010: 860c bebd a587 493c b56f 033c ef0a 983c
00000020: 4d53 813c 4605 703a
-0.10022092 0.007294108 -0.021418184 -0.013018876 -0.092797324 0.012300407 0.0080222385 0.018559901
0.015786791 0.0009156059

readout_map.ffnn.0.weight f4 [50, 10]
00000000: 47bb 943b 33f7 453e a829 18be 8921 513e
00000010: 693a fcbc 7e18 34be 4c4f c53c 0559 01bc
00000020: b5a1 d0bd e419 4ebd d215 fe3c 8234 81bd
00000030: 9e26 6f3e 14a6 91be 5d88 59bd 2205 abbd
00000040: 9500 3fbe f9c2 d23d 5aed 293e 8b9d 0e3e
00000050: 0d34 c33c a6eb 49bd 7feb 40be 223b 0ebe
00000060: 16df 5b3e a633 dfbd fa8a 0abe f4b3 503e
00000070: 3bcb 8b3d 8ea3 593d f8bf 1fbd 7080 593e
00000080: ee67 18bd 5b82 b63d f589 173e a9d5 a5bb
00000090: 75c3 14be 7fc8 5e3e 0f1e 71be 7178 3abe
000000a0: b1fa aabd 8ff7 4e3e dce3 6abe dadc 2f3e
000000b0: 186a 783e 9e32 60be aee7 69be 8ca1 86be
000000c0: b737 273e 212e 6b3e ce27 ba3d e885 ed3d
000000d0: 05f1 af3d ea2a 163e 3363 3bbe ee9f 0e3e
000000e0: 7e45 833d 4f37 b03d e2df adbe a96a 0abe
000000f0: 7009 4fbe 3d6c 023e 1e7e 903e 40d4 033e
00000100: 9809 323c 5a7f 2cbe b034 b43d d40c 1abe
00000110: 68bc 103e f750 8dbe 5e6f d63d 3fc9 67bc
00000120: 174e 513e fdc9 4abd 5e7a 56be 97f0 0ebe
00000130: 74b8 b8bd 5590 3f3e 1af0 2cbe ab0b 5c3e
00000140: ff1b 373e 7b1c 3cbe 91b8 153e ab47 203e
00000150: 69ab 89be 880f a83e 8c3f 83be 891c 02bd
00000160: fc98 1f3e 7b46 7fbe 3af7 a13d 201a 41be
00000170: 894e 5b3e cc34 78be 523c 16be e988 8abb
00000180: ac40 863e 6ebb 3abe a937 9a3e cf45 c8bd
00000190: d376 28bc c7ef 6ebe f902 453e 3d44 b43d
000001a0: 5fb6 153e 54c0 abbc 367a 6c3b 0598 4abe
000001b0: 5dc5 babc e5c9 7e3d 8912 363d 4e55 313e
000001c0: d376 52be 69f4 5e3d 8cbb aabd de8a 373e
000001d0: 171f 04be 82ac 65be de5d 743e 1e3e 29bd
000001e0: d57f 0c3e b07d 37bd dcab 33be a799 8c3e
000001f0: 9e33 8abe a6ac 843e 09e1 33be 2b61 88be
00000200: f7ab 463c 39ef 713e 044e 5abe 3c54 0dbe
00000210: c241 793e b0a6 313e f099 dabd 2298 a6be
00000220: 3324 6b3e aee0 863e 2aaf 1bbe d4f9 babb
00000230: a95a a83c af06 553d d801 ea3d 9c6f b5bc
00000240: 2b5a 93be 2c47 833e dca6 963d 7cd0 213d
00000250: 114a 19be 896b e7bd df17 a23e 8097 573e
00000260: 0636 103e be02 1c3c 341c 59be a117 72be
00000270: 4094 3bbe 8603 8fbd f79b f93d 062b b1bd
00000280: b456 403e 06e4 aabd 3d58 54be f1f2 01be
00000290: e097 0c3e 7d8f cfbd bee0 0abd f4b6 013e
000002a0: 4c6c 1a3e ba16 38bd ba66 12be 6863 6fbe
000002b0: 705b b13d c1a2 c53d 2fa2 263d 6f6e fd3d
000002c0: 9818 18be 72c6 18bc 6551 9bbd b329 563e
000002d0: 7e64 b33d 885b 063e 3f45 5dbe 63f1 f23d
000002e0: f745 78be 6cf9 65be c5c6 3e3e 4872 513b
000002f0: f931 d53d aad5 e03d f0f7 7fbe 5033 43be
00000300: 45eb 92be 8e73 d33d 9d6b 5a3e e458 f7bc
00000310: 8c83 5a3d ee12 7c3e 93ab 603d c57c a93d
00000320: 8e76 ebba 293b 1d3d 9769 6c3d b89c c6bd
00000330: f86b fb3d c8e7 70bd db69 25be bba7 0bbe
00000340: 4ef4 5e3e b583 43bd eeb1 afbd 1bac 583e
00000350: 2bf3 013e 201a c73d 8f04 1dbd c949 b63d
00000360: efbb 53be 8449 5b3e cff2 55be 277d 6bbe
00000370: d7b5 ebbc 18c5 3c3d cbcc 793c 2a8b 2fbe
00000380: c39a 19be 86e1 8a3d 2d56 e0bd 8d68 d1bc
00000390: b2a0 fa3d f27a 233e c682 83be b62a d3bb
000003a0: a84e 993d b345 f23d 5295 bf3c 8562 6ebe
000003b0: 904a 4bbd 5279 a33c 5e5c 1d3e 2805 b63d
000003c0: e64b cc3d 0a08 623e 87ae 543e 135e aebe
000003d0: eb29 98bd c779 3bbe 74b2 22be 402a 9a3d
000003e0: e1c2 a93d a40f 303e 1895 b43d 1060 7fbe
000003f0: d396 a83c 94da 80bd bb9f 853c f3fd 853d
0.0045389268 0.1933258 -0.1485964 0.20422949 -0.03078957 -0.17587468 0.024085663 -0.007894759
-0.10187093 -0.05031766 0.031016264 -0.06308843 0.23354575 -0.2844702 -0.05310856 -0.083505884
-0.18652566 0.10291094 0.16594449 0.13927285 0.02382853 -0.049296997 -0.18839835 -0.13889745
0.2147182 -0.10898523 -0.13529578 0.20381147 0.068258725 0.053134494 -0.039001435 0.21240401
-0.03720849 0.08911582 0.1479872 -0.0050608707 -0.14527686 0.2175617 -0.23546623 -0.18210007
-0.08348597 0.20211624 -0.22938484 0.17174092 0.24259222 -0.21894309 -0.22842285 -0.26295125
0.16329847 0.22966816 0.090896234 0.11597806 0.08590893 0.14664808 -0.1829956 0.13928196
0.06409739 0.08604299 -0.33959872 -0.1351725 -0.20218444 0.12736602 0.2822122 0.12873936
0.010866545 -0.16845456 0.08799112 -0.15043956 0.14134371 -0.27600834 0.1047046 -0.014147102
0.20439945 -0.049509037 -0.20945117 -0.13958965 -0.09019557 0.18707402 -0.16888466 0.21488826
0.17881773 -0.1837024 0.14621188 0.15652339 -0.26888588 0.3282435 -0.2563442 -0.031765494
0.15585703 -0.2492923 0.07908483 -0.18857622 0.21416678 -0.2423889 -0.14671448 -0.0042277467
0.26221216 -0.18235561 0.3012059 -0.0977894 -0.010282236 -0.23333655 0.19239415 0.08802078
0.1462035 -0.020965733 0.0036083586 -0.19784553 -0.022799188 0.06220426 0.04445127 0.17317697
-0.2055314 0.054432306 -0.08336553 0.17924067 -0.12902485 -0.22429088 0.23863932 -0.041319005
0.13720639 -0.0447976 -0.17546028 0.27460977 -0.26992506 0.2591297 -0.17566313 -0.26636633
0.012125961 0.23626412 -0.21318823 -0.13801664 0.24341491 0.17348742 -0.106738925 -0.32537943
0.22963028 0.26343292 -0.15203539 -0.0057060514 0.020551043 0.052008327 0.11426133 -0.022147946
-0.2877973 0.25640237 0.07356045 0.039505467 -0.1496966 -0.112998076 0.31658837 0.21053886
0.14083108 0.009522138 -0.21202165 -0.23641826 -0.18318272 -0.06983094 0.12187951 -0.08650784
0.18783075 -0.08344273 -0.20736785 -0.12690331 0.1372981 -0.1013479 -0.033905737 0.12667447
0.15080374 -0.04494355 -0.14297 -0.23377764 0.086600184 0.096501835 0.040682014 0.12374579
-0.14853132 -0.009324657 -0.07583884 0.20914344 0.08759402 0.13120854 -0.21608447 0.11862447
-0.2424544 -0.22458428 0.18630512 0.0031958986 0.10409922 0.10978253 -0.24996924 -0.19062543
-0.2869512 0.10324775 0.21330114 -0.030193754 0.05334811 0.24616596 0.054851126 0.08275751
-0.0017964409 0.038386498 0.057717886 -0.096978605 0.12276453 -0.058814794 -0.16153662 -0.13638203
0.21772882 -0.047733027 -0.08578859 0.21159403 0.12690417 0.0972178 -0.038334426 0.08900792
-0.2067716 0.21414763 -0.20893405 -0.2299696 -0.028773231 0.0460864 0.01524658 -0.1714293
-0.15000443 0.067812964 -0.10953937 -0.025562549 0.122376814 0.15964869 -0.2568571 -0.0064443005
0.074857056 0.118297 0.023386631 -0.2327977 -0.049631655 0.019955311 0.15367267 0.08887702
0.09975414 0.22073379 0.20769702 -0.34056148 -0.0742987 -0.18308173 -0.15888387 0.0752759
0.08289123 0.17193466 0.088175 -0.24938989 0.020579731 -0.062916905 0.016311517 0.065425776

readout_map.ffnn.0.bias f4 [50]
00000000: 17a9 a33d 8df2 ddbb 9198 a63d 4370 80bc
00000010: c1f7 b93c 4598 83bd 4dbf d7bc 847f 26bd
00000020: e05c 123d 267f bd3b a174 de3a 76db 4fbc
00000030: a3d8 893c e6f7 d7bc 6118 c2bc de32 093d
00000040: 468d 423d f0b6 903c 1fef 8ebd 0e73 0cbd
00000050: 6ebd 823d a02f b7bb 902f 4d3d a54c edbb
00000060: d0eb 8fbd e196 e53c ca03 e8bb daf9 0ebd
00000070: ce36 f93c 1824 2f3d 3556 4fbd a00a 8f3d
00000080: 69bc 013d a766 843d dd70 43bc 3815 1d3d
00000090: f304 8bbd 682a 723b 7c19 74bc 04ee 903c
000000a0: 0a83 02bd 11fb 60bd a2f5 b8bc 4fae 71bd
000000b0: 1674 d43c fa38 84bb cf99 e9ba 2a53 4cbd
000000c0: d91d 6cbd 9776 203d
0.07991236 -0.006773299 0.081345685 -0.01567853 0.022701146 -0.064255275 -0.026336337 -0.040648952
0.035733104 0.0057829795 0.0016972014 -0.012686601 0.016826933 -0.026363324 -0.023693265 0.033495776
0.04749801 0.017665356 -0.069792025 -0.034289412 0.06383787 -0.005590394 0.050094187 -0.0072418028
-0.070273995 0.028026046 -0.00708053 -0.034906246 0.03042164 0.04275903 -0.050619323 0.069844484
0.031673823 0.06464892 -0.011928764 0.038350314 -0.06788053 0.0036951546 -0.014898654 0.01769162
-0.03186325 -0.054926936 -0.022578064 -0.059004124 0.02593426 -0.0040351124 -0.0017822328 -0.049884
-0.057645652 0.039175596
